ppo_critic.pth (torch, 20143 bytes, 5 tensors)

layer1.weight f4 [64, 3]
000000 c2 a1 b1 be 82 7c d6 3e 49 4c c4 3e e5 47 c3 3e
       -0.34693724 0.41891867 0.3833945 0.3814079
000010 0e a6 11 3f b2 f7 04 bf ae d0 9e bd a1 20 55 3e
       0.56894004 -0.51940453 -0.07754646 0.20813228
000020 fb 1d 12 3e a0 55 ea be df 91 b0 3d 49 31 27 bc
       0.14269249 -0.45768452 0.08621573 -0.010204622
000030 36 1f ca be b5 9c 57 bd fe f1 3d 3e 44 38 0e 3e
       -0.39476937 -0.05263968 0.18549344 0.13888651
000040 3e 2d 98 be 40 f9 f9 3e 39 bc 08 3f 8d b2 eb be
       -0.29722017 0.48822975 0.53412205 -0.4603466
000050 02 e6 22 be c5 97 61 bc 56 24 f1 be 37 88 5e be
       -0.15908054 -0.013769095 -0.47098035 -0.2173165
000060 e3 ba c8 be b8 44 f7 3d 43 22 b2 3d 22 5f ad 3e
       -0.39205083 0.12073654 0.08697941 0.33861643
000070 b1 8e ac 3e 32 08 50 be 5a 49 e6 be e9 3f 35 bc
       0.33702615 -0.20315626 -0.44977838 -0.011062601
000080 1d 16 07 3f 9c b4 86 3e 80 f3 db be 7e ed e5 be
       0.5276812 0.2630967 -0.42959213 -0.44907755
000090 17 3e 53 bc 40 4a 1e be 62 32 0d 3f 30 be 06 3f
       -0.012893221 -0.15458012 0.55155003 0.52633953
0000a0 15 b4 ea bd f6 27 96 be 61 8f 48 3e 5e 35 03 3f
       -0.11460129 -0.29327363 0.19585945 0.51253307
0000b0 82 3f 61 3e f3 5b 3b bb a1 67 45 be 02 c9 d8 be
       0.21996883 -0.0028588742 -0.19277813 -0.42340857
0000c0 97 be ff be 54 1f f9 be 21 36 f1 be 46 01 06 bf
       -0.49950096 -0.48656714 -0.4711161 -0.52345693
0000d0 57 a2 87 3e e1 b6 b3 be 6e 72 bc 3e f1 15 0d 3f
       0.26491043 -0.35100463 0.36806053 0.55111605
0000e0 60 39 fc 3e 4c ef ea 3d 84 a5 79 be e0 d0 b4 3d
       0.49262524 0.114714235 -0.24379545 0.08828902
0000f0 8d 74 a1 be 1b 15 10 3d 02 b2 84 3e 75 ae ed be
       -0.31534234 0.035176378 0.2591706 -0.46422163
000100 1f 27 01 3f d5 a8 29 3e b1 cf 08 3e 48 e6 d9 3c
       0.5045032 0.1656831 0.13360478 0.026599064
000110 41 46 96 be 62 ab 12 3f ee 7f 8f bd be 02 0d 3f
       -0.29350474 0.5729276 -0.070068225 0.5508231
000120 07 d3 c6 be 80 d5 ad 3e 49 d7 6d 3d 4e b0 aa be
       -0.38832876 0.3395195 0.05806664 -0.33337635
000130 d9 5f 53 3e f7 b3 d1 be 87 26 07 3f a3 b8 10 3f
       0.20642032 -0.40957615 0.52793163 0.56531733
000140 1c 27 dd bd 6d e3 c4 3e c7 87 ef be 2f e1 63 be
       -0.10798475 0.38454762 -0.46783277 -0.2225387
000150 d6 b0 37 3e 1a c9 68 3e 1b 18 04 bf 46 c5 16 be
       0.17938551 0.22732964 -0.5159928 -0.14723691
000160 03 ab e0 be af 51 b8 bd c8 cd 0c 3d d8 e7 4e 3d
       -0.43880472 -0.08999955 0.034375936 0.050514072
000170 cd ef cc 3e 0f 78 a0 3e b0 dc f8 3e 19 96 d2 be
       0.40026703 0.31341597 0.4860587 -0.4113014
000180 6e cb 00 3f a2 65 1a be f2 83 4c 3e e5 9a b4 3e
       0.5031041 -0.15077832 0.19972208 0.35274425
000190 8f b2 dc bd d5 41 2e 3d 76 7d 2d bd e8 db 99 be
       -0.10776245 0.04254325 -0.042355977 -0.30050588
0001a0 9e f1 b9 be d4 05 4d 3e 41 80 3d 3e 27 c6 da 3e
       -0.36317152 0.20021755 0.18505956 0.42729303
0001b0 fb 2d cd be 15 09 10 3f a1 d3 10 3f 4a 1b 3c be
       -0.40074143 0.5626386 0.5657292 -0.18369785
0001c0 9d a2 03 3f 29 e8 9a 3e 9e 5c 20 3e 12 ff ec be
       0.51420003 0.3025525 0.1566033 -0.46288353
0001d0 29 0d bd 3e 7d 81 cb bd 90 70 eb be c6 07 62 3d
       0.36924103 -0.09936807 -0.45984316 0.055183195
0001e0 bc 49 11 3e ca 2f ce 3e d4 b0 15 be dc dd b4 be
       0.14188284 0.40270835 -0.14618236 -0.35325515
0001f0 bf bf 5c 3e 8f 41 d8 3e 88 22 c6 3b 57 44 84 be
       0.2155752 0.42237517 0.006046597 -0.2583339
000200 ed ae af 3e e9 fb 6d 3e 7b 97 bc 3e b6 e5 0a bf
       0.34313145 0.23240627 0.3683432 -0.5425676
000210 2a f4 31 be 2b 7d be bd a5 14 f7 be b1 0f f4 3c
       -0.17378297 -0.09301218 -0.48257938 0.029792638
000220 12 13 00 3f a9 bd 05 bf 7e 13 0e bf 7c 39 9c be
       0.500291 -0.52242523 -0.5549849 -0.30512607
000230 a0 5e 03 3f 0b 74 2b 3d 05 d5 c5 bc 4b 4d 8a be
       0.5131626 0.041858714 -0.024149427 -0.27012095
000240 ef 9a 0d bf 72 d9 1b be d8 43 c3 be a1 0c 19 be
       -0.55314535 -0.15219668 -0.38137698 -0.14946224
000250 98 3d c9 be 33 e1 0b bf b6 16 09 bf d6 cb 5f be
       -0.39304805 -0.546405 -0.5355028 -0.21855101
000260 49 bb eb 3d 1a 99 dd 3e 30 bb b3 be 2c bb 03 be
       0.11510331 0.4328087 -0.3510375 -0.12864369
000270 93 89 4d be 3a 47 77 3e d7 bd e2 be 97 84 60 3d
       -0.20072012 0.24148265 -0.4428546 0.054813948
000280 7a 1c 6d be bd 64 bd be 46 f7 36 3b 25 91 db be
       -0.23155394 -0.3699092 0.0027918383 -0.42884174
000290 4e 24 dc be 61 73 10 bf 1b 6a fa be 61 90 fa be
       -0.42996448 -0.56426054 -0.48909077 -0.48938277
0002a0 c4 f9 8a bc 42 0c 0e bf e0 c5 1f 3e 3c 8d 16 bd
       -0.0169648 -0.55487454 0.15602827 -0.036755785
0002b0 e5 ad 11 3f 0d f9 ad bd 15 af 0b bf 2f 9e e2 3e
       0.56905967 -0.08494768 -0.5456403 0.4426131
0002c0 50 d1 08 3f 4a f4 2e 3e 8d bd 7b 3e 45 cc 13 3e
       0.53444386 0.17085376 0.24584027 0.14433391
0002d0 76 ef a0 3e 6f 45 22 be 05 2e da 3b 9a e4 fa be
       0.31432694 -0.158468 0.006658318 -0.49002534
0002e0 d3 43 01 3e b1 ed ab 3e 55 84 b3 3e d4 b7 aa 3c
       0.12623529 0.33579782 0.350619 0.02083961
0002f0 d2 c3 88 3c 67 cd bf 3e 51 bd 04 bf 51 4b 0c be
       0.016694937 0.37461397 -0.51851374 -0.13700606

layer1.bias f4 [64]
000000 94 bd c9 be 17 24 06 bf c3 9d e6 be f6 62 c7 3b
       -0.3940245 -0.5239882 -0.45042238 0.006084795
000010 9c b8 e7 bd 4d f1 f9 3e 28 0a 87 be d0 c6 b9 3e
       -0.11314508 0.4881691 -0.26374936 0.36284494
000020 76 a6 f8 be 09 b6 e2 be 14 b6 df bd d8 44 86 be
       -0.485645 -0.44279507 -0.109234005 -0.262244
000030 af 7c e9 3e 9c cd bc 3e dd 87 a1 3e 62 b1 be bd
       0.4560294 0.36875618 0.31548968 -0.09311177
000040 a8 16 12 3e 21 05 b7 38 47 4a 60 3d 3e 91 90 3e
       0.14266455 8.727075e-05 0.054758336 0.2823581
000050 2b e4 a2 3d b4 2f cc bc 17 11 05 bf 4f 97 11 3f
       0.07953676 -0.02492509 -0.519792 0.56871504
000060 55 b4 99 be ce 4a cc 3e 97 ad bc be 1e 0a f5 be
       -0.30020395 0.3990082 -0.3685119 -0.4785928
000070 05 fa 8b 3e 21 df a4 3e 9b c2 cc 3e d6 65 ae 3e
       0.27339187 0.32201484 0.39992222 0.3406207
000080 e7 d5 0d 3f 94 10 a0 be 57 6f 01 bf 69 99 fb 3d
       0.55404514 -0.31262648 -0.50560516 0.1228512
000090 23 2b fb bd 19 4e f5 be cf bc 2d be 42 6e 7f be
       -0.12264087 -0.47911146 -0.16966556 -0.24944404
0000a0 bf f8 a1 be 0f dd 6d 3d c3 e7 9a 3e 3a f4 fb be
       -0.3163509 0.058072146 0.30254945 -0.49209768
0000b0 ae 98 3d 3b 30 cc 04 3d 94 00 b4 3e c7 2f 81 3c
       0.0028930116 0.03242129 0.3515669 0.015769852
0000c0 fc 31 c6 be c8 2b 26 be 5c e2 a8 be 68 9e c5 3e
       -0.3871001 -0.16227639 -0.32985198 0.38597417
0000d0 45 4d 8f bc e5 32 01 bf ed 33 7b 3e f9 4d a7 3d
       -0.0174929 -0.50468284 0.24531527 0.08169169
0000e0 ef 6e 27 3e 3b b7 74 be e2 2b b5 bd d0 07 8a be
       0.16350912 -0.23898022 -0.088462606 -0.26959085
0000f0 85 32 ce 3e b6 33 da be 61 ea 99 be 3c c5 d2 3e
       0.40272918 -0.42617577 -0.3006163 0.41166103

layer2.weight f4 [64, 64]
000000 0c 01 4b 3d 8c 05 b7 bd a0 10 ba bc e0 ad 33 bd
       0.049561545 -0.08936605 -0.022713006 -0.043866992
000010 e4 97 d0 3d 48 59 26 3d be cc bd bd 90 b1 9a 3c
       0.10185221 0.04061249 -0.09267567 0.018883497
000020 38 9f 9d bc 7c 17 26 bd d8 47 96 bd 54 7e a9 bd
       -0.01924096 -0.04054974 -0.07337922 -0.08276048
000030 2c 73 bf 3d 48 1a 7d 3d e0 3f ad bd e0 15 ff bc
       0.09348139 0.061792642 -0.08459449 -0.03113836
000040 7e 7f f6 3d 3c a5 b9 3d 24 f9 b4 3d 30 c0 66 bc
       0.12036036 0.09064719 0.08836582 -0.014083907
000050 90 2d b7 3c 1a 2e da bd c4 02 73 bd 2c ad 54 3d
       0.022360593 -0.106533244 -0.05932881 0.051922962
000060 ea a9 80 3d 44 0c fd 3d e0 07 06 bc 80 7e 64 3d
       0.062824085 0.12355855 -0.0081805885 0.055784702
000070 bc ce 92 bd 50 50 82 3d 40 9e 00 bb 40 d8 1f bb
       -0.07168338 0.06362975 -0.0019625574 -0.002439037
000080 1a 4b d4 bd 9c 5d 63 bd e8 5d 30 3d 86 95 f5 3d
       -0.10365887 -0.055509195 0.043058306 0.1199141
000090 c0 9a a6 bb 2a 34 95 bd 9c 22 22 bd 88 6e 9d 3d
       -0.0050843656 -0.0728534 -0.039583787 0.07687098
0000a0 24 ff 40 bd b6 db a6 3d e0 b1 1f bd 0c f1 c3 bd
       -0.04711832 0.08147375 -0.038987994 -0.095674604
0000b0 34 6f 51 bd a8 22 3d 3d 18 b0 d7 3c 60 0f 4d bd
       -0.051131442 0.04617563 0.026329085 -0.05006349
0000c0 96 46 ae 3d 80 aa 26 bb ac 99 70 3d 14 21 4f bd
       0.08509557 -0.0025431216 0.058740303 -0.050568655
0000d0 38 17 1b bd c8 a0 b4 3c 60 aa c0 bc 90 82 4b 3d
       -0.03786394 0.022049323 -0.023518741 0.04968506
0000e0 58 db a4 bd f0 26 02 bd ee 53 92 3d 20 6d 81 bc
       -0.08049649 -0.031775415 0.071449146 -0.015799105
0000f0 30 0b e3 bd 9e a9 a3 bd a4 f2 c4 3d a4 32 cc 3d
       -0.11086118 -0.07991336 0.096165925 0.099705964
000100 46 25 92 bd 54 7c ee bd 80 e1 59 bb 68 9d b9 bc
       -0.071360156 -0.116448075 -0.003324598 -0.022658065
000110 82 7a c4 3d ec 19 88 bd 40 45 c4 bb 80 5a 67 3d
       0.09593679 -0.06645569 -0.0059897006 0.056482792
000120 7c 8c 9f 3d c2 93 b8 bd e8 f4 c2 3c d0 15 83 bd
       0.07790467 -0.090125576 0.023798421 -0.06400645
000130 90 cb 8a 3c 70 fb ad 3d 84 1f 25 bd 66 97 c7 bd
       0.01694277 0.084952235 -0.04031326 -0.09745674
000140 f8 b0 f3 3c bc 21 f9 3d a6 42 d1 bd 7a 2f 96 bd
       0.029747471 0.121646374 -0.1021779 -0.07333274
000150 48 02 f6 3c 40 4c ec 3b f0 1e 41 bd 94 28 86 3d
       0.030030385 0.007211238 -0.047148645 0.065507084
000160 9c 95 a9 3d 20 82 2d 3c c0 13 17 bb d4 29 e2 bd
       0.08280489 0.010590106 -0.0023052543 -0.11043134
000170 50 5c 68 bc 82 4a ab 3d 88 76 97 bc 46 85 b1 bd
       -0.014182165 0.083638206 -0.018489137 -0.08667998
000180 cc 91 24 bd 70 02 e7 3c ca 8a df 3d 78 1c af 3d
       -0.040178105 0.028199404 0.10915144 0.08550352
000190 0e 54 f3 3d 08 49 5c bd 50 e8 f6 3c 90 12 dc bd
       0.118812665 -0.053780586 0.030140072 -0.10745728
0001a0 a0 08 1c 3d 04 db f5 bd e8 c2 26 3d 9e de fb bd
       0.038094163 -0.120046645 0.04071322 -0.1229832
0001b0 bc 4f 0c bd de 8a 93 bd 9e df c1 3d 60 e7 48 bd
       -0.034255728 -0.07204221 0.0946648 -0.04904878
0001c0 70 78 21 bc 00 5d b0 bb 00 f7 d3 3a ea 3e c8 bd
       -0.009855375 -0.00538218 0.0016171634 -0.09777625
0001d0 70 d9 bb 3c bc 52 5f bd 9a 51 b6 bd e0 31 0a 3c
       0.02293083 -0.05452226 -0.08902283 0.008434743
0001e0 a0 2c c1 bc 40 83 6d 3b fe 70 de bd 20 15 66 bc
       -0.02358085 0.0036241561 -0.10861395 -0.0140431225
0001f0 ae 84 cd 3d e2 d3 ad bd 30 b9 69 bc cc 3a 75 3d
       0.10035072 -0.08487679 -0.014265344 0.059870526
000200 d4 b0 fe bd 80 fe 04 bd 80 5c c6 3d 84 43 e6 3d
       -0.12436071 -0.032469273 0.09685612 0.11243346
000210 60 db d3 bd 1a 00 9a bd 90 48 47 bc 02 43 9d 3d
       -0.10344577 -0.075195506 -0.012163296 0.07678796
000220 f8 b9 ab bc 6e 85 e8 3d b8 51 80 bc aa a3 cf bd
       -0.0209627 0.11353575 -0.015663967 -0.10138638
000230 f8 59 68 3d 42 b9 e0 3d 32 a3 e6 bd 2c f6 8e 3d
       0.056726426 0.10972835 -0.11261596 0.06980547
000240 80 e9 c3 3a 90 8c b6 3d c0 e5 c7 3c fe de 83 bd
       0.0014946908 0.08913529 0.024401546 -0.06439017
000250 cc f8 7f 3d 50 9b d2 3d ea 39 e9 3d e6 2d cf 3d
       0.06249313 0.1028353 0.11387999 0.10116176
000260 f0 04 3b bd 2c 4f a8 3d 1c 4e 2e bd 90 7b 2e bd
       -0.045659006 0.08218226 -0.04255496 -0.042598307
000270 b8 6c f2 bd 48 ef 69 3d 20 cf 64 3d e8 9e b4 3c
       -0.11837143 0.057112962 0.055861592 0.022048429
000280 dc e7 dc bd 40 6b e5 3c 40 06 c3 bd c4 b6 d9 3d
       -0.10786411 0.028005242 -0.095226765 0.10630563
000290 56 f3 a4 3d c0 00 13 bd 20 c0 86 bd dc c0 6e bd
       0.08054225 -0.035889387 -0.06579614 -0.058289394
0002a0 20 14 9b 3d 40 7a 9f bc d4 22 ac 3d 44 59 62 3d
       0.07572198 -0.019467473 0.084050804 0.05526091
0002b0 20 ae 60 bc 3a 93 e2 bd f4 b4 4a bd e8 44 ba bd
       -0.01371339 -0.110632375 -0.049488977 -0.09095174
0002c0 d8 41 fb bc 9c b0 e5 3d 60 86 47 bc 50 40 80 bd
       -0.030671045 0.11215326 -0.012178034 -0.06262267
0002d0 8a e1 90 bd 68 82 c8 bc 90 54 5b 3d 90 b2 50 3c
       -0.07074268 -0.024476245 0.053547442 0.012737885
0002e0 40 31 00 bc 60 b1 c3 3d 60 00 01 bd ce 0d f1 bd
       -0.007824242 0.09555316 -0.0314945 -0.11770211
0002f0 0a 35 e8 bd 80 86 6f bd 2a f3 c5 bd 9c 0d 1e bd
       -0.113382414 -0.05847788 -0.096655205 -0.038587198
000300 90 aa e2 3d e6 6f d5 bd d0 49 7b bd 1c 21 dd 3d
       0.110676885 -0.104217336 -0.06134969 0.10797331
000310 0c f0 fc bd 9c d6 84 3d 40 66 ae 3d a8 ba f9 bc
       -0.12350473 0.06486246 0.085155964 -0.030484512
000320 bc 25 d1 3d 8a 67 dc bd 38 eb a5 bc 58 47 ee bc
       0.102122754 -0.10761936 -0.020253763 -0.029086754
000330 9e c9 80 3d 64 2e 3d 3d 28 1c 37 bd 50 30 29 bd
       0.062884554 0.04618682 -0.044704586 -0.04130584
000340 54 b3 4e 3d 64 0a e9 bd 68 19 92 3d 72 65 89 3d
       0.05046399 -0.11378935 0.07133752 0.06708802
000350 d0 7e 06 3c c4 25 48 3d 0a ee d0 bd 10 5e a3 3d
       0.008208945 0.04886414 -0.10201652 0.079769254
000360 f4 f7 38 bd 0e ca f6 bd 76 23 93 bd ac 5b 6f bd
       -0.04515834 -0.120502576 -0.07184498 -0.058437034
000370 64 46 e7 bd f6 fa 98 3d c0 66 b2 bc e0 f7 41 bc
       -0.11292723 0.07469742 -0.02177751 -0.011838883
000380 8c d0 af 3d 90 b9 ab 3d 42 04 bd 3d a0 ea af 3b
       0.08584699 0.083850026 0.09229328 0.0053685457
000390 58 81 f9 3d ac 18 3b bd 48 b1 09 bd 14 24 ce bd
       0.121828735 -0.045677826 -0.033616334 -0.10065475
0003a0 40 fd d8 3c 20 18 de 3d c8 c4 5a 3d 92 17 ce bd
       0.026487947 0.10844445 0.05341032 -0.100630894
0003b0 d2 65 94 3d 9c 75 25 3d bc 9a 52 3d 46 e1 f1 3d
       0.07245983 0.040395364 0.051417097 0.118105456
0003c0 0e 7a 84 bd 58 57 99 3c 42 5f c0 bd d8 54 78 bd
       -0.064685926 0.018718407 -0.09393169 -0.06062779
0003d0 44 7f 0b 3d 64 11 f2 3d 70 8f 23 bc c8 95 b9 3c
       0.034056917 0.11819723 -0.009982929 0.02265443
0003e0 ee 77 84 bd 54 76 7b bd 14 a2 28 bd a0 56 9c 3d
       -0.06468187 -0.061392143 -0.041170195 0.0763371
0003f0 c4 0c 5f 3d b2 6f ac 3d c0 c9 e3 bb 84 6d cb 3d
       0.054455534 0.08419742 -0.0069515407 0.09932998

layer2.bias f4 [64]
000000 22 e3 cb 3d 80 dc 25 bd 44 e9 5c bd 2c c7 aa bd
       0.099554315 -0.04049349 -0.053933397 -0.0833877
000010 22 d9 b5 bd f0 63 39 3c 68 35 c7 3c 20 fe 44 bc
       -0.088793054 0.011315331 0.024317458 -0.012023479
000020 e0 95 41 3d bc 3a 36 bd 40 63 4f bb d0 dc 44 3d
       0.047262073 -0.044489607 -0.003164485 0.048062146
000030 c4 18 29 bd 80 a5 0b bc 7c b8 75 3d 04 28 6c 3d
       -0.041283384 -0.008523345 0.05999039 0.05765535
000040 dc a8 71 3d 68 20 aa bd 00 af 25 3c 48 87 12 3d
       0.058998927 -0.08306962 0.010112524 0.035773546
000050 a0 69 f6 bc d6 da a4 bd a8 a6 f1 3d dc 11 ed bd
       -0.030079663 -0.08049552 0.11799365 -0.11575672
000060 f8 76 6d 3d ba f7 a4 3d 32 e4 c2 3d 60 be 3c bd
       0.057974786 0.080550626 0.09516181 -0.046079993
000070 e8 92 c2 3c 5a da e6 bd 60 fc ca bc d4 76 8f bd
       0.023751691 -0.11272116 -0.024778545 -0.070050865
000080 2a be c1 bd 38 06 e9 bc a8 82 51 bd 84 bb 25 bd
       -0.09460099 -0.028445348 -0.051149994 -0.040462032
000090 a0 f8 e6 3d e8 f9 2a bd 70 37 42 bd e8 94 a9 bd
       0.1127789 -0.041742235 -0.04741615 -0.08280355
0000a0 22 ae d6 3d aa 15 a3 3d 52 90 cc bd c8 ed e6 bd
       0.10482432 0.079631165 -0.099884644 -0.11275822
0000b0 08 a2 ed 3c d8 14 86 3c 3c ef 05 3d 64 82 cf bd
       0.029007927 0.016367361 0.032698855 -0.10132292
0000c0 18 db be bd 58 28 cc 3d 40 2d 5b bd 00 da e8 3c
       -0.093191326 0.099686325 -0.05350995 0.028424263
0000d0 dc c0 fc bd fc 54 fd 3d ac 91 da bd ae af c1 bd
       -0.123414725 0.12369725 -0.10672316 -0.09457336
0000e0 d0 4a ab 3c ee ec 84 bd a0 f8 0e bd 10 be d5 3c
       0.020909697 -0.06490503 -0.034905076 0.026091605
0000f0 20 f4 97 3b 58 98 38 3d 00 86 35 3b 64 ad e3 3d
       0.0046372563 0.04506716 0.0027698278 0.11117056

layer3.weight f4 [1, 64]
000000 6d e8 6e 3d c0 55 2b 3d ca 4c 0a be 6d de 79 3c
       0.058327127 0.041829824 -0.13505855 0.015250784
000010 e3 fb fa 3c c0 7a 5e 3c 0e 26 ee bb 5b 55 ee bd
       0.030637687 0.013579071 -0.00726772 -0.11637374
000020 cf 1f 99 3d c9 c4 00 be 90 f9 bb 3d 3b f6 04 be
       0.0747677 -0.12575068 0.0917846 -0.12984554
000030 2f 68 15 3c 1e 21 18 be 76 66 09 bc a7 4c 8c 3d
       0.009119078 -0.14856383 -0.008386245 0.06850558
000040 7e c0 a6 3d 0f 9d 23 3d e3 5b 32 bd 9e 28 db bc
       0.08142184 0.039944705 -0.04354466 -0.026752766
000050 84 74 04 bd b8 2d fe 3c 1a c4 d1 bd a4 e7 95 bd
       -0.03233768 0.03102766 -0.102424815 -0.073195726
000060 f6 0e d7 bd 0b 82 0c be 9b ce 7b 3d e9 cd 07 be
       -0.105009004 -0.13721482 0.06147633 -0.13262142
000070 83 d2 6c 3c 98 42 ce bc 85 8f 46 bd d0 ed a3 bc
       0.014454487 -0.025178239 -0.048476715 -0.020010859
000080 c4 8a 84 bd dc 85 47 3b f8 b5 12 be ad eb c2 3d
       -0.0647178 0.0030444777 -0.14327228 0.09517608
000090 d1 ed b1 bd dd 71 06 be c0 f6 c4 3c 26 98 b5 bd
       -0.08687938 -0.13129373 0.02404344 -0.08866911
0000a0 d6 0d da bd 8e 8a 08 bc df 2f 0b be 18 cd a8 bd
       -0.1064717 -0.008333815 -0.1359248 -0.082422435
0000b0 45 0a dd bd 88 2f fd 3c 66 c2 4a bd 97 53 95 bd
       -0.107929744 0.030906454 -0.0495018 -0.07291334
0000c0 c4 dd 0e bd 2a f9 48 bc 03 40 85 bd 7f 79 dd bd
       -0.03487946 -0.012266437 -0.0650635 -0.10814189
0000d0 52 59 cb bd cc 65 98 3d 3d be 8b bd d9 6c b1 3d
       -0.09929146 0.07441291 -0.068233944 0.08663339
0000e0 6f 48 12 be 4e 78 ed bd 59 5f bb bd d9 b1 24 3d
       -0.14285444 -0.11595212 -0.091490455 0.04020867
0000f0 6a 06 00 be 9b cf 2a bd 57 9d 9c 3c 3b 0e b8 bd
       -0.12502447 -0.041701894 0.019117994 -0.08987089
