ppo_critic.pth (torch, 21679 bytes, 5 tensors)

layer1.weight f4 [64, 9]
-0.10140775 0.2354558 -0.013524887 -0.37211022 0.37694177 0.43078166 -0.21917021 0.5580673
0.12616657 0.36193538 0.15290086 0.2021779 0.16900761 0.14603646 0.3736954 -0.040082965
0.3858771 -0.37779093 0.121829055 -0.18804371 0.42670277 -0.35316154 0.14559329 -0.3293969
-0.33516818 0.46250495 -0.26357874 0.1332013 0.46343327 0.06058599 0.13506489 0.4238844
0.042448286 -0.09638004 0.34527212 -0.1791868 -0.14131436 0.35688663 0.38730472 0.4887867
0.122043386 -0.20133197 0.2652136 0.1862758 0.26808864 0.15801522 0.34844428 0.40209112
0.20144315 0.19690354 -0.16928734 -0.23993218 0.07373489 -0.013493487 0.27128625 0.11406802
-0.2416511 -0.289496 -0.01457655 0.36159247 -0.072433345 0.45565537 -0.090257704 -0.11247969
-0.046897817 -0.19821233 0.023271741 0.21168007 -0.20143841 0.031664263 0.14718755 -0.38521168
0.3932434 -0.063910306 0.045169715 0.13401024 0.10722093 0.11770846 0.19910133 0.22383615
-0.235563 -0.13362654 0.27475032 -0.13952571 0.14850031 0.20753235 0.40176144 0.20047797
-0.16631517 0.12904833 0.4524068 -0.06040255 0.30938378 0.08393927 0.26955533 -0.3982115
0.15549801 0.18521722 -0.27426583 0.17145194 -0.28850815 0.4449105 0.058581367 0.1240721
0.10487552 -0.4867771 0.48219046 0.07021485 -0.03633008 -0.15516634 0.005399272 0.14008214
-0.19804735 -0.41302365 -0.18075624 0.25875023 -0.2574228 -0.107950106 0.12771559 -0.198384
-0.117119536 0.3363181 -0.06451158 -0.12483763 0.38226724 -0.26392034 -0.058612835 0.0456823
0.064237535 0.29575142 -0.19868156 0.414845 -0.042514786 0.36723953 0.19209187 0.2952977
0.21325462 -0.122236095 0.24621208 0.06746113 0.40628546 -0.4531656 0.20062274 0.0077388464
0.27308902 0.3393067 0.03400487 0.047551934 0.09525197 0.46478108 -0.37051296 0.41882774
0.10366518 -0.3949171 0.19629794 0.042351127 0.18050343 0.53839284 -0.10158702 0.43389273
-0.042780224 0.3091327 0.45949137 -0.08366472 -0.006434339 0.050794836 0.37655902 0.46086267
0.13981208 0.1021716 0.17828444 -0.31247118 0.2942773 0.21946579 0.42340907 0.6166714
-0.022359883 0.4925505 -0.099432625 0.15750866 0.27104628 0.23756522 0.31166062 -0.26250598
0.32209665 0.11670645 -0.28410515 0.35998476 -0.12179232 -0.33052793 0.020978304 0.46817476
-0.53282404 0.2651158 -0.13703033 -0.35751268 -0.3150183 0.21129343 -0.20791623 0.3531199
-0.06493607 -0.36733398 -0.1423344 -0.31802946 0.16891763 -0.059282433 -0.38352567 0.4281143
0.29277644 0.28785503 -0.16696468 -0.27021864 0.2831153 -0.36220676 -0.12579465 0.055361915
0.34491265 -0.19037175 0.32176682 0.3799408 0.33073267 0.008869709 -0.010069248 0.26730856
0.059777904 0.040755685 -0.041537456 0.13734438 -0.54992795 0.3022644 -0.3565479 -0.17697918
0.28685498 0.09598701 0.006068567 -0.1659591 -0.20827179 0.17225577 0.31024078 0.36953327
0.13609263 -0.15842511 -0.19338438 -0.06463465 -0.0625556 0.09359839 -0.2794504 -0.020489547
-0.26274803 -0.39991084 0.17916481 0.042184312 0.45673043 -0.15040548 0.03213413 0.2010684
00000000: deae cfbd 531b 713e 7d97 5dbc 3b85 bebe
00000010: 83fe c03e 6a8f dc3e 286e 60be 80dd 0e3f
00000020: cf31 013e 984f b93e 0b92 1c3e b907 4f3e
00000030: 5510 2d3e 958a 153e 0155 bf3e 092e 24bd
00000040: af91 c53e d06d c1be 8381 f93d 888e 40be
00000050: c978 da3e 97d1 b4be 6816 153e b6a6 a8be
00000060: 2a9b abbe 73cd ec3e cbf3 86be ec65 083e
00000070: 2047 ed3e 0429 783d 734e 0a3e 6007 d93e
00000080: 41de 2d3d e662 c5bd 82c7 b03e bf7c 37be
00000090: b6b4 10be d8b9 b63e ce4c c63e 4042 fa3e
000000a0: e2f1 f93d f829 4ebe 14ca 873e 15bf 3e3e
000000b0: ea42 893e bece 213e 4a67 b23e e3de cd3e
000000c0: 1d47 4e3e 15a1 493e a959 2dbe c8b0 75be
000000d0: 5102 973d c913 5dbc 08e6 8a3e 7e9c e93d
000000e0: 6373 77be d238 94be 7bd2 6ebc a622 b93e
000000f0: ef57 94bd a94b e93e 08d9 b8bd c05b e6bd
00000100: ed17 40bd 2cf8 4abe 61a4 be3c a9c2 583e
00000110: df45 4ebe 63b2 013d 55b8 163e 773a c5be
00000120: 3357 c93e 68e3 82bd e103 393d fb39 093e
00000130: a696 db3d 2211 f13d 38e1 4b3e 4e35 653e
00000140: 6d37 71be 65d5 08be 13ac 8c3e d4df 0ebe
00000150: 7710 183e 5c83 543e adb3 cd3e 194a 4d3e
00000160: 864e 2abe 3f25 043e dda1 e73e aa68 77bd
00000170: 8d67 9e3e 5ae8 ab3d 2803 8a3e 61e2 cbbe
00000180: df3a 1f3e 95a9 3d3e 926c 8cbe 1991 2f3e
00000190: 57b7 93be 4fcb e33e 04f3 6f3d 8319 fe3d
000001a0: fac8 d63d d93a f9be abe1 f63e cecc 8f3d
000001b0: dace 14bd ede3 1ebe 60ec b03b b171 0f3e
000001c0: edcc 4abe d677 d3be 2a18 39be e97a 843e
000001d0: eccc 83be f214 ddbd e0c7 023e 2d25 4bbe
000001e0: 5edc efbd e331 ac3e a61e 84bd dfaa ffbd
000001f0: 88b8 c33e 9120 87be 0314 70bd 5d1d 3b3d
00000200: f88e 833d bb6c 973e 2e73 4bbe 9066 d43e
00000210: fc23 2ebd d206 bc3e bbb3 443e 4331 973e
00000220: 6b5f 5a3e eb56 fabd 051f 7c3e 1029 8a3d
00000230: a604 d03e 5205 e8be 0c70 4d3e 2696 fd3b
00000240: 53d2 8b3e 9cb9 ad3e b148 0b3d d1c5 423d
00000250: 7713 c33d c9f7 ed3e e0b3 bdbe 9770 d63e
00000260: 694e d43d 9332 cabe 5402 493e 6078 2d3d
00000270: e4d5 383e 1dd4 093f db0c d0bd 3027 de3e
00000280: 513a 2fbd a446 9e3e 7442 eb3e 6958 abbd
00000290: 26d7 d2bb 3f0e 503d 58cc c03e 31f6 eb3e
000002a0: e62a 0f3e 583f d13d 3290 363e 39fc 9fbe
000002b0: 84ab 963e a4bb 603e 13c9 d83e 2dde 1d3f
000002c0: 132c b7bc 942f fc3e 55a3 cbbd f349 213e
000002d0: 94c6 8a3e 4c44 733e fb91 9f3e 2f67 86be
000002e0: dae9 a43e cb03 ef3d 3b76 91be ec4f b83e
000002f0: 406e f9bd f53a a9be b1da ab3c 9ab4 ef3e
00000300: 2867 08bf 42bd 873e ae51 0cbe e70b b7be
00000310: 144a a1be 4e5d 583e fee7 54be 22cc b43e
00000320: 34fd 84bd 3313 bcbe 1cc0 11be c2d4 a2be
00000330: bef8 2c3e 23d2 72bd 7a5d c4be cc31 db3e
00000340: cbe6 953e bc61 933e caf8 2abe 195a 8abe
00000350: 7df4 903e 2a73 b9be 50d0 00be 2dc3 623d
00000360: 6498 b03e d0f0 42be 9fbe a43e 9a87 c23e
00000370: cb55 a93e 4252 113c 7df9 24bc abdc 883e
00000380: add9 743d 6fef 263d 2e23 2abd 01a4 0c3e
00000390: 14c8 0cbf 66c2 9a3e 728d b6be 083a 35be
000003a0: a8de 923e d694 c43d d4da c63b 2ff1 29be
000003b0: 3345 55be d163 303e e1d7 9e3e 7733 bd3e
000003c0: de5b 0b3e 313a 22be 8e06 46be 2c5f 84bd
000003d0: 271d 80bd 83b0 bf3d 1f14 8fbe b2d9 a7bc
000003e0: e986 86be 1dc1 ccbe fb76 373e 75c9 2c3d
000003f0: 92d8 e93e e503 1abe 149f 033d e0e4 4d3e

layer1.bias f4 [64]
-0.06344673 0.10746125 -0.08479763 -0.18687132 0.23758757 0.4524958 0.34013677 -0.11676849
0.29239294 0.40014225 -0.007857996 0.39958787 0.18434153 0.03835266 0.37383533 -0.035570484
-0.13488168 0.32732254 0.105859555 -0.049047846 -0.19243237 0.092863806 0.052740954 0.3471749
0.41823837 0.100756295 0.27788907 0.08073749 0.1714972 -0.14209889 0.35967904 -0.22644196
0.023628749 -0.17053826 0.31786424 -0.11467877 0.13911994 0.22307427 0.07196349 0.3840258
0.3547865 0.074824326 -0.105151385 0.12452963 0.081509374 0.46314612 0.14513305 0.41044244
0.19545926 -0.026347095 -0.12937249 0.34036884 -0.045293305 0.27226985 0.3698399 -0.116736226
0.20745355 0.14272842 -0.097284 0.12910023 0.22415899 -0.053430587 0.40388104 0.31344226
00000000: 5cf0 81bd a514 dc3d 61aa adbd 325b 3fbe
00000010: 284a 733e 88ad e73e 6826 ae3e 5124 efbd
00000020: 87b4 953e 72df cc3e d3be 00bc c896 cc3e
00000030: 07c4 3c3e ae17 1d3d 5867 bf3e 5bb2 11bd
00000040: 6c1e 0abe d296 a73e e5cc d83d 65e6 48bd
00000050: fe0c 45be 612f be3d e606 583d e9c0 b13e
00000060: 5723 d63e 5159 ce3d 7a47 8e3e b259 a53d
00000070: f69c 2f3e 5f82 11be da27 b83e 67e0 67be
00000080: 1491 c13c 95a1 2ebe 1abf a23e b4dc eabd
00000090: 7575 0e3e 956d 643e 9861 933d 089f c43e
000000a0: 93a6 b53e 7f3d 993d 9c59 d7bd 6409 ff3d
000000b0: 63ee a63d 7d21 ed3e c29d 143e 8325 d23e
000000c0: 7926 483e ddd5 d7bc 397a 04be d344 ae3e
000000d0: 7985 39bd f466 8b3e a85b bd3e 6713 efbd
000000e0: b46e 543e 6627 123e d53c c7bd da32 043e
000000f0: ef89 653e 08da 5abd 7fc9 ce3e 817b a03e

layer2.weight f4 [64, 64]
-0.012672636 -0.27562892 0.1071172 -0.06756994 0.19424127 -0.16731547 -0.22707894 0.21629886
-0.11861443 0.068880625 0.2969107 0.05572001 0.10091974 -0.03983798 -0.11495023 -0.05270745
0.10015429 0.34589484 -0.14807944 0.2055471 0.016017044 0.10645167 0.29877904 -0.20379105
-0.17824262 0.17141487 -0.24796142 0.25113648 -0.06545334 0.09179803 0.16871215 0.20285617
-0.030536886 0.22783735 -0.025883116 0.22949895 0.035436068 0.14138952 0.16075546 0.16037963
0.044300154 -0.22760855 -0.1168939 -0.10384887 -0.03837321 0.1077952 -0.23231444 -0.10857607
-0.018782364 0.35988572 0.2589012 0.18910018 0.11707614 0.16430058 0.12622148 -0.16643044
-0.014820925 0.26786858 0.3456594 -0.19519089 0.10990356 0.20391442 -0.2691316 0.022518503
0.14684753 0.06152116 -0.049935 0.10595925 0.13982745 -0.02896179 -0.08858337 0.04777093
0.0755994 -0.03450046 0.19819751 -0.015803136 0.011070017 -0.06291178 -0.023871675 -0.03793172
-0.011276318 0.119392 0.083452806 0.22294393 0.014519587 0.012107167 0.0009669711 -0.17219672
0.040836964 0.17232479 -0.0816919 0.22652267 -0.045957167 0.09706916 0.121836714 -0.0043401574
0.016841067 0.00658436 0.059757352 0.14902776 -0.05083399 -0.1424194 0.08724689 0.059924778
-0.0168879 -0.114577666 -0.17092727 0.11727256 0.031859122 -0.13036169 -0.10448945 -0.06858877
-0.0043469206 0.013837419 0.14420395 0.10339421 0.058753863 0.04072992 0.13086987 -0.07637978
-0.043658 0.19167548 -0.28943786 -0.19860889 0.17059326 -0.06775179 0.13524707 0.12936337
0.16532555 0.017920513 0.27821544 0.07570703 0.056157745 -0.11422463 0.10858672 0.18284528
-0.011269506 -0.08683741 0.044637486 0.072433904 0.021100909 0.24073878 -0.09728416 0.09606727
0.05437891 0.03798192 0.03904116 -0.05127607 0.15454026 -0.0565512 0.02809884 0.0033600123
0.009754508 0.2070729 -0.2500945 0.17961493 0.0049526445 0.19916596 0.099908054 0.02609484
0.07644069 0.03982147 0.060347356 0.08745522 0.08492224 0.12537993 0.021032166 -0.10165887
0.08104269 0.0062061106 0.010242605 -0.06332694 0.13203727 -0.26166666 -0.060035966 -0.16690278
-0.075244896 0.24241176 0.1443018 0.14886147 0.06764244 -0.16306975 -0.0010164909 0.10393556
0.035047285 0.18779972 -0.17678413 -0.09607941 0.012941194 -0.08495231 -0.14177851 -0.16792794
-0.08128177 -0.010642372 0.16070585 0.09120735 0.18440744 0.08779227 0.012087414 0.13927463
-0.022945806 -0.15514004 0.21520269 0.12296819 0.24681807 0.23145472 -0.24925783 0.11001289
-0.044103023 -0.04008567 -0.045823403 -0.004282228 0.066180356 0.023281451 0.015776545 0.093089856
0.02490053 0.29183248 -0.17525923 0.13569786 -0.08865657 0.12866157 0.00027655516 0.03633046
0.032321986 0.08733314 -0.07343752 0.07870575 -0.014837564 0.04922425 0.033819452 -0.0109093115
0.21063499 0.10556519 0.06923333 -0.028022591 0.16679393 -0.042636435 -0.088686265 -0.12346035
0.0042109843 0.18150629 0.14299387 0.002065596 -0.02908219 0.07950118 -0.034807447 -0.07784636
0.094942436 0.26140147 -0.25215298 0.006720632 -0.21768498 0.1459094 -0.055553865 -0.22131318
00000000: e3a0 4fbc 3c1f 8dbe 4360 db3d 1c62 8abd
00000010: 2fe7 463e bf54 2bbe 6287 68be 737d 5d3e
00000020: 1fec f2bd 4911 8d3d ae04 983e aa3a 643d
00000030: 02af ce3d 262d 23bd 076b ebbd c4e3 57bd
00000040: b11d cd3d 2119 b13e 23a2 17be f07a 523e
00000050: 2d36 833c 5503 da3d 91f9 983e 9aae 50be
00000060: 3c85 36be 6187 2f3e 99e9 7dbe f694 803e
00000070: 670c 86bd 9b00 bc3d e1c2 2c3e 87b9 4f3e
00000080: 7e28 fabc 324e 693e d408 d4bc c601 6b3e
00000090: 6925 113d 6ac8 103e 149d 243e 8f3a 243e
000000a0: 1474 353d 3712 69be 1266 efbd b7ae d4bd
000000b0: 3a2d 1dbd bbc3 dc3d d6e3 6dbe 215d debd
000000c0: 79dd 99bc f142 b83e b38e 843e 7aa3 413e
000000d0: 9ec5 ef3d 693e 283e 3440 013e be6c 2abe
000000e0: 77d3 72bc 1226 893e 45fa b03e 1fe0 47be
000000f0: 1e15 e13d f1ce 503e 9ecb 89be b978 b83c
00000100: 335f 163e 9dfd 7b3d a488 4cbd 2a01 d93d
00000110: ed2e 0f3e 4741 edbc 336b b5bd 73ab 433d
00000120: dcd3 9a3d 5b50 0dbd 4af4 4a3e 9475 81bc
00000130: 045f 353c e4d7 80bd 888e c3bc 4b5e 1bbd
00000140: 4ec0 38bc cb83 f43d 4ee9 aa3d 6a4b 643e
00000150: 90e3 6d3c 245d 463c 557c 7d3a 5654 30be
00000160: a944 273d e975 303e 154e a7bd 8ff5 673e
00000170: 953d 3cbd 32cc c63d 8785 f93d e137 8ebb
00000180: 47f6 893c 9dc1 d73b 20c4 743d bc9a 183e
00000190: 4d37 50bd 64d6 11be 7fae b23d af73 753d
000001a0: 7e58 8abc b2a7 eabd 8f07 2fbe 992c f03d
000001b0: b67e 023d 897d 05be 91fe d5bd 4578 8cbd
000001c0: 9d70 8ebb 58b6 623c 33aa 133e 58c0 d33d
000001d0: e4a7 703d 6bd4 263d c002 063e 016d 9cbd
000001e0: bbd2 32bd 9446 443e 3331 94be 2160 4bbe
000001f0: 00b0 2e3e 73c1 8abd 357e 0a3e d577 043e
00000200: 1a4b 293e 0ace 923c 4172 8e3e 4a0c 9b3d
00000210: aa05 663d 9aee e9bd b762 de3d cb3b 3b3e
00000220: bca3 38bc d0d7 b1bd ccd5 363d 3a58 943d
00000230: d0db ac3c 3a84 763e eb3c c7bd ebbe c43d
00000240: 6cbc 5e3d ee92 1b3d a0e9 1f3d db06 52bd
00000250: cd3f 1e3e 3ba2 67bd 8a2f e63c a733 5c3b
00000260: 5fd1 1f3c eb0a 543e 630c 80be faec 373e
00000270: cb49 a23b 29f2 4b3e 989c cc3d d9c4 d53c
00000280: f08c 9c3d d61b 233d ca2e 773d b91b b33d
00000290: b6eb ad3d 9963 003e a64b ac3c 8732 d0bd
000002a0: b6f9 a53d a15c cb3b 99d0 273c 8eb1 81bd
000002b0: c734 073e 2cf9 85be 46e8 75bd 90e8 2abe
000002c0: ff19 9abd ca3a 783e dac3 133e 246f 183e
000002d0: 1f88 8a3d c2fb 26be c63b 85ba 2bdc d43d
000002e0: be8d 0f3d 924e 403e e606 35be 48c5 c4bd
000002f0: 4d07 543c 7afb adbd 632e 11be 4df5 2bbe
00000300: 0e77 a6bd 585d 2ebc 1390 243e ebca ba3d
00000310: 4ed5 3c3e 6fcc b33d 4a0a 463c 029e 0e3e
00000320: d8f8 bbbc 08dd 1ebe 185e 5c3e bfd6 fb3d
00000330: e0bd 7c3e 7702 6d3e 723d 7fbe 704e e13d
00000340: 5fa5 34bd df30 24bd 52b1 3bbd ef51 8cbb
00000350: 9189 873d beb8 be3c d03d 813c e5a5 be3d
00000360: 32fc cb3c 116b 953e 2877 33be 61f4 0a3e
00000370: 9391 b5bd dcbf 033e 9bfe 9039 40cf 143d
00000380: 0f64 043d b8db b23d 6966 96bd 7b30 a13d
00000390: 4119 73bc 5e9f 493d 4486 0a3d f8bc 32bc
000003a0: b3b0 573e 9032 d83d 34ca 8d3d a28f e5bc
000003b0: 07cc 2a3e 8ba3 2ebd 25a1 b5bd c8d8 fcbd
000003c0: 4cfc 893b c9dc 393e fc6c 123e f35e 073b
000003d0: c63d eebc 84d1 a23d 4192 0ebd ea6d 9fbd
000003e0: 2e71 c23d 6ad6 853e 321a 81be bf38 dc3b
000003f0: d0e8 5ebe 4669 153e 738c 63bd ec9f 62be

layer2.bias f4 [64]
-0.15655942 -0.019682828 -0.12038232 0.093393356 0.12783332 -0.042436194 -0.003879074 0.086585306
0.05266747 0.06334479 0.15771155 -0.11950379 0.0434317 0.02828673 -0.09963971 0.18343724
-0.08841854 0.047650214 0.12553225 0.049631394 0.18320945 -0.16170861 -0.09216854 -0.07204838
-0.056882028 0.020448683 0.04032847 -0.096674815 0.10859822 -0.13792951 -0.04917886 0.11445659
-0.057657115 0.18306191 0.10036502 0.1795148 -0.06066396 0.023001391 0.08837757 -0.11269626
-0.17293124 -0.12043103 0.13461047 0.17096625 0.07699447 0.00053312525 0.074503765 -0.0040169014
-0.15783434 0.08536737 0.06748936 0.006672828 0.022082807 -0.044414587 0.05155102 0.1486271
0.055848833 0.14311048 -0.07028856 0.018738756 0.027063916 -0.08336714 0.08572865 0.014359127
00000000: 1d51 20be e23d a1bc 018b f6bd 0445 bf3d
00000010: bde6 023e 93d1 2dbd 1038 7ebb a353 b13d
00000020: d8b9 573d eaba 813d 237f 213e 67be f4bd
00000030: 70e5 313d 93b9 e73c e70f ccbd f9d6 3b3e
00000040: c814 b5bd df2c 433d 878b 003e 4a4a 4b3d
00000050: 429b 3b3e f196 25be dcc2 bcbd 1a8e 93bd
00000060: 21fd 68bd ff83 a73c 772f 253d 72fd c5bd
00000070: be68 de3d 653d 0dbe c66f 49bd 3768 ea3d
00000080: de29 6cbd 9574 3b3e 2d8c cd3d bad2 373e
00000090: c67a 78bd 6a6d bc3c 4dff b43d 4ccd e6bd
000000a0: e314 31be 8ba4 f6bd 54d7 093e c711 2f3e
000000b0: 47af 9d3d 6ec1 0b3a 6e95 983d 36a0 83bb
000000c0: 539f 21be 16d5 ae3d dd37 8a3d bda7 da3b
000000d0: 01e7 b43c 12ec 35bd 2a27 533d b431 183e
000000e0: bfc1 643d 8e8b 123e 73f3 8fbd 0582 993c
000000f0: 25b5 dd3c 64bc aabd 8192 af3d 8b42 6b3c

layer3.weight f4 [1, 64]
0.4055002 -0.2037343 -0.29693213 -0.20389147 0.18870401 -0.14434485 -0.29676658 -0.31120175
-0.09996568 -0.22891726 0.2544615 -0.28388837 0.15624857 0.20641635 -0.29574183 0.24955285
-0.23861404 -0.21886021 -0.25840515 -0.33874416 0.2661151 -0.24834402 -0.25747862 -0.22353739
-0.24275722 -0.20469329 -0.2358715 -0.2696512 -0.2776564 -0.18915413 -0.26111978 -0.31246284
-0.21756363 0.2513047 0.1916292 0.21722913 -0.21312991 0.29300806 0.20589083 -0.27051926
-0.21574192 -0.09036833 0.22031187 0.19441336 -0.21350579 0.22965875 0.28551456 0.17201549
-0.26347908 -0.2661209 -0.28775382 -0.18594718 0.25457317 -0.19075288 -0.22731102 0.2290472
0.18173815 0.2116794 -0.27720428 0.17779887 0.16413873 -0.27400246 0.258897 -0.2488092
00000000: b99d cf3e b99f 50be 7d07 98be edc8 50be
00000010: a03b 413e 23cf 13be caf1 97be d655 9fbe
00000020: ceba ccbd 4969 6abe c748 823e d159 91be
00000030: a0ff 1f3e cf5e 533e 796b 97be c88a 7f3e
00000040: 3d57 74be e41c 60be ae4d 84be e06f adbe
00000050: 3d40 883e e54d 7ebe 3dd4 83be fce6 64be
00000060: 5995 78be 1e9b 51be 4c88 71be b90f 8abe
00000070: fb28 8ebe 9fb1 41be 7eb1 85be 21fb 9fbe
00000080: 00c9 5ebe 02ab 803e 723a 443e 5071 5e3e
00000090: ba3e 5abe 2705 963e 0cd5 523e 8081 8abe
000000a0: 73eb 5cbe 0813 b9bd 6f99 613e 4c14 473e
000000b0: 43a1 5abe aa2b 6b3e f72e 923e d424 303e
000000c0: bbe6 86be 0041 88be 7854 93be f068 3ebe
000000d0: 6a57 823e b954 43be 38c4 68be 598b 6a3e
000000e0: 9119 3a3e 7cc2 583e b8ed 8dbe e810 363e
000000f0: fc13 283e 0d4a 8cbe 268e 843e d7c7 7ebe
