ppo_actor.pth (torch, 22695 bytes, 6 tensors)

layer1.weight f4 [64, 9]
00000000: 9e33 573e 7785 883e ae4b 9c3d b8f7 803e
00000010: 452d 72bc 33da 573e d45b f9bc a337 b83c
00000020: 6db3 ecbd 6ca5 df3d e254 4cba 7d07 543e
00000030: d063 74be 204f 5bbd 8250 c0ba 9da8 383d
00000040: 624f 303e 7e88 d2bd b4cc c3bd 1c38 803e
00000050: f349 193e 501c 17be bc5a 0dbe 7d15 6f3e
00000060: b6fc 24be 8a8d 0fbe 93c6 fb3d 6187 85be
00000070: a621 8cbd c55f 9d3e e86e 173e 9b18 55bb
00000080: 155e 473e 7648 333d e799 b03d 4948 433e
00000090: 6624 5f3b a147 99be b1fe 893e d06c 9b3d
000000a0: 5187 0e3e 5d9d 89bd aa77 883d 715b 6a3e
000000b0: 96f8 b13d c6f0 f9bd 9285 753e b6dc 0c3e
000000c0: f6d5 c8bc f10b 953e 67b6 a6bc bc03 ad3d
000000d0: 66bf 13be 5e0f 91bd 71b4 a9be 5ed7 32bd
000000e0: 6342 223e 383e b13d fcab 9e3e 1cfa 433d
000000f0: 9a13 973d bdf0 693e 96f7 993e c1e4 6abd
00000100: 4d1b a1bb b037 88bd e9fb 7e3c 753a e83d
00000110: bd23 6bbd 6a93 003e a7e7 1abe 371f 003e
00000120: daa9 7c3e e641 a7bd 116a 8ebe f313 43bd
00000130: e266 853e 5dd4 383e 4173 8f3e a7ea 423d
00000140: 78b9 92be 7637 793e fb70 adbc dcab 31be
00000150: ca72 29be 5a9a 91bd 52ec 3abe 89ef 9dbe
00000160: 2028 3a3e c038 5c3e 9cc0 9b3d 2c66 41bd
00000170: bd4b 9d3e b0e3 6f3e 232a 1fbe b7ea f5bc
00000180: 9b27 843e c95a 1fbe 6c64 06bd 20d1 233e
00000190: 260d 98be 58d3 95be 57d0 a3bd a623 8abe
000001a0: fc99 fd3d 8753 04be 5e45 9fbe d435 55be
000001b0: 2bd4 4dbe 84e8 efbd 2bd0 51bd c10f 95be
000001c0: 0930 fdbc 6117 6fbd a288 8b3d bea6 ab3d
000001d0: 0846 763b 14d1 4abd 3750 9abe d0d8 ba3d
000001e0: 2c3b 9dbe 243e 4abe bac6 afbd d1b3 813e
000001f0: 056f 5e3e d648 4d3d 1b96 273e 6f4b a5be
00000200: 7564 653e e580 94bd 22d5 943e a61a 203e
00000210: 92a5 92be 4185 873e 0672 9abd 23ad b03d
00000220: b435 a13e 21a7 62bc 7b07 6a3e e4ef 2a3c
00000230: e123 053e 1228 953e 9334 8ebe 5a3c aabe
00000240: 05ce c1ba 11a1 643d 58ce dabd 29e8 23bd
00000250: 8560 b53e 4a86 a3bd d4db 623e 4426 5f3e
00000260: 480b 7c3e 89b2 8cbd 1a76 3ebe cdbe a23e
00000270: 393c 013e 4da9 a23e 2fb3 8c3d f554 9fbe
00000280: e574 8b3c cfef bf3d fb1b 9ebe 0cc5 463e
00000290: 80e5 2dbe e195 12be 7a49 37bd ab68 10be
000002a0: 5727 493c e571 8c3e 8e82 a4be 1d27 5bbc
000002b0: ec88 c13c 0aaa 843e 3ecb 973e 0539 5e3e
000002c0: 047b cf3c a802 d53c b438 933e ed50 9c3e
000002d0: d0ad 353e ab77 41bd d896 68be 5988 98be
000002e0: 29e3 8fbe 146e 103e 0159 41be 0789 b23c
000002f0: c969 433d df3d 6e3c 66ff 80be 28ee 06bd
00000300: e8a6 3e3e 31d0 b63a 6730 8fbe 82df ba3d
00000310: 5dca 49be c40d a03e 5766 a33d eb2b eabd
00000320: 0612 b73e a6f2 d9bc 2994 0abe f1d3 8f3e
00000330: e4e1 603e ae2b 8fbd 82d0 953e f018 ec3d
00000340: c59b a73e a609 90be eb0d 9bbe f8db 0fbe
00000350: 9d24 193e df82 93be bb45 2abe 3327 08be
00000360: 1667 473e f4f7 0c3e a4ff 853e 2343 a83d
00000370: a877 993e 3538 8c3e bfe8 a33e ce39 483e
00000380: aeaa 02be e466 a63e 7e9d c63d 8468 1a3e
00000390: 7740 96be a8ee 923e dbec 403a b3b5 59be
000003a0: 98f7 663e ad5e 8e3c 40c5 02be 717e 913e
000003b0: 010d 9bbd 7754 063e 814e 8cbe 1668 2d3e
000003c0: 8e4e 153e 9914 c13d 985f 9abe 4bb6 1cbe
000003d0: 8f7a 6f3e 9abf 053c 0063 153e 774f 6b3d
000003e0: 88c6 f53d 9a58 44be 205c 9e3e a490 973e
000003f0: 80b0 a6be 66c9 1e3e 3034 373e a804 003d
0.21015784 0.26664326 0.07631622 0.25188994 -0.014781301 0.2107933 -0.030439295 0.022487467
-0.1155766 0.109202236 -0.0007794631 0.20705982 -0.238662 -0.053542256 -0.0014672431 0.045082677
0.17217782 -0.1027994 -0.095605284 0.25042808 0.14969616 -0.14756894 -0.13804144 0.23348041
-0.16112027 -0.14018837 0.122937344 -0.26079848 -0.068423554 0.3073713 0.14788401 -0.0032515887
0.19469483 0.043770276 0.086231045 0.19070543 0.0034048795 -0.2993746 0.26952127 0.07589114
0.13918807 -0.06719468 0.06663449 0.22886445 0.08689992 -0.12204127 0.23976734 0.1375607
-0.024516087 0.29110673 -0.020350648 0.08447978 -0.14428481 -0.07083009 -0.33145478 -0.04366242
0.15845637 0.086544454 0.3099059 0.047845945 0.073767856 0.2284574 0.30071706 -0.057347063
-0.0049165846 -0.066512465 0.01556299 0.11339275 -0.05740713 0.12556234 -0.15127431 0.12511908
0.24674168 -0.08166866 -0.27815297 -0.047626447 0.26055056 0.1804976 0.2801762 0.047587063
-0.28657126 0.24337563 -0.021172037 -0.17350715 -0.16547695 -0.07109518 -0.18254212 -0.30846813
0.18179369 0.21506023 0.07605097 -0.04721658 0.30721846 0.234267 -0.15543418 -0.030019147
0.25811467 -0.15561976 -0.032810614 0.15997744 -0.2969753 -0.29262805 -0.07998722 -0.26980323
0.12382886 -0.12922488 -0.3110761 -0.20821315 -0.20100467 -0.11714271 -0.051223915 -0.29113582
-0.030906694 -0.058371905 0.0681317 0.08381413 0.0037578363 -0.0495158 -0.30139324 0.09123385
-0.30709207 -0.19750267 -0.08582826 0.25332502 0.21722038 0.05011829 0.16365854 -0.32284114
0.22401603 -0.07251147 0.29068857 0.15635166 -0.28641945 0.26468852 -0.075412795 0.08626773
0.31486285 -0.013833792 0.22854416 0.010433171 0.13001968 0.29132134 -0.27774486 -0.3324917
-0.001478613 0.055817667 -0.10683888 -0.040016327 0.354252 -0.07984598 0.2215417 0.21791941
0.24613678 -0.068699904 -0.1859974 0.31786194 0.1262063 0.3176979 0.06870114 -0.31119505
0.017023513 0.09371912 -0.30880722 0.19411105 -0.16982079 -0.14314987 -0.044747807 -0.14102428
0.012277446 0.27430645 -0.32130855 -0.013376025 0.02362486 0.2591098 0.2964725 0.21701439
0.025327213 0.026002243 0.287542 0.3053049 0.17742085 -0.047233265 -0.22713792 -0.29791525
-0.28102997 0.14104491 -0.18881609 0.021793855 0.047708306 0.014541118 -0.25194854 -0.032941967
0.18618357 0.0013947544 -0.27966616 0.09124662 -0.19706102 0.31260502 0.07978504 -0.11434158
0.35755938 -0.026604962 -0.13533081 0.28091386 0.2196117 -0.06990753 0.2926064 0.11528194
0.3273603 -0.2813236 -0.30284056 -0.14048755 0.14955373 -0.28810784 -0.16628163 -0.13296203
0.19472918 0.13766462 0.261716 0.0821593 0.29974103 0.27386633 0.3201351 0.195533
-0.12760422 0.32500374 0.09698008 0.15078932 -0.29346058 0.28697705 0.0007359513 -0.21260719
0.22555387 0.01737913 -0.12770557 0.2841678 -0.0757084 0.13118158 -0.27403644 0.16934237
0.14580747 0.09427757 -0.30151057 -0.15303914 0.23386596 0.008163357 0.14588547 0.05744883
0.120007575 -0.19174424 0.3092966 0.2960254 -0.32556534 0.15506515 0.17891002 0.03125444

layer1.bias f4 [64]
00000000: f2f1 103e 4fa4 3e3e 3014 62be 5a1f ee3d
00000010: cc54 923e f033 a13e fe32 38be 666f d73d
00000020: ee1f 8d3d 4d37 503e 1836 e03c e302 02bd
00000030: 64e8 333d b6db 443e ecf6 3e3e 39f7 dc3c
00000040: c927 afbd e223 693d fcbb 2fbe 53e8 b73e
00000050: b89a ddbd cea8 a7bd b2f4 85be 81ba 3b3d
00000060: 4f0a 04bd 6ea5 b03c aa90 1fbe 6f63 84be
00000070: 450e 27be 1082 953e 30b0 7c3e 1577 113e
00000080: 31ac ce3d 6b14 8ebd 5743 62be 0b04 0fbd
00000090: 493f 653e 24fb 883e 8f4a c13e 227b 9b3d
000000a0: 088c 0cbe 09ec 7dbe 806f 813e 191a 853e
000000b0: a22d 86be 8f3b cb3d d295 80bd 0771 7a3e
000000c0: da63 9bbe 5431 ee3d c4d1 7cbe 822b 1b3c
000000d0: 568c a5bd 84dc a73d 3f41 13be 17bc 81bd
000000e0: 88dc a23e b77a 0e3c 20d1 a83e 6740 8fbd
000000f0: d0dd e2bd 1974 8d3e 114d af3e 0c40 1d3d
0.14154795 0.18617366 -0.22078013 0.116270736 0.2858032 0.31484938 -0.17988202 0.105192944
0.06890856 0.20333596 0.027369544 -0.031741034 0.043922797 0.19224438 0.1864888 0.026973354
-0.0855251 0.056918986 -0.17161554 0.35919437 -0.10820526 -0.08186494 -0.2616325 0.04583216
-0.032236394 0.021563258 -0.15582529 -0.25857112 -0.16314037 0.29200792 0.24676585 0.14205582
0.10091437 -0.06937488 -0.22096 -0.034915965 0.22387423 0.26754105 0.37752196 0.07591845
-0.13725293 -0.24797072 0.2528038 0.25996473 -0.2620669 0.09923469 -0.06278576 0.24457179
-0.30349618 0.11630502 -0.24689394 0.009470822 -0.080834076 0.08196357 -0.14380358 -0.063347034
0.31808877 0.00869625 0.3297205 -0.06994706 -0.110774636 0.27627638 0.34238485 0.038391158

layer2.weight f4 [64, 64]
00000000: 5586 983d dce6 5a3d f378 65bc 6483 74bd
00000010: 1c12 ecbc 14a6 c6bd c53b f2bd ac1e 33bd
00000020: 25ff f23d f46e dfbb 05b4 c33c 2d32 d23c
00000030: 0e68 e33d f139 88bd 58fa 3b3d f6b5 bb3d
00000040: 21ad ccbd 4a07 3ebc ffe2 8cbd 5aa6 d7bb
00000050: 529e c63d db42 bcbd ef22 c43d 96c0 293c
00000060: afad 323b c328 dc3d 204e 743d 4bf7 f5bd
00000070: a536 b73d cf0d f03d a5db 033e 4df4 ce3d
00000080: 9f48 c53d 7d93 063e 3b72 dfbb 1ed1 583d
00000090: c588 c53b b675 ecbc a0da c93d 17aa f83d
000000a0: 1120 c33d 0211 273d 3b01 cbbd 052f af3d
000000b0: cfe2 c2bd 8e23 f4bd ea3f 48bd c4f5 ef3d
000000c0: b39b 9abd 2de3 693c d30a 13bd f74a 0c3d
000000d0: 1f45 09be 57bf 643d 36b1 833c a319 fc3c
000000e0: c011 e9bd 7ee5 103c 4165 b8bc cbd4 d0bd
000000f0: 19af 03be bbe9 143e 8115 8c3d 8b6a 3dbc
00000100: 4ac2 833c 63b8 9e3d 3291 4b3d 656c ebbd
00000110: 3322 2a3c 3f5f 193d 17de 6cbd 3450 f83d
00000120: 3c96 ec3d aa2c f0bd 8f83 e43d 4653 f0bc
00000130: 35fb b4bd cfa5 01be 6232 b23d bc2c e9bd
00000140: 402c b8bc 556d d4bc 8d4c 9dbd f762 d4bd
00000150: a638 1c3d 4463 083e 9216 f13d f5ee a23c
00000160: de3f 643d 462a 853b 94a6 973c 9a6f 0cbd
00000170: c198 adbd 2956 d43d 833a 67bd d747 d33d
00000180: ba49 f7bc af1c 4cbd 5dd0 45bd 02c7 be3d
00000190: bdcd bfbd 38c1 f5bd d030 9dbd c5d4 f5bb
000001a0: f729 bebd 456d c83b 49e8 bd3c 5c2c e1bd
000001b0: 3539 c03d 45df 0abd 10eb e93d 671b bb3c
000001c0: 19fb 703d 460b 993d e782 d1bd db1a 80bc
000001d0: 58ec 093b 985b d8bd 64c3 b8bb dbde 8dbd
000001e0: 37f2 9c3d a641 80bd 94ce c03d ab0b 6ebd
000001f0: 5deb 0a3e 6e6b dbbd 38bc 753c c0d3 e7bc
00000200: ae6c 003b 7fe5 74bd be67 003c f771 0fbe
00000210: 66a5 cabd 67ec 06be 64e8 14bd c673 f6bc
00000220: 084c 813d f45b cdbd 0de1 b0bc 3f69 6e3d
00000230: b105 203d 8e4b 4f3c 53e3 82bd 9d09 36bd
00000240: 891c e43d 6c27 803c 6a53 c6bc cdd8 933d
00000250: e3eb 3e3d ca0a f23c afe1 0bbe edef 95bb
00000260: aff0 5ebd f460 16bc d64a a5bd 188d 62bd
00000270: 7a3c bebd 2e26 883d f4b4 c1bd 6b90 643d
00000280: ce3a 863d 27fa 6e3c 7c02 973d dc2f 98bd
00000290: a94f 7f3d 3021 093e c3e2 92bd fb25 bf3d
000002a0: 2173 4c3c cd47 633c d936 ed3d c6c7 47bd
000002b0: 27d1 b53d acd1 183d 4b7d d13a 1747 b1bd
000002c0: 39fe 843d 0bab 33bd 541d 363d 422c f43d
000002d0: f06b fd3c ff73 7d3d a820 93bc f71f 243d
000002e0: 68bd e1bc 8497 9bbd 1754 c0bd ec7f e8bc
000002f0: 5042 9cbd 115a 9b3c 12a7 3c3d ba59 93bd
00000300: 2a2a 0b3d def6 af3d d66a d03c 872c 083d
00000310: b9f5 4e3c 7b37 983d 1fd8 c1bc 5e5d da3d
00000320: 1891 73bd a233 0e3b 438a 4ebd c2b3 ddbd
00000330: 1a2f f0bc a23f f8bc 4d40 173d 00de 8c3a
00000340: fcb5 553b e4f4 95bc 300d ff3d 3f9f 0c3e
00000350: 6bf8 4abd cd03 eabd 95d3 d23d 0086 f63d
00000360: ebbc 063d a433 afbd fe5a 8bbc ab10 00be
00000370: 1505 e2bc a598 b4bd 939a 51bd f593 933d
00000380: 3c80 da3d b5eb 453d 817e 4e3d 4539 933d
00000390: f923 d03d 7e37 a2bd 4b56 9d3d 5cea dbbd
000003a0: 625d c23d f571 ec3d c98b dc3d 7d4d f0bb
000003b0: ea74 383d 862a e6bd b572 8ebc 985c 0bbc
000003c0: ee18 5b3d 7538 d5bb 2683 ebbd 8e1f 6f3d
000003d0: b858 c43d c25c 483d 78a2 e33d 6381 a43d
000003e0: 8b84 6ebd bb1b 88bd 6fd4 0b3e b07b 73bc
000003f0: 0048 f6bd 1854 8abd ae51 fd3d b20c 02be
0.07447497 0.05344282 -0.014005887 -0.059695616 -0.028817229 -0.09699646 -0.118278064 -0.043730423
0.11865071 -0.0068186466 0.023889551 0.025658691 0.11103831 -0.066516764 0.045893043 0.09165566
-0.09993959 -0.011598418 -0.068792336 -0.00658111 0.09698166 -0.09192439 0.095769756 0.0103608575
0.0027264168 0.10749962 0.05964482 -0.12010058 0.089459695 0.11721384 0.12876756 0.101051904
0.09632992 0.131422 -0.0068190373 0.052933805 0.006028267 -0.028864723 0.098561525 0.12141817
0.095276006 0.040787704 -0.09912344 0.0855389 -0.095159166 -0.11920844 -0.04888908 0.11716798
-0.075492285 0.014275354 -0.035898995 0.03425118 -0.13405274 0.05584654 0.016075712 0.030773943
-0.11380339 0.008843778 -0.02250922 -0.10196837 -0.12859763 0.14542286 0.06840039 -0.011561046
0.016083855 0.07750013 0.049699016 -0.11495284 0.01038413 0.03744435 -0.05782899 0.121246725
0.115520924 -0.11727269 0.11157905 -0.029336583 -0.088369764 -0.12660907 0.08701016 -0.113854855
-0.022482038 -0.02593104 -0.076806165 -0.103704385 0.03813996 0.13319117 0.11771883 0.019889334
0.05572497 0.0040638773 0.018512048 -0.03428612 -0.08476401 0.10367996 -0.056452285 0.10316437
-0.030186523 -0.049832042 -0.048294414 0.093153015 -0.09365413 -0.11999744 -0.07675326 -0.0075021707
-0.09285348 0.0061165416 0.023182051 -0.10994789 0.093859114 -0.033904333 0.11421788 0.022840215
0.058833215 0.07472853 -0.10230046 -0.015637806 0.0021045413 -0.10564345 -0.0056385268 -0.06927272
0.07663386 -0.062625214 0.09414402 -0.058116596 0.13566346 -0.1071385 0.014998488 -0.028299212
0.0019596028 -0.059789177 0.007837234 -0.14008318 -0.098948285 -0.13176118 -0.036354437 -0.030084502
0.0631333 -0.10027304 -0.021591688 0.05820584 0.039067928 0.012652291 -0.06391015 -0.04444276
0.11138255 0.015643798 -0.024209697 0.07219086 0.046611678 0.02954616 -0.1366031 -0.0045757205
-0.054428753 -0.009178389 -0.080709144 -0.05531034 -0.09288879 0.06647907 -0.09458342 0.05580179
0.06554185 0.014586008 0.07373521 -0.074310035 0.06233183 0.13391566 -0.071721576 0.09333416
0.012478621 0.013872099 0.11582727 -0.048774503 0.08877783 0.037309334 0.0015982775 -0.086561374
0.064938016 -0.04386429 0.044461563 0.11922504 0.030935258 0.0618782 -0.017959908 0.040069547
-0.027556136 -0.07597259 -0.09391039 -0.02838131 -0.076298356 0.018963845 0.04605777 -0.07194848
0.033975758 0.08592008 0.025441568 0.03324559 0.012631827 0.07432457 -0.023662625 0.1066234
-0.059464544 0.0021698256 -0.050424825 -0.10825302 -0.029319335 -0.03030378 0.036926556 0.0010747313
0.0032609692 -0.01830525 0.12453687 0.13732623 -0.049553316 -0.11426506 0.10294262 0.12037277
0.03289501 -0.085547715 -0.017011162 -0.12506358 -0.027590314 -0.08818177 -0.051172804 0.07205955
0.1066899 0.04832049 0.050413612 0.07188658 0.10163111 -0.079207405 0.07682475 -0.1073806
0.094904676 0.11545173 0.107688494 -0.007333456 0.045033373 -0.112385795 -0.017388681 -0.008505963
0.05349057 -0.0065069743 -0.11499624 0.058379702 0.09587234 0.048916586 0.11114973 0.08032491
-0.05823187 -0.06645914 0.13655256 -0.014861032 -0.12025452 -0.06754321 0.12369095 -0.12700155

layer2.bias f4 [64]
00000000: 2652 ad3d 48d6 fbbd 3837 603c 74f7 9d3d
00000010: 07c0 bcbb 1d5f 1ebd e0d3 d7bc 8eab c13d
00000020: 5a1c 523b 5c11 6ebc e2fb c3bd 08ef 873c
00000030: 99f6 e5bc f03f 4b3d 5569 fe3d ddae 29bc
00000040: 3419 b13d bbd4 77bd 8e8b 0bbd 21fe a5bc
00000050: 0cd2 5b3d ab7b 04bc 4c71 2abb 5e73 b43d
00000060: c32d bc3d aede 073e 9e90 ad3d 2386 b9bd
00000070: 061b 853c 12b0 303d 01ed 88bd fb75 9a3d
00000080: e4a2 a8bd bc7a 473c 9b22 1a3d c94d 68bc
00000090: 752a cebc 316f 493d 4949 99bd 88b7 753c
000000a0: 27aa 123d bb99 d93b 92e0 bdbd 06e4 c53c
000000b0: 745b 633d 7582 ba3d 1468 e2bd 8253 333d
000000c0: 5133 d33d 3b43 3abd 1a5d efbc 31a7 9dbd
000000d0: d5fa 4ebd 3bf5 fc3d ee94 8bbd 8697 0a3e
000000e0: 2a15 8f3c a544 883c f5e0 87bc 2174 413d
000000f0: c132 2fbd 39ef 803d ca58 b63d 20fe a4bd
0.08462934 -0.1229673 0.01368504 0.077132136 -0.005760196 -0.038664926 -0.026346147 0.094565496
0.0032060356 -0.014530506 -0.09569527 0.016593471 -0.028071688 0.049621522 0.12422434 -0.010356632
0.08647385 -0.06050561 -0.034068637 -0.02026278 0.053667113 -0.008086125 -0.0026007472 0.08811067
0.09188416 0.1326854 0.08474849 -0.09058788 0.016248237 0.043136664 -0.0668583 0.07542034
-0.08234194 0.012175258 0.03763066 -0.014178702 -0.02516673 0.049178306 -0.07484681 0.014997371
0.0358068 0.0066406406 -0.09271349 0.024156582 0.05550714 0.09106914 -0.110550076 0.04378081
0.10312522 -0.045474272 -0.029219199 -0.07697905 -0.05053218 0.123514615 -0.068155155 0.13534364
0.017466146 0.016634295 -0.01658676 0.04722989 -0.042773012 0.06295628 0.08903654 -0.08056283

layer3.weight f4 [5, 64]
00000000: 6e42 b1bd b9f0 ee3d 65ab b6bd 3960 473d
00000010: 7c4f cc3d 5bc7 f4bd 6152 00be 928f eb3c
00000020: a2ac dd3a 05e1 b7bd 04bd 52bd 90ea 95bd
00000030: b8b8 283d dfe6 f5bd 2eec a93c 0cac c6bc
00000040: 0d1d 68bc db5e 90bd 9520 8e3d 9124 95bd
00000050: 4802 823c 269b 23bd 9c5e b7bc 5c44 3e3c
00000060: 77e6 d9bd c66a 18bc 1245 ed3c a651 ca3d
00000070: 101b 6fbb 126f a73a ba4c c5bd 61cb b1bd
00000080: c598 783d 8c15 01be 7ad8 ef3c c402 363d
00000090: 9ba1 aebd ddaa 8b3d e8d8 b23d 935b fc3d
000000a0: e17c ffbd ddb2 15be a4ea 2a3d 6429 743d
000000b0: c8e8 c23d e2aa b4bd f0e2 d93c 9a3c cb3d
000000c0: fccd 22bd b522 683d 15cf eebd a003 b53d
000000d0: b136 bc3c 846b 31bc 1045 84ba 17d8 6ebd
000000e0: 64e0 bb3d 0bdb e5bd 2afd a3bd 770c 9f3d
000000f0: 7a23 81bd c36f d23d 0c6e 563c 4793 573d
00000100: efe7 b3bb 1154 2e3d 345f 1f3d 9af5 e03d
00000110: 4533 e5bc a839 d63d d5eb 01bd 1edc 963d
00000120: d3dc d5bd 9f2e b6bd 1848 de3c 40c3 3f3c
00000130: d228 cbbd ae7a b53d 8f08 d43d 65d5 d1bd
00000140: b5f6 12bd a835 663b 9d0e ee3c a7d1 57bd
00000150: 4c7e bc3d 1f89 2f3d 927a 823d 9157 8ebd
00000160: 6bf9 a6bd 147b 0f3e fb0e 333d e8f7 5fbd
00000170: 5ea2 0b3e 6b94 bc3d 4ee9 f93d e9e4 12bd
00000180: 74e9 a3bd d00c dbbd 8167 a7bd 0c38 fc3d
00000190: 1232 c53c 1b03 d5bb cfbf e23d d537 bdbd
000001a0: 7de8 88bc c468 d5bd 665a b6bd 79b6 573c
000001b0: 1c2d d2bd 2c36 18bc 0049 3aba dfa9 bcbd
000001c0: b7a7 c33c 4c84 ed3d 215d b73d bb2f e2bb
000001d0: 4244 d8bd 7f38 5b3d 35e1 f83d 8ac9 1f3d
000001e0: 5538 913b 2890 b5bd 052e 24be 990b e3bb
000001f0: c7c8 273c 550d 85bd 970b 4abd 2e93 e43c
00000200: 2b48 c43d 4ad5 a0bd ed8f db3c 7f5d c1bc
00000210: cca0 d13d be10 693d 401d b03d dfa5 22bd
00000220: a19d 81bd 0ebf 4a3d a042 a43b 3870 97bd
00000230: 5510 e1bd be17 023e d390 ad3d 286f dbbd
00000240: 7ea6 c23d edca e1bd 7585 d43d 757a ea3d
00000250: 4055 8b3d 6626 7bbd 9d69 c4bc 475b 0d3e
00000260: 348a 183d b041 5fbc 9da3 c23d 9db8 b4bd
00000270: 2275 c7bd e1d1 ed3d 77d3 b9bd de4c 583d
00000280: a2bf 18bd fa5b f3bd 3628 abbd 743d 1b3d
00000290: a6b7 7dbd 1f83 5d3c 9b9b 083e 6bcb abbd
000002a0: 1e3a 7a3d 5069 b83c 2d81 d03d 84f8 933d
000002b0: 9bb0 d43d 94a6 e03d e483 c8bd a069 963c
000002c0: 6163 f5bc c926 f53c fd87 b33b 09f2 e1bc
000002d0: 97a3 a4bd 00f8 93bc b6d0 d83d 5a2d 083d
000002e0: e689 06bd 9f1e 05be cf9c 9d3d f7ba d53d
000002f0: 927c e8bd 4a1d e4bd 1cf8 a9bd 3845 e83d
00000300: 3a05 3a3d ea1e 92bd 035b b3bd c27d 0a3e
00000310: 047c 533d 4e68 68bd 887d acbd d62d 9c3d
00000320: f9c2 9f3d 6b19 cf3d 8012 3f3d b828 c33c
00000330: 0b60 d43d c3fb c0bd fd51 023d 376e 01bb
00000340: 478f 42bd 2194 823c e0e3 91bd b86e b93d
00000350: 145e 673d 5ead 4e3d 3371 c5bd 3183 f03d
00000360: d959 bd3d 5741 073d e32b 013e 9366 9d3c
00000370: 9bc7 563d 011c b0bd 37f0 9abd 4cf3 7e3d
00000380: 2279 f6bd 8a6a 0a3e f314 ed3d e630 b3bd
00000390: 4ead a63d 1fd3 b53d ec53 dcbc 0760 edbd
000003a0: 0ce0 81bd 3d3c 383d 3d48 3e3d a284 cfbd
000003b0: e4a4 3ebc c095 533d 300f 1d3d 547f 19bd
000003c0: e7fa ddbd 76ca 6c3d 157a e33d 4fac 8fbd
000003d0: 98dd 473c 58d7 abbc 589b d2bd ba6c 24bd
000003e0: f5ab 9d3d 3443 bf3d 619a cd3d 469c 00bd
000003f0: ef7c fbbc 37cc 90bd 8a76 77bd 6fe7 d7bd
-0.086552486 0.11667008 -0.0891941 0.04867575 0.09976098 -0.119520865 -0.12531425 0.028754983
0.001691241 -0.08978466 -0.05144979 -0.0732013 0.041191787 -0.12006926 0.020742502 -0.02425196
-0.0141670825 -0.07049342 0.06939808 -0.07282365 0.015870228 -0.039942883 -0.02238398 0.011612978
-0.10639661 -0.0093028005 0.0289636 0.098788545 -0.0036484636 0.001277419 -0.09633775 -0.086813696
0.060692567 -0.12605876 0.029278029 0.04443623 -0.085269175 0.06819699 0.08732778 0.12322154
-0.12474991 -0.14619012 0.041727677 0.059609786 0.09517056 -0.08821656 0.02659747 0.09923668
-0.039747223 0.056673724 -0.116605915 0.08838582 0.022975298 -0.010828856 -0.0010091383 -0.058311548
0.091736585 -0.1122342 -0.080072716 0.07766049 -0.06305595 0.10275223 0.013087761 0.05263069
-0.005490295 0.04256064 0.038909152 0.10984345 -0.027978549 0.10460216 -0.031719048 0.07366203
-0.104425095 -0.08895611 0.027133986 0.011704266 -0.09919895 0.0886129 0.10353195 -0.1024578
-0.03587981 0.0035127196 0.029059703 -0.052690174 0.09203777 0.04285538 0.06371035 -0.06950296
-0.081530415 0.14011794 0.04371546 -0.05467978 0.13636157 0.09207996 0.122027025 -0.035862837
-0.08003512 -0.10695803 -0.08174039 0.123153776 0.024071727 -0.0065006143 0.11071741 -0.09239165
-0.016712422 -0.10420373 -0.08903961 0.013166063 -0.1026251 -0.009290259 -0.0007106215 -0.09212088
0.023883684 0.11597499 0.0895331 -0.0069026626 -0.10559894 0.053520676 0.1215233 0.039010562
0.004431764 -0.08865386 -0.1603318 -0.006928873 0.01024074 -0.064966835 -0.04932746 0.027902212
0.095840774 -0.07853182 0.026802028 -0.023604153 0.10235748 0.056900732 0.08599329 -0.03970897
-0.063288935 0.04949861 0.005012825 -0.07394451 -0.10989443 0.1270437 0.08474889 -0.10714561
0.09504412 -0.11025033 0.103770174 0.11449138 0.068033695 -0.061315916 -0.023976142 0.13804351
0.037241176 -0.013626501 0.09503863 -0.08824275 -0.09739138 0.11612297 -0.09073537 0.05280768
-0.03729213 -0.118827775 -0.08357279 0.037900403 -0.06194272 0.013520031 0.13340609 -0.08388408
0.06109058 0.022511154 0.10180888 0.07225135 0.10385247 0.10969272 -0.09790781 0.018360913
-0.029954614 0.02992572 0.0054788576 -0.027581232 -0.08039015 -0.018062592 0.105866835 0.033246376
-0.032846354 -0.12999962 0.076959245 0.10436051 -0.11351885 -0.11138399 -0.08299276 0.113413274
0.04541514 -0.07134803 -0.087575935 0.13524535 0.051631942 -0.056740098 -0.08422381 0.0762593
0.0780086 0.1011227 0.046648502 0.023823127 0.10369881 -0.0942302 0.03181647 -0.001974953
-0.04749992 0.015939774 -0.07123542 0.09054321 0.056486204 0.050458305 -0.09640732 0.11743773
0.09245653 0.033021297 0.12614398 0.01921395 0.052436452 -0.08599091 -0.075653486 0.062243745
-0.12034823 0.13517204 0.11576261 -0.08749561 0.08138524 0.08878159 -0.026895486 -0.115905814
-0.06341562 0.044979323 0.04645561 -0.101327196 -0.011635993 0.051656485 0.038344562 -0.037474945
-0.108388714 0.05781027 0.1110727 -0.07015287 0.012198828 -0.020976707 -0.10283536 -0.040142752
0.07698814 0.0933899 0.10039211 -0.031399034 -0.030699221 -0.07070201 -0.060415782 -0.10542189

layer3.bias f4 [5]
00000000: 2d0a ae3d 3ac7 db3c db13 e23d fe21 acbc
00000010: ee02 cb3d
0.084980346 0.026828397 0.110389434 -0.021012302 0.09912668
