ppo_actor.pth (torch, 20135 bytes, 5 tensors)

layer1.weight f4 [64, 3]
00000000: a595 c2be 179b 633e b2c2 1abe 6dbe 8d3e
00000010: f49a c9be c0f8 8e3e 1d38 35bc 7580 a03e
00000020: b52e 013f 9ca6 0c3e b8cc 9abe 299c aa3e
00000030: d20e 023f 21f7 b83d 5797 c23e 4b71 c4be
00000040: 96ec 94be 26f8 133e 7d8f cabe e938 84be
00000050: 49be 2b3e 9f3e 93bc a9ee ac3e b2b8 ac3e
00000060: 2d72 edbc 0b96 833e 9daa 6a3e 1bb9 83be
00000070: 1766 073f 7578 efbe c960 1fbe 2295 a13e
00000080: cb8b fe3c 5304 0e3f 0c7b 983e 547c 96be
00000090: afa6 70be dc20 503e 13b8 8abe b581 e4be
000000a0: 2f1e 473e 30e2 ffbe 13dc c2be 8568 003f
000000b0: 2d2d 00bf 501b 95be 595c ecbe beb8 993e
000000c0: 0972 21be 86fe dc3e 7109 d3be c6f7 8b3e
000000d0: dd17 cf3e b4b3 333d 53c2 e4be f6be b63e
000000e0: 53a4 c63e 80de 503d b4a7 7fbd c388 98bd
000000f0: c0cc d2be 2864 c13e af7a 143e 69f7 08bf
00000100: ada1 ae3d bff8 a2be 5bb2 55be ac8b 0abe
00000110: ac48 94be a558 813e f394 75be e033 053f
00000120: 7a93 a4be b317 6f3e 5213 61be c4f0 ff3e
00000130: c0d1 0cbe cd10 1e3e 0e3c e83e 06ff 623d
00000140: b5a5 3b3d 05f9 fe3e 81fc 11bf d2bc bcbe
00000150: 458f 603e bd8d bebe 5a1e 38be 3e98 a5be
00000160: 6fe3 f6be e618 64be 1ec4 2dbe af89 6a3d
00000170: b396 e63e 5a4b 0a3e e4ec d03e efd8 da3e
00000180: 6805 90be a7fa 08bf e400 92be 78bd 23be
00000190: db3e b9be a0f2 033f c007 0a3e 96de 8bbe
000001a0: d163 b9be 50fe 6cbe 7d04 0ebf 4ccb 0fbf
000001b0: 5a2b 01bf d640 8c3c 7d9e c53e 41b8 efbd
000001c0: fe73 c73e 9e42 93be b4ed c53d bc89 4b3e
000001d0: 793a 06bf 7d81 a6be 837c 33be e89b 03be
000001e0: 8312 a4be 66a3 963e 380a 01bf 9262 84be
000001f0: 5802 783c e55e 583e 4bb1 733e 307b 75be
00000200: f7b2 e9be 157d f6be bbc5 ad3e e8df fe3e
00000210: 3b9a 9e3d 7f11 5b3a 0750 e6be bf73 b63e
00000220: ea01 dabe 2e4f 82be 27ff fa3d 3ea2 033f
00000230: 4722 123c 4962 983e a2f0 a8be f355 07bf
00000240: 1f9f ac3e b4d5 cfbe 5b47 fd3e 8d55 9b3e
00000250: 20fc 903e e095 e13e 3073 1f3e ebee 4ebe
00000260: 32d8 9cbe 678a 623d 2521 803c 59dd bcbe
00000270: 0247 f3be c18c 92be f45b 06bf d238 f9be
00000280: 2703 93bb fbd6 103f f1e9 05be 9406 42be
00000290: 7493 b53e b97a bcbe 725f b2be 9d2a 103f
000002a0: 219b 653e 9560 68bd b9e5 8d3c 6e02 c13e
000002b0: cde8 1bbc 593f 063f 317b fd3e 2a8a 87be
000002c0: 943b b33d 004b d53e 66b8 a13e 707d 23be
000002d0: d067 103f 6b4c 013f cbb4 9b3e 5e0b bcbe
000002e0: fbdb da3e ae14 b5be 1192 ad3e dcdc 0ebf
000002f0: 9b47 103e e8fb 4abd 09ab f7be b65b cfbe
-0.38004795 0.22227131 -0.15113333 0.27684346 -0.39376032 0.27924156 -0.011060742 0.31348005
0.50461894 0.13735431 -0.30234313 0.33322266 0.50803864 0.09031511 0.38006088 -0.38367686
-0.2908675 0.1445013 -0.39562598 -0.2582467 0.16771807 -0.017974196 0.33775833 0.3373466
-0.028985107 0.2570041 0.22916646 -0.25727162 0.5289015 -0.4677159 -0.15564264 0.31559092
0.031072518 0.5547535 0.29781377 -0.2939173 -0.23501085 0.20325035 -0.27093562 -0.4463021
0.19445108 -0.49977255 -0.38058528 0.50159484 -0.5006893 -0.291224 -0.46164206 0.3002376
-0.15766157 0.43162936 -0.4121814 0.27337474 0.40447894 0.04387255 -0.44679508 0.35692567
0.38797244 0.050993443 -0.062415794 -0.0744796 -0.41171837 0.37771726 0.14499925 -0.5350252
0.08526931 -0.31830403 -0.20868818 -0.13529843 -0.28961694 0.25262943 -0.23982601 0.5203228
-0.32143766 0.23348884 -0.21980026 0.49988377 -0.13751888 0.15436096 0.45358318 0.05541899
0.045812327 0.49799362 -0.57025915 -0.36862808 0.21929653 -0.37217513 -0.17980328 -0.32342714
-0.48220393 -0.22275123 -0.16969344 0.05726021 0.4503685 0.13505307 0.40805733 0.42743632
-0.28129125 -0.53507465 -0.28516304 -0.15990245 -0.36180767 0.5154209 0.13479519 -0.27318257
-0.36208966 -0.23143888 -0.554756 -0.5616958 -0.50456774 0.01712076 0.3859748 -0.117050655
0.38955683 -0.28761762 0.09664479 0.1987676 -0.5243297 -0.32520667 -0.17527966 -0.12852442
-0.32045373 0.29421538 -0.5040622 -0.25856453 0.015137278 0.2112995 0.237981 -0.23972774
-0.45644352 -0.48142305 0.3393992 0.49780202 0.07744261 0.0008356794 -0.4498293 0.35635182
-0.42579585 -0.25451034 0.12255698 0.51419437 0.008919305 0.29762486 -0.32996088 -0.52865523
0.3371515 -0.4059273 0.49468502 0.30338708 0.28317356 0.44059658 0.15571284 -0.20208327
-0.30633694 0.055307772 0.015640805 -0.36887625 -0.47515112 -0.28623012 -0.5248406 -0.48676163
-0.00448646 0.56578034 -0.13077523 -0.18947822 0.3546406 -0.3681238 -0.34838444 0.5631502
0.22422458 -0.056732733 0.017321454 0.37697166 -0.009515953 0.5244041 0.4950805 -0.26472598
0.08751598 0.41658783 0.31585997 -0.1596582 0.56408405 0.5050723 0.30411372 -0.36727422
0.42745957 -0.3536734 0.33900502 -0.55805755 0.14089815 -0.049556643 -0.48372677 -0.40499657

layer1.bias f4 [64]
00000000: ba48 93bc 41a9 0d3f 7a8a 1bbe f96e 09bf
00000010: 3037 0cbf 12bd f83e 692e a03e cfb2 003f
00000020: c182 69be e882 713e d6ca d2bd f39c 0b3f
00000030: f14f 5ebe daab ff3e d386 5cbe 67d9 5b3e
00000040: 36af 1a3e 2fa9 d83e d690 123f 7f42 703e
00000050: 6a6d f8be 5607 cd3e a1fb 9f3e 5e30 0c3f
00000060: 6c1f f4bd f2bc e3be e73d fe3e 9c46 8e3d
00000070: 9d15 bb3e 3f0a c83c 40d5 d73d 4248 943e
00000080: d1cf 083f 3857 103f 385f a53e 259b 7cbe
00000090: 7922 d1be 2530 febe 1368 b03e ad33 9c3e
000000a0: 4d31 58be 3737 0bbf 214c a33d efb0 c1be
000000b0: ec53 123f a91a 40be 226f 41be 0ade 433e
000000c0: da87 5c3e e664 a03e 4813 8d3e 8ff1 d63d
000000d0: 679e 8ebe 56ca a6be d992 4fbe 0f5c 133f
000000e0: 622b d6bd 8456 e7be 05ad cfbe 31f8 513e
000000f0: 245f acbe ed42 a13e 2e81 bdbe a54f 0fbf
-0.017979015 0.55336386 -0.15189543 -0.53684956 -0.5477171 0.4858175 0.31285408 0.5027284
-0.22803785 0.23585093 -0.10292594 0.5453636 -0.21710183 0.499358 -0.21535806 0.21469651
0.151059 0.42316577 0.5725225 0.23462866 -0.48520976 0.4004466 0.31246665 0.547613
-0.11920056 -0.4448009 0.49656603 0.069470614 0.36539927 0.024418948 0.10538721 0.28961378
0.534421 0.56383085 0.3229921 -0.24668558 -0.40846613 -0.49646106 0.34454402 0.30508175
-0.21112557 -0.54381126 0.07973505 -0.37830302 0.57159305 -0.1876017 -0.1889005 0.1912767
0.21536198 0.3132698 0.27553773 0.104952924 -0.27855226 -0.32576245 -0.20270862 0.57562345
-0.10457493 -0.45183194 -0.4056169 0.20504834 -0.33666337 0.31496373 -0.3701262 -0.559809

layer2.weight f4 [64, 64]
00000000: 72fb b4bd 7adc afbd d269 873d 18de 51bd
00000010: 00af acba ccc9 a1bd ecb4 f93d 7012 afbc
00000020: e4b4 dabd aca1 1c3d 9877 4fbd 889d 4bbd
00000030: 84ff f0bd 7a2e bd3d d654 fb3d 5cfd f73d
00000040: d693 b63d 1ca1 963d 4055 aabc ae17 833d
00000050: 725c d03d 14fd 8b3d a0cb 303d 3075 67bd
00000060: 8c1a 9c3d 22a6 d8bd 30e7 fdbd 7448 f6bd
00000070: 2892 893c 3487 15bd 92a8 a4bd c2a3 8bbd
00000080: f8a7 d6bd 68fb 86bd 1056 1abc 988c c43d
00000090: e088 a93d 9058 3a3c 6015 96bb 3073 df3c
000000a0: b29c a03d 6ee0 fabd 6883 143d 5007 523d
000000b0: 8ca5 d03d 58c1 c73c 6c81 24bd 1424 c33d
000000c0: bc68 df3d ce85 983d 8289 f43d cca5 5d3d
000000d0: c836 a03c ea7e 81bd 58a3 bd3d 5079 89bd
000000e0: f012 8bbd f271 f9bd 183c e43d 00b0 62b9
000000f0: 4c98 5abd 3ccd ff3d 1c76 8d3d 80c9 7f3b
00000100: 84c8 6b3d 0020 41bb a491 743d 1270 f03d
00000110: f83b 8fbd e0b7 123d 429d d2bd 405f 9f3d
00000120: 90ff 35bc 90dc 10bd c63e 973d 5c88 053d
00000130: d094 c53d 186e 5abd e0ad 6a3d f452 ba3d
00000140: 347c 823d dc1b 423d 8a8c e33d cc9d 753d
00000150: 507f 533c 54c0 343d 2e84 c83d 16e7 c9bd
00000160: a209 8f3d b870 cb3c a666 f43d dc6e 1f3d
00000170: c266 92bd b613 a7bd 74fb 3ebd 4cf0 703d
00000180: e6e7 c4bd 94de 313d a899 243d 6026 8b3b
00000190: fcd7 2d3d 089f e1bd 0cc7 163d d468 d23d
000001a0: 40f6 f53c 8087 393c 7675 88bd c074 80bd
000001b0: f8a5 e13d 32d4 d8bd 808a f93a 2c95 78bd
000001c0: 300c 9f3c f64c febd b880 e23c 10c1 25bc
000001d0: 248a 05bd 4886 e53c 2ea7 e1bd 1463 4e3d
000001e0: eab1 87bd 7cdd 173d d8f2 9dbc dc09 1f3d
000001f0: 3e9f c8bd 42ac b53d 8825 17bd 0004 38bd
00000200: 0055 b5bb 10fa 08bc 2c5b 523d 0010 0aba
00000210: 0632 98bd e819 3dbd a04c fb3d 5263 e93d
00000220: 8822 52bd 56b4 edbd b8b2 4ebd 40c0 2c3c
00000230: d8c3 863d 6623 d03d de0e b43d b4eb fb3d
00000240: 0009 7e3c 4053 bd3b 22ea 913d 3e26 a53d
00000250: a067 6ebd 3c1a a0bd 5e17 aa3d b4d4 733d
00000260: c430 413d 4ce3 6fbd bcdc 4dbd 78dc 0dbd
00000270: c409 c9bd 0ed9 bb3d a0b6 fd3b 46fb a4bd
00000280: d062 97bc 5827 3a3d c094 07bc b4ab 443d
00000290: e02a d23c 9e2f d33d 5058 c9bc b01e 6a3c
000002a0: 5eb0 b33d 88f1 af3d 70f5 5abd d2b8 84bd
000002b0: 2843 0fbd fcde b6bd c4f1 0d3d d4ef b73d
000002c0: f426 aa3d 70f8 25bc 5476 c53d 22bf c1bd
000002d0: 24ff 4dbd e0b2 50bc 203e 1e3d 3848 b93d
000002e0: 78b8 e03c 504c 453d 327f 85bd 008e 80bd
000002f0: 3eb8 c3bd d4aa b83d 0ee2 ab3d 6e3c b8bd
00000300: c87d 2f3d 1807 1dbd 60c1 e3bb 94b5 7abd
00000310: 2645 9fbd 1055 a0bd 801a 2dbd a0a7 b9bd
00000320: d4bb f93d 3c85 e73d 4acb d8bd 80a6 8bbd
00000330: 00e7 49bb 98ae e5bc 907d 623d d8a6 3fbd
00000340: 88b3 843d 08ed 48bd 8a55 9cbd 8024 6ebb
00000350: 3818 70bd 60e5 87bc 9e73 c9bd 407d 503b
00000360: e078 6cbd 4cbb ecbd 801c 033b 666d cc3d
00000370: e86c 853d 5c79 943d 10e2 82bc 3e06 a33d
00000380: 5019 20bd c21b fa3d 6cad 51bd 98a7 a93c
00000390: 5487 3a3d a8cb babc 00cb f43b 4e78 b8bd
000003a0: ee58 8fbd bc18 af3d d0cb d7bc 60ab c5bd
000003b0: 886e 5c3d 4c77 47bd 18db f7bc c0b0 aabd
000003c0: 2892 203d e024 243c ece1 02bd c0bf b0bd
000003d0: 5872 8c3d 0ea5 fabd 8864 c1bd 0a9d d3bd
000003e0: f823 07bd 64d9 14bd 90fb c0bd 2498 973d
000003f0: b060 893c d6ff cb3d d220 dbbd 60d7 e03c
-0.08837022 -0.085869744 0.066119805 -0.051237196 -0.0013174713 -0.07899818 0.12192711 -0.021371096
-0.106790334 0.03824012 -0.050651163 -0.04971078 -0.11767486 0.0923738 0.122720405 0.12108871
0.08914916 0.07354948 -0.020792603 0.06401001 0.101738825 0.0683538 0.043162942 -0.056508243
0.07622251 -0.10578562 -0.12397611 -0.12025538 0.016793326 -0.036505893 -0.08039965 -0.06818344
-0.10481256 -0.06590921 -0.009419933 0.09597129 0.0827806 0.011373654 -0.004580185 0.027276605
0.07842387 -0.12249838 0.03625813 0.051276505 0.101878256 0.024384186 -0.04016249 0.09528366
0.10908648 0.07447396 0.1194029 0.054113194 0.019557372 -0.06323035 0.09259671 -0.06712592
-0.067907214 -0.121799365 0.111442745 -0.00021618605 -0.053367898 0.12490317 0.06907293 0.0039030015
0.057564273 -0.0029468536 0.059709206 0.11740126 -0.0699386 0.035819888 -0.10283901 0.07781839
-0.011108294 -0.035366595 0.0738502 0.032600746 0.09647524 -0.05332765 0.057294726 0.09097853
0.06371346 0.04738985 0.1111079 0.05996494 0.012908772 0.04412873 0.09790836 -0.09858529
0.06984259 0.024834022 0.11933641 0.038924083 -0.07148506 -0.081580564 -0.046626523 0.058822915
-0.096145436 0.043425158 0.0401856 0.004246518 0.042442307 -0.11016661 0.03681092 0.10273901
0.030024648 0.01132381 -0.06663029 -0.06272268 0.11017984 -0.10587348 0.0019038469 -0.060689136
0.019414991 -0.12417023 0.027649269 -0.0101168305 -0.032602444 0.028018132 -0.11018215 0.050387457
-0.06625731 0.03707646 -0.019280836 0.038827762 -0.09795998 0.08870746 -0.036901027 -0.04492569
-0.0055338144 -0.008360401 0.05135648 -0.00052666664 -0.07431416 -0.046167284 0.122704744 0.11395897
-0.051302463 -0.11606662 -0.05046341 0.010543883 0.06580323 0.10163002 0.08791898 0.12300816
0.015505075 0.0057777464 0.071247354 0.08063935 -0.058204293 -0.07817504 0.08305238 0.05952902
0.047165647 -0.058566377 -0.050259337 -0.034634084 -0.09816316 0.09172259 0.007742718 -0.08055739
-0.018479735 0.045447677 -0.008275211 0.04801531 0.02565521 0.10311817 -0.024578243 0.014289543
0.08773874 0.0859099 -0.053456724 -0.06480564 -0.034976155 -0.0892925 0.034654394 0.089812905
0.08308211 -0.010130033 0.0964171 -0.09460284 -0.05029215 -0.01273796 0.038633466 0.09046978
0.027431712 0.04816848 -0.06518401 -0.06277084 -0.09556626 0.09016958 0.08392726 -0.08995901
0.042844564 -0.038336843 -0.0069505423 -0.061208323 -0.07776861 -0.078287244 -0.0422616 -0.09065175
0.121940285 0.11304709 -0.10585649 -0.06818867 -0.0030807853 -0.028037354 0.055295527 -0.046789974
0.06479555 -0.049054176 -0.07633503 -0.0036337674 -0.058616847 -0.016588867 -0.09836505 0.0031812936
-0.057732463 -0.115591615 0.0020006 0.099818036 0.06514913 0.0724971 -0.015976936 0.07960175
-0.03908664 0.12212326 -0.05119078 0.020709798 0.045539215 -0.022802189 0.0074704885 -0.09007321
-0.06999384 0.085496396 -0.026342303 -0.09651828 0.05381635 -0.048697755 -0.03025584 -0.08334494
0.039201885 0.010018557 -0.031953737 -0.086303234 0.06857747 -0.12238513 -0.09443003 -0.10332687
-0.032993287 -0.036340132 -0.09422982 0.074020654 0.016769737 0.09960906 -0.10699619 0.027446449

layer2.bias f4 [64]
00000000: 5876 b03c 909a f3bd f428 3d3d 18d8 99bd
00000010: 00a2 9ebc 00c8 b63d 28a8 213d a044 343d
00000020: 1009 613d 42c1 b33d 2aac bd3d 78bb 9ebd
00000030: 7054 a2bd 5a4c 9a3d d861 ea3d a036 cabc
00000040: d42f fbbd 3a5b ac3d 58bc df3d 8043 863c
00000050: a08a 55bc 403b 1dbd 80f5 cabd 980a ac3c
00000060: 80c3 303c f686 fc3d c22a dcbd 94c9 be3d
00000070: 24fc c6bd 80b8 1bbb ec64 243d 70b0 ac3d
00000080: 16fe f73d 4c91 de3d a40a 40bd 38e0 b43d
00000090: a009 bf3b 602f bfbc e064 8abb a8ad da3d
000000a0: d8d1 8ebc e6d5 bfbd e832 8abd 7e38 c93d
000000b0: 7cf2 863d 9a72 ae3d 86c2 af3d 2089 ce3c
000000c0: e082 3d3d b854 e83c d484 16bd 1c01 4c3d
000000d0: 684b 9e3d 10f2 273d 2ea2 92bd b20b df3d
000000e0: 801d 67bb 6438 da3d 7846 73bd 64c7 323d
000000f0: 6e5b a53d 6009 c13d f0bd cdbd 983d d4bc
0.021540806 -0.11894715 0.046181634 -0.0751192 -0.019364357 0.08924866 0.039467007 0.04401076
0.054940283 0.087770954 0.09261353 -0.077506006 -0.079262614 0.07534094 0.114444435 -0.02468425
-0.12264982 0.084158376 0.109245956 0.016389608 -0.013033539 -0.038386583 -0.09910107 0.021001145
0.010788798 0.12330429 -0.10750343 0.09315792 -0.09716061 -0.0023761094 0.04013531 0.0843209
0.1210901 0.10867557 -0.046885148 0.08831829 0.005830005 -0.02333802 -0.004223451 0.106776536
-0.017434046 -0.0936697 -0.06747991 0.09825228 0.06589219 0.08517952 0.08582024 0.02521187
0.04626739 0.02836071 -0.03674777 0.049805745 0.07729226 0.041002333 -0.071598396 0.108909026
-0.0035265386 0.10655287 -0.059393376 0.043647185 0.080740795 0.09425616 -0.10045993 -0.025908276

layer3.weight f4 [1, 64]
00000000: 207e 62bd c7a0 8cbd b4e4 fa3d 3e7e 8abd
00000010: df85 f03d 06b8 f53d c579 4c3d a1a6 c93d
00000020: 9a25 9f3d cb52 513d 234b ebbd 2185 cf3d
00000030: 4b30 60bd e5a7 d7bb 90be 79bd 0789 a63d
00000040: 417a 56bd 2ded 5fbd 874c cc3d a816 413d
00000050: 5cba efbd 1282 153d 727a 94bd 39aa c93d
00000060: bf40 8ebd c5d6 a93d eee1 d8bd ca04 fb3d
00000070: 98b6 ae3b f218 9c3d e8c3 ea3d 8003 aabb
00000080: 770a 3a3d e5df 37bd d306 11bc 1857 c2bd
00000090: b45d bf3c bdfc cbbc 8fc5 ed3d 6692 4a3d
000000a0: c3ef ea3d 23d2 83bd 3a87 f0bd 6326 e53d
000000b0: b196 83bd d97b 6dbd 634b 393d 747d a83d
000000c0: 2c99 94bd cf35 d33d 9db6 3b3d b72d ebbd
000000d0: 5e1b 993d dc3d 933c 5acc bdbd 6a2f 9dbd
000000e0: 0d35 b2bc 2585 2b3d a9e7 433c a2b0 663d
000000f0: 2783 5f3d 0379 ea3d c07d 2abb 6561 ea3c
-0.055296063 -0.06866603 0.12250653 -0.0676236 0.11744284 0.1199799 0.049920816 0.09846235
0.07770844 0.05110435 -0.114889406 0.10132814 -0.054733556 -0.006581294 -0.06097275 0.08131605
-0.052362684 -0.054669548 0.09975534 0.047140747 -0.11705467 0.036500998 -0.07249917 0.098469205
-0.06945943 0.08292917 -0.10589968 0.12256773 0.0053318255 0.076219454 0.114631474 -0.0051884055
0.045420136 -0.044891257 -0.008851725 -0.09489268 0.02336011 -0.024900788 0.11609947 0.049456023
0.11471512 -0.06436565 -0.117445424 0.11188962 -0.064252265 -0.05797944 0.04523791 0.08227053
-0.07255778 0.103129975 0.04582845 -0.11483329 0.07475923 0.017973833 -0.092674926 -0.07675059
-0.021753812 0.041875023 0.011957088 0.056320794 0.054568436 0.114488624 -0.0026014894 0.028610894
