ppo_actor.pth (torch, 22695 bytes, 6 tensors)

layer1.weight f4 [64, 9]
000000 e3 6b 84 be 63 53 97 3e fc a1 46 3e e7 6d 36 3e
       -0.2586356 0.29555807 0.1939773 0.17815362
000010 75 05 1a 3e be 4c 1c be f8 0a 3c 3e f9 c9 b2 3e
       0.15041144 -0.1526365 0.18363559 0.34919718
000020 56 c9 71 3e 91 ce 25 be a7 47 c2 bd 7a e7 88 3d
       0.2361196 -0.1619208 -0.09486323 0.06684776
000030 56 66 a8 be 43 5b b4 3e 91 ce 4d be cf c9 ad bd
       -0.32890576 0.35225877 -0.2009833 -0.084857576
000040 00 a4 95 3e 2f 9b 65 3e 6f eb bd be 0a a7 f1 bc
       0.29226685 0.22422479 -0.37093684 -0.029498596
000050 aa b2 a3 3e 7b c0 ea 3c 61 9f 15 3c 99 57 78 3e
       0.31972247 0.028656235 0.009132237 0.24252166
000060 3b 58 b9 3c e0 48 50 3e df 45 02 3e 9a 67 a0 be
       0.02262508 0.203403 0.12721966 -0.31329042
000070 dc 1b 6d be bf 45 2f 3e 39 8a 89 be b2 db 71 3b
       -0.23155159 0.1711645 -0.26863268 0.003690463
000080 5c ba 18 bd be 95 a0 3e 35 82 7c 3c 8a 5c be 3d
       -0.0372871 0.31364244 0.015411903 0.09294994
000090 ec 29 01 3c 60 c9 0e 3e 03 7f d0 3c 3b 32 9b be
       0.00788353 0.13944006 0.025451189 -0.3031176
0000a0 ef f7 ad bd 1b c1 86 3d 70 77 94 be 55 d5 72 3d
       -0.08494555 0.06579801 -0.28997374 0.05928548
0000b0 ca af 7e be e1 9f 09 bf 59 91 97 be 6f 77 b0 3e
       -0.24871746 -0.5375958 -0.2960308 0.3446612
0000c0 06 86 51 bc 9f 0c 09 be ce d9 0e be 54 27 56 be
       -0.012788301 -0.13383721 -0.13950273 -0.2091344
0000d0 2d 13 e7 3d 9d b2 e2 bd d5 52 b4 3d c9 28 b9 3e
       0.11282954 -0.11069224 0.088048615 0.3616393
0000e0 69 82 b7 3c 4d 65 86 be 5a eb cd bb 69 c0 00 be
       0.022401052 -0.2624916 -0.0062841596 -0.12573399
0000f0 61 04 b3 be e4 77 fe bd 9f 3d bb be 1a 72 45 3e
       -0.34964278 -0.12425211 -0.3657045 0.19281808
000100 62 53 e8 3d 62 6e 1f be 7f 0b 3d 3d b4 d4 22 3e
       0.11344029 -0.15569451 0.04615354 0.15901452
000110 6d dc 84 3e 47 fa 71 be 95 79 d3 bd b3 14 11 be
       0.25949422 -0.2363063 -0.10325924 -0.14168052
000120 df 60 1b bd de ee 55 3e 68 40 8f 3e 91 ef 3f be
       -0.03793418 0.20891902 0.27978826 -0.18743731
000130 99 3e a2 be 6a 9a 48 3e cc 3f 8b be b5 28 bb bd
       -0.31688383 0.19590154 -0.2719711 -0.091386236
000140 43 c1 3a 3e 75 6a c3 3e 20 d6 91 bd 6f c4 be 3d
       0.18237786 0.38167158 -0.07120919 0.093148105
000150 31 6d d7 3d 7b 6c 86 3e 90 3e 3c 3e 6e eb c0 bb
       0.105188735 0.2625464 0.1838324 -0.0058874404
000160 35 20 49 3e 99 3d af 3d 94 63 66 bc 81 0f b5 bd
       0.19641192 0.08556671 -0.014061827 -0.08840848
000170 f1 53 5f be 99 8e a6 3e 72 59 d8 3d 40 0b a7 3d
       -0.21809365 0.32530668 0.10563935 0.08156443
000180 41 59 1f 3e df 8c 9a 3d 20 ca 56 3d e5 3a ca 3e
       0.15561391 0.075464 0.052438855 0.39498058
000190 ce a4 fc bd 13 33 ce bd 4e 79 30 3e ec 13 40 be
       -0.123361215 -0.100683354 0.17233774 -0.187576
0001a0 49 85 cf 3d 50 28 6c be 96 ae 28 be 03 3e bc 3d
       0.10132844 -0.23062253 -0.16472849 0.09191515
0001b0 86 ee c5 bd 28 cf 86 3e 17 2d e3 3c 7c b5 8b 3d
       -0.09664635 0.26329923 0.027731461 0.06821725
0001c0 98 10 13 3e f5 af 33 be 41 c1 ba 3d 16 b2 97 be
       0.14361799 -0.17547591 0.091188915 -0.29628056
0001d0 bd 5e db 3d 3c b9 97 3e 12 34 09 be eb 7b 4b be
       0.10711429 0.2963351 -0.1339877 -0.1987149
0001e0 81 40 25 3c 00 46 47 be d2 29 46 be 20 59 96 3c
       0.01008618 -0.19460297 -0.1935189 0.018353045
0001f0 6d 64 ab bd 36 1a 22 3e 2c 4a 7e 3e 8e 1c 7e 3e
       -0.08368764 0.15830311 0.24832982 0.2481558
000200 13 1b 32 bd 55 04 dc bd 47 46 83 3e 78 6d ca bd
       -0.04348285 -0.10743014 0.25639555 -0.09884161
000210 ab 84 9d bb 4e d9 1f 3e 7b 1b 37 3e 99 f1 b9 bd
       -0.004807075 0.15610239 0.17881577 -0.09079284
000220 b5 0a 6b be 0f ec 92 3e 9e 29 8e be 4d 63 98 3e
       -0.22953303 0.28695723 -0.27766126 0.2976326
000230 8b 08 39 3c 09 89 a1 bd bf d8 2f bc 00 3e 84 3e
       0.011293541 -0.078874655 -0.010732829 0.25828552
000240 05 c8 71 be 89 3f 8d be fe 1c 6b be 68 9d 82 3d
       -0.23611458 -0.27587536 -0.22960278 0.06377679
000250 f1 11 4c 3e 0b 9b 37 bd 42 62 81 be 58 d2 84 3e
       0.19928719 -0.044825595 -0.25270277 0.2594173
000260 0a bb aa 3e dd 18 fb bd 56 89 19 be 1f d4 49 be
       0.33345824 -0.12260602 -0.14993796 -0.19709824
000270 16 3c a0 3e 33 53 56 3e fd f5 8f bd ec 80 7e 3e
       0.31295842 0.20930175 -0.070293404 0.24853867
000280 40 3e 65 be b6 9e 94 3e dc 34 ae be eb 4d 88 3e
       -0.22387028 0.29027337 -0.34024704 0.26621947
000290 53 9f 69 3e 87 84 b9 be 3e 5d 4f 3d dd e3 f4 bd
       0.22814684 -0.36233923 0.050626032 -0.11957524
0002a0 36 80 cb 3c a1 ac 2e be c2 16 d2 be 46 62 11 be
       0.02484141 -0.1705804 -0.41032988 -0.14197645
0002b0 ca 69 7b be 06 6a e4 3c 89 c3 bc 3d bc 03 99 be
       -0.24552074 0.027882587 0.09216983 -0.29885662
0002c0 00 8c 2e be 82 92 91 3e 52 0f 94 3e e6 66 0e be
       -0.17045593 0.2843209 0.28917938 -0.1390644
0002d0 e6 ac 6e 3d 86 04 89 be 0e c2 8e 3e f8 c2 4f bd
       0.058270358 -0.26761264 0.27882427 -0.050723046
0002e0 05 80 bb bd 1d dd f2 3d d1 67 0c be f2 ab 31 3d
       -0.09155277 0.1185858 -0.13711478 0.04337687
0002f0 5c 5e 1f 3e 88 63 bc 3e 7a 82 47 3d c5 52 0c be
       0.15563339 0.36794686 0.048708417 -0.13703449
000300 54 6a 7c be e3 45 ad 3e ca 24 9e bd b9 5b 1f 3e
       -0.24649936 0.33842382 -0.07721861 0.15562333
000310 1e e4 b0 3e 83 d3 92 be fb a9 80 be c1 e7 40 3e
       0.3454904 -0.28676996 -0.25129685 0.18838407
000320 42 93 a3 3d 79 43 9c 3e b5 c7 b9 3e e0 cb 82 bd
       0.079870716 0.30520228 0.36285177 -0.06386542
000330 d2 2a 56 3e d4 a8 a5 bd 63 4c c9 3d 18 d4 25 be
       0.20914772 -0.08088842 0.09829023 -0.16194189
000340 ea 79 9a 3d c7 3a 8c bd 68 a8 59 bd 25 b7 3f 3e
       0.075427845 -0.068471484 -0.05313912 0.18722208
000350 14 51 32 be 9b 25 45 3e bf 72 39 bd f9 df ef bd
       -0.17413741 0.19252627 -0.045275446 -0.11712641
000360 27 3d 13 be a3 3b fd bd 63 cc 6f be 93 d4 78 be
       -0.14378797 -0.123648904 -0.23417811 -0.2429984
000370 4c 76 27 3e 7c 1f 83 be e2 49 3a 3e ca a6 23 bd
       0.1635372 -0.25609958 0.18192247 -0.039953984
000380 11 ed b5 be 21 db 54 be 56 fa 29 be 6f dd a3 3e
       -0.3553243 -0.20786716 -0.16599402 0.32004878
000390 ba a2 60 bc 48 ad b2 3e 8e 5e 3c 3c 14 d9 8e be
       -0.013710672 0.34897828 0.011497153 -0.27899992
0003a0 91 05 70 3e 0c e8 8c be 95 32 1c 3e a8 53 7a 3e
       0.23439623 -0.27520788 0.1525367 0.24445975
0003b0 72 8f 92 3e 59 84 8a 3e 06 61 e3 bd 5d 85 11 bd
       0.28625065 0.27054098 -0.1110249 -0.035527576
0003c0 34 bc 8b 3c a3 fc 85 3e ff 92 a6 3e 57 5b be 3e
       0.017057516 0.2616931 0.32534024 0.37179062
0003d0 72 cc 60 3e 2f f3 97 3e 16 bc 4e be 97 f9 c3 bd
       0.2195299 0.29677722 -0.20188937 -0.0956909
0003e0 11 2a 9a 3d 6e 96 42 be a9 09 eb 3d 83 ba d9 3c
       0.07527555 -0.19002697 0.11476452 0.026578194
0003f0 e1 7e 3a bd 84 04 18 be 6f 73 24 3e 75 6e 90 be
       -0.045531157 -0.14845473 0.1605966 -0.28209272

layer1.bias f4 [64]
000000 9f e6 21 3d 91 3c 2c be 41 eb c1 3e f8 80 4e bd
       0.039526578 -0.16819979 0.37874797 -0.050415963
000010 21 07 53 be 3a df 17 3e 63 92 72 be 47 76 e1 3d
       -0.20608188 0.14831248 -0.23688655 0.11008888
000020 12 15 39 be 37 13 97 3e 5e 1a 53 be 67 a6 96 3e
       -0.18074444 0.29506847 -0.20615527 0.2942383
000030 cf b7 56 bd 40 70 d1 3c a9 df 6f 3c d3 c3 cd 3e
       -0.052421387 0.02556622 0.014640727 0.40188465
000040 f1 54 a7 3e ac ae 57 3d 90 6d d7 bd ce 60 16 be
       0.32681993 0.052656814 -0.10518944 -0.14685366
000050 63 05 87 3d bf 46 2b 3e 08 49 d4 3d 4d ab 88 3e
       0.06592824 0.16726206 0.10365492 0.26693192
000060 3d c0 8a bc 93 9e f4 3d ec 36 88 3e 6a b0 45 be
       -0.01693737 0.11944308 0.26604402 -0.19305578
000070 12 8d 12 be e2 11 a0 3e ca 1a 05 3d 99 16 2d be
       -0.14311627 0.31263644 0.03249625 -0.16903152
000080 70 88 83 3e 6a 82 c0 bd 85 f4 41 be 01 d9 e4 3d
       0.2569003 -0.093998745 -0.18940933 0.11174203
000090 70 df 27 3e 4b 4e 81 3d 97 0a c6 3e 7d 1f 7c bd
       0.16393828 0.06313761 0.38679954 -0.061553467
0000a0 a3 a3 b7 3e b2 73 96 be 80 97 bb 3e 42 67 96 ba
       0.35867032 -0.29385144 0.36639023 -0.0011474865
0000b0 04 8b b6 bd 9e e9 b1 3e c6 2e 15 3e de d8 89 be
       -0.08913234 0.34748548 0.14568624 -0.2692327
0000c0 a9 b7 2d 3e b3 03 03 bd 70 8e 52 3e 2f ad 3b be
       0.16964592 -0.03198595 0.20562148 -0.18327783
0000d0 ab 26 3e 3e 94 4f 5a be 72 31 c6 3e 2a a2 88 3e
       0.18569438 -0.21319419 0.387096 0.2668622
0000e0 93 fa 57 be ef 17 b3 3e 00 e3 ba 3e e7 ab 4a be
       -0.2109168 0.34979197 0.36501312 -0.19792138
0000f0 ee aa 6f bd fa 4c 41 3e b2 72 22 be b4 92 bd bd
       -0.05851262 0.1887702 -0.15864065 -0.09256497

layer2.weight f4 [64, 64]
000000 46 c8 f0 bc 0d 1b 64 bc ea 62 f2 3d 6e 43 d9 3d
       -0.029392373 -0.013922465 0.118352726 0.10608564
000010 61 5f a3 bd fe 5e a0 bc 0b 4c c3 bc da df 33 3d
       -0.079771765 -0.019576546 -0.023839971 0.043914653
000020 02 48 2c 3c 36 aa cf 3c e4 1f c5 bd 01 75 8e bd
       0.010515215 0.025349718 -0.09625223 -0.069559105
000030 41 eb 02 3e de f8 44 3d 27 10 04 be 42 cd 19 bd
       0.12785055 0.0480889 -0.12896787 -0.037549265
000040 3f 41 8e bd e0 75 3b 3d 3a d8 ce bd 29 0e fe 3d
       -0.069460385 0.04576671 -0.10099836 0.124050446
000050 cf fb 07 be ec 5c 4a 38 39 b9 b6 bd 5a 35 7b bd
       -0.13279651 4.8247093e-05 -0.08922047 -0.061330177
000060 a9 b8 3a 3d f4 95 5d 3d 9d 14 a3 bc 93 b2 29 bd
       0.045586262 0.054098085 -0.01990729 -0.041430067
000070 3d 9f d9 3c c1 13 08 be 52 ff 69 bc c8 77 72 3c
       0.026565189 -0.13288786 -0.0142820645 0.014799066
000080 65 9b 7f 3d 47 3a c5 3d 66 3b 8a 3d c0 1c 21 3d
       0.062404055 0.09630256 0.067496106 0.03933406
000090 89 9a 09 3e c6 b9 27 3c f3 04 ea bc 0a 41 8e 3c
       0.13437857 0.010237163 -0.028566813 0.017364997
0000a0 31 de 9f 3c 31 7d f2 bd e0 73 cf 3c b2 c4 8d 3d
       0.019515129 -0.118402846 0.025323808 0.06922282
0000b0 4c e9 14 be 07 4e ae 3c c5 3f 91 bd c5 d1 a7 3d
       -0.1454212 0.02127744 -0.07092241 0.08194307
0000c0 74 7a ac bd fa ad cd bb 0c 98 e9 3d 50 8f 55 3d
       -0.084217936 -0.006276843 0.11405954 0.052138627
0000d0 c3 55 32 3d cc 4b 8d bd c0 0f fe 3d ca 70 51 3d
       0.04353882 -0.06899223 0.12405348 0.051132955
0000e0 3d 74 99 3c 3f 51 ae 3d 0d e2 04 3e 9b fb cf bb
       0.018732185 0.0851159 0.12976857 -0.0063471324
0000f0 ac 8c 1f 3e 04 90 83 3c 79 0a 8b bd da 68 66 3d
       0.15581006 0.016059883 -0.06789107 0.056252338
000100 10 94 a2 bd fd ef 9c bd 84 50 36 bd da a9 9f bd
       -0.07938397 -0.07662962 -0.04451038 -0.077960685
000110 26 e9 a6 bc 1a c5 d1 bd e6 f2 eb bd 12 be cb 3d
       -0.020374846 -0.10242672 -0.115209386 0.099483624
000120 91 44 b5 bd cb 52 a6 3d e8 a0 c8 bc e4 d1 96 3c
       -0.08850969 0.0812126 -0.024490789 0.01841063
000130 a0 e7 9f 3c f7 02 1e be 92 49 b6 3d df 51 9b 3c
       0.019519627 -0.15430818 0.08900751 0.018959938
000140 d3 4a 83 bd 72 b1 a3 3d 11 58 27 be 73 52 8a 3d
       -0.06410756 0.079928294 -0.16342188 0.06754007
000150 20 8a 0b 3e c9 21 b5 3d 9d 90 d4 bd f0 5a 29 bc
       0.1362691 0.08844335 -0.10379145 -0.010336623
000160 46 cf a7 bd e1 32 67 bc cd 1b 0e 3e 19 8b dd 3d
       -0.08193831 -0.014111252 0.13877793 0.108175464
000170 2b c9 85 bd 87 60 0e bb bd 4f 0c 3c 4e 3c ad bd
       -0.0653251 -0.0021725015 0.008563933 -0.08458768
000180 94 14 31 bd 80 33 30 3e d8 9c 03 bc 63 3f 34 be
       -0.043232515 0.17207146 -0.008033 -0.17602305
000190 69 71 4c bc de 18 62 be a3 f2 f9 bd de 24 19 3a
       -0.012478211 -0.22079799 -0.122044824 0.00058419805
0001a0 95 f3 01 bb 30 4b 92 3d 13 e6 93 bd a4 83 f7 3d
       -0.0019829024 0.07143247 -0.072216175 0.12085655
0001b0 ab 73 a5 bd 59 51 f3 3d fe 72 9f 3d 9f 2e 9e 3d
       -0.080787025 0.1188075 0.07785605 0.07723736
0001c0 98 94 64 bd b0 9b fa 3c 68 0b 15 be ea 05 88 3d
       -0.055805773 0.030591816 -0.14555132 0.06641753
0001d0 a3 67 03 3d ad 8c f5 bd bb 6e e2 bd 35 1b 03 3e
       0.032081258 -0.119897224 -0.110562764 0.12803347
0001e0 f0 0f 44 be 9e 0c 0c 3e 16 66 ad 3d 14 c0 82 bd
       -0.19146705 0.13676688 0.08466737 -0.06384292
0001f0 07 da b3 bc 4d 13 2c be 7d bf 15 3e b6 b2 95 bb
       -0.02195455 -0.16804238 0.14623828 -0.004568423
000200 89 aa 6c bc 59 0c f1 3d ae a5 ea bd 03 fd 00 bd
       -0.014444956 0.11769933 -0.11457382 -0.03149129
000210 69 50 c8 3c c8 65 8d bd b1 36 8f bd d3 7a d5 bd
       0.024452405 -0.06904179 -0.069928534 -0.104238175
000220 1f e8 18 bd 58 52 ab 3d 83 10 c5 ba cd 4b dd 3d
       -0.037330743 0.08365315 -0.0015034828 0.108054735
000230 2d 91 29 be 95 6c 07 be 18 21 0b 3e 3d 45 cb 3d
       -0.16559286 -0.13225015 0.13586843 0.099253155
000240 6c d3 95 bc a8 b3 69 3d e1 23 d6 bd 79 26 db b8
       -0.01828929 0.0570561 -0.10456062 -0.000104499
000250 b6 43 c0 3d 72 10 0b 3e 77 a6 7d bc be 9a e2 3d
       0.09387915 0.13580492 -0.015481583 0.11064671
000260 40 97 88 3d 67 1a 55 3d 53 10 e0 bc 7d 5f 28 3c
       0.06669474 0.052027132 -0.027351534 0.010276672
000270 c0 be 84 bd 01 4d b9 bb 71 c9 84 bd 79 13 d1 3d
       -0.06481695 -0.0056549315 -0.064837344 0.10208792
000280 7f b4 36 bd f8 0f 8b 3d 8e 3f dc bd 4e ae 15 be
       -0.04460573 0.06790155 -0.107543096 -0.14617273
000290 e2 4e 53 bd 2f 41 a6 bd a7 b0 bd bc d4 0f 1d 3e
       -0.0515889 -0.081179015 -0.023155523 0.15338069
0002a0 c8 de 13 3e 26 ea 3e 3e 35 95 f4 3d a7 2f cf bc
       0.14440453 0.18644008 0.119425215 -0.025291277
0002b0 e9 04 0c be b5 6b 04 3e 4a c2 11 3e 82 ba bb bd
       -0.13673748 0.12931712 0.14234272 -0.09166433
0002c0 58 19 12 3d 9e 88 c5 3c 57 21 eb 3c 15 dc ee bc
       0.0356687 0.024112996 0.028702421 -0.029157678
0002d0 41 3e 09 bc b7 bc 88 bc 44 a2 8f 3d 0a 07 c3 bd
       -0.008376659 -0.016691549 0.070133716 -0.09522827
0002e0 6c ec 32 3d 96 d5 8b bd af 3d b8 3d ba fd 73 3c
       0.0436825 -0.06827848 0.0899614 0.014892036
0002f0 ed d9 a7 bd 86 7e 5e 3d f4 57 12 3e a6 56 da bc
       -0.08195863 0.05431988 0.14291364 -0.026652645
000300 e3 b2 13 be 3b 64 83 3d 79 ee a5 3d d2 4a c3 3d
       -0.14423709 0.06415602 0.08102126 0.09535755
000310 bc 4d e4 3c 14 94 b6 bc 98 0a 1b bc 8f ba 0c 3d
       0.027869098 -0.022287406 -0.009462975 0.034357604
000320 7f f4 77 bd 2e 08 ea bd c8 b9 3d 3d c9 ea 10 3e
       -0.060535904 -0.114273414 0.046319753 0.14152063
000330 40 27 c4 3d aa a7 ca 3d 90 a3 54 bd 36 0f ac 3d
       0.09577799 0.09895261 -0.051913798 0.08401339
000340 8e f9 d0 3d af 69 94 bd a3 86 2d bd 07 e9 77 bd
       0.10203849 -0.0724672 -0.042364728 -0.060524967
000350 62 b9 07 bc 4b 57 16 be 47 43 76 bd dd a9 0f 3e
       -0.008283945 -0.14681737 -0.060122754 0.14029641
000360 b0 78 f3 bc a9 54 6b bd a7 b5 8b 3d 7a 50 e2 3d
       -0.029720634 -0.057453785 0.06821757 0.11050506
000370 de 4b c7 bd b6 61 e0 bc 1f b0 ca bd f2 06 5b 3d
       -0.097312674 -0.027390342 -0.09896874 0.05347342
000380 a7 2a d1 3d 58 aa d3 3c f1 8b 88 3d a2 49 6a 3d
       0.102132134 0.025838062 0.06667317 0.057199128
000390 0b ec 26 3d 84 12 8f bd de 24 4c 3c 19 3b d7 3c
       0.040752452 -0.069859535 0.012459962 0.026273297
0003a0 44 37 fc 3c fa 0b c3 bd ba fe 96 3c 7f 3c c8 bb
       0.030788071 -0.09523769 0.01843201 -0.0061107273
0003b0 e3 19 8f bd 5e 7f 7e 3d 29 04 90 bd 31 12 22 3d
       -0.069873594 0.062133186 -0.070320435 0.03956813
0003c0 9d e9 61 bd ce 7c 70 3d bf fb 84 3d 5e af 28 bd
       -0.05515443 0.058712773 0.06493329 -0.04118287
0003d0 1d 1d a8 3d 2c f9 4b 3d c8 cc 64 3d d2 3f 1d bd
       0.08208678 0.049798176 0.055859357 -0.038390942
0003e0 f2 2d 13 bd 84 f6 32 3d 36 6f 80 bc ed 65 0f 3e
       -0.03593249 0.043692127 -0.01567803 0.14003725
0003f0 c1 a3 b1 3d b9 56 b7 3d d1 2f 75 bd 21 ed c8 3a
       0.08673812 0.08952088 -0.059860054 0.0015329459

layer2.bias f4 [64]
000000 1a 7d d1 bc 78 2c 46 3d 14 2a ad 3d f7 a1 57 bd
       -0.025572348 0.048382252 0.084552914 -0.052644696
000010 e7 c3 a7 3d 81 68 6b 3c e2 4e 77 bd e0 e2 24 3d
       0.08191662 0.014368177 -0.060377963 0.040255427
000020 09 bf 2e 3d 41 7d 79 3d 10 e9 1a 3d 38 ff 9b bd
       0.042662654 0.060910467 0.037819922 -0.076170385
000030 7d 07 4d bd 6e 20 dc 3d bd e2 87 bd b8 5a 3d 3e
       -0.05005597 0.10748373 -0.06635044 0.18491638
000040 53 26 cc bd f6 de 86 3c de ff f7 bc 46 40 58 3d
       -0.09968247 0.016463738 -0.030273374 0.05279567
000050 b1 89 05 bd 86 a3 38 3d c0 12 cb bd aa eb 79 bc
       -0.032602016 0.045077823 -0.09915686 -0.015253941
000060 42 4c 24 3d 4d 4c 01 3c 13 fa 1d 3d 41 18 49 3e
       0.040111788 0.007891727 0.038568567 0.19638158
000070 8e ba 31 3e ea f4 73 3d 40 9b 03 3d 66 ef 34 3e
       0.17356321 0.05955974 0.03213048 0.17669448
000080 24 38 00 3e 3b e0 eb bc d0 c6 96 bc d3 cf 07 3d
       0.12521416 -0.028793445 -0.018405348 0.03315718
000090 0d 93 b5 3d ce e6 ef bd 5b 1b 22 3e b1 12 c9 bd
       0.08865938 -0.117139444 0.15830748 -0.09818018
0000a0 55 cc 9e bd 98 08 eb bd d7 43 f3 3c 6d 6b a5 bd
       -0.07753817 -0.114762485 0.029695434 -0.080771305
0000b0 4f 49 de 3d 2f a3 a3 3d 1c b3 cc 3d af 9a de bd
       0.10853826 0.07990109 0.099951 -0.10869347
0000c0 62 ea 20 3e e8 1f dc 3d b3 dd 35 3e a2 1c f2 3d
       0.1571441 0.10748273 0.17760353 0.118218675
0000d0 08 16 be bd 1f bc 6b bd 10 9d 47 bd 80 fc 12 3e
       -0.09281546 -0.057552453 -0.04873377 0.14354134
0000e0 aa 9b b7 3d ee 2e fd 3d 79 f7 9e bd b2 08 06 bd
       0.089652374 0.12362467 -0.077620454 -0.032723136
0000f0 3c 4b 0f 3e 4a 1f d8 bd b4 d8 16 3e 8d bc 46 bd
       0.13993543 -0.10552843 0.14731103 -0.04851966

layer3.weight f4 [5, 64]
000000 59 3c e1 3c d5 0a 2f be ee d2 22 be f2 d6 f6 bd
       0.027494596 -0.17093976 -0.15900776 -0.12052716
000010 40 a8 73 bb 61 de 46 be ce c2 f0 3d 72 b5 c5 bd
       -0.0037179142 -0.19420768 0.11755906 -0.096537486
000020 e0 89 2d be c7 5f 17 bb 55 3f 1f 3e b9 16 fc bc
       -0.16947126 -0.002309786 0.15551503 -0.030772554
000030 0a 00 a1 bd 90 39 ae bb b0 81 c3 bd 8d 22 0e be
       -0.078613356 -0.0053169206 -0.0954622 -0.13880368
000040 fb fc 04 be d2 e1 e4 bd b5 7b 0f 3d 48 74 c8 3c
       -0.1298713 -0.11175884 0.035030086 0.02446951
000050 95 b6 2f 3d a2 ac ab 3b a5 fb 58 3c 2c 2c 90 bd
       0.042898733 0.0052390853 0.0132435905 -0.07039675
000060 6b 0f 8a 3d df aa 02 be 94 89 02 bc 89 89 17 be
       0.06741222 -0.12760495 -0.0079673715 -0.14798559
000070 35 5e fb bc 11 89 62 bc 9c e4 e8 3d 2a 5c 90 3d
       -0.03068457 -0.0138266245 0.11371729 0.07048829
000080 f8 8f 86 bc 4a 7d 71 3d 3e 36 b5 bd 85 ba e6 3d
       -0.016426072 0.058957376 -0.088482365 0.112660445
000090 9e e1 02 3e 93 1f f7 bc e7 7a 3b be cd 54 c4 3d
       0.12781379 -0.030166423 -0.18308602 0.09586487
0000a0 08 8f c4 3d f1 ce 34 be e8 92 28 3e 9b a8 15 be
       0.095975935 -0.17657067 0.1646229 -0.14615099
0000b0 f4 49 3e bd 8e b7 f2 3d ce a7 2e 3e d6 d2 1f 3e
       -0.046457246 0.118514165 0.170562 0.15607771
0000c0 43 52 52 3d 1a 51 08 3e 18 26 35 3b 1d 93 4a bb
       0.051347982 0.13312188 0.0027641114 -0.003091044
0000d0 e4 25 c6 3d 2b 3c be bc 66 2c 57 3d f5 6a c0 3d
       0.09675196 -0.02322205 0.052532576 0.093954004
0000e0 77 23 be bd 70 c1 ac bd 4b 79 f9 3d d2 52 f9 3d
       -0.09284108 -0.08435333 0.12181338 0.12174
0000f0 25 4d fe bd 01 ef 70 be 37 c2 0d 3e b2 90 0c 3d
       -0.12417058 -0.23528673 0.13843618 0.03431768
000100 e2 f6 dd bd 79 70 80 bc 5c 10 dd 3d ec 3c 1b be
       -0.10838105 -0.015678631 0.10794136 -0.15159959
000110 da f9 56 3d e6 ac a8 3d 08 3a 1e bd aa 8d a0 bd
       0.05248437 0.08236103 -0.03862956 -0.0783952
000120 23 8a 2a be 14 5a 85 3d 14 a3 93 bc 23 a5 8a bd
       -0.16654257 0.06511322 -0.018022098 -0.067697786
000130 76 52 e4 3d 1c 5a 41 3d c2 e6 96 bd 69 46 16 3e
       0.11148541 0.047205076 -0.07368232 0.14675297
000140 9f db ed 3d 80 76 12 bd 17 9b 18 bd 4f 9d 27 3e
       0.11614155 -0.03575754 -0.03725728 0.16368602
000150 93 5a 77 3e a3 fe ea 3d 0c 1d 3b 3d 02 5e 6b bb
       0.24155645 0.11474349 0.045681998 -0.0035914187
000160 81 16 7d 3c 7d a3 6f 3d 02 8d 02 3e 0e c9 84 3c
       0.01544726 0.058505524 0.12749103 0.016209152
000170 df 9d ec 3d d1 f3 49 bd f2 44 9e 3d 97 78 2e 3e
       0.11553549 -0.049304787 0.07727994 0.17038189
000180 66 4d 7a 3d ee 29 96 3d 92 96 d0 bd 57 2a aa 3c
       0.06110897 0.07332216 -0.10184969 0.020772142
000190 24 f6 4d be 8b f6 01 be 84 b6 85 3b 3a 31 27 bd
       -0.20113426 -0.12691705 0.0040805954 -0.04081843
0001a0 a9 94 a3 bc c3 f1 5e 3d 4f 3c ff bd 60 d5 93 bd
       -0.019968348 0.05442978 -0.12462675 -0.072184324
0001b0 15 34 4f 3d 99 61 7c 3d 30 9e fb 3d 45 03 eb 3d
       0.05058678 0.061616514 0.12286031 0.11475233
0001c0 bd 4c 4e bd d3 ee 27 3e 56 2a cb 3d 12 bb 29 bc
       -0.050366152 0.16399698 0.09920184 -0.010359542
0001d0 f0 87 c1 3c 53 70 eb bd 01 7e bb 3d 63 2c 0a bb
       0.02362439 -0.114960335 0.09154893 -0.0021083585
0001e0 c0 0a 93 3d cd ea e4 3d 09 d6 2c 3d 08 fc 11 be
       0.07179785 0.11177597 0.042196307 -0.14256299
0001f0 48 34 59 3d 6b f8 c0 3c ef 37 0e 3d 18 a7 ef 3d
       0.053028375 0.023555955 0.03472131 0.117017925
000200 73 73 17 3d ba 5f b1 3a c4 aa 9c bd 91 01 40 3d
       0.036975335 0.0013532557 -0.076497585 0.046876494
000210 95 b3 4f 3e 0d 7b 5d 3d 36 64 91 bc 42 50 da bd
       0.20283349 0.05407243 -0.01774798 -0.10659839
000220 74 38 dd 3d 76 ec b6 3c 7e bc bb 3d 13 0f 9a bd
       0.10801783 0.02232955 0.091668114 -0.075224064
000230 50 ea 1b 3e 80 3a 91 3d 14 4f ae 3d f5 c7 e6 3d
       0.15226102 0.07091236 0.08511177 0.112686075
000240 fa bc eb 3d b0 3d 6e bc 11 f1 05 be a4 27 02 bd
       0.11510654 -0.014541075 -0.13080241 -0.031776085
000250 3f b6 01 bc 53 d1 75 bd d8 d4 84 3d 6b 19 28 3e
       -0.007916986 -0.06001408 0.06485909 0.16415946
000260 d8 7a 78 bc 23 28 56 3d c6 1a 8c 3c 08 b4 2f 3e
       -0.015166007 0.05228437 0.01710261 0.1715852
000270 01 27 27 3d b3 fa ac bd 8d 7a ea 3d ad 3b 8f 3d
       0.04080868 -0.084462546 0.11449156 0.06993804
000280 6b b7 5b 3d b7 71 e6 bd 07 64 d2 bd 85 8a d5 3d
       0.053641718 -0.11252158 -0.10272985 0.10426811
000290 b6 d4 8e bd 68 08 d1 bc 93 ac 06 3d 74 a5 92 bc
       -0.06974165 -0.025516704 0.032879423 -0.01790116
0002a0 46 6a 92 3d 67 cd 2b 3d b8 ab 3f 3d 59 ad 60 bc
       0.07149176 0.041943934 0.046794623 -0.013713204
0002b0 fd 82 e2 3d c6 fe be bd a5 d8 ea bc 24 10 d4 3c
       0.1106014 -0.09325938 -0.028667757 0.025886603
0002c0 f1 0f 07 3e 01 77 2f 3e 43 f2 fa 3d 57 30 17 3e
       0.13189675 0.1713524 0.12253239 0.14764534
0002d0 80 c6 7d 3c 46 05 03 3e e4 b1 90 bd aa d1 a3 3d
       0.015489221 0.1279498 -0.0706518 0.079989746
0002e0 8d 8b 5b bd 4c 5a 10 3c c6 67 e6 bd 2d e8 8e 3d
       -0.053599883 0.008810591 -0.11250262 0.06977878
0002f0 43 14 ed 3d d3 ff f1 3c cb ba 57 3d 5c 33 42 3d
       0.1157613 0.029540932 0.052668374 0.04741226
000300 3b 2f f4 bd 24 9f 14 bb 89 2c c4 bd 1b 21 a5 3d
       -0.11923071 -0.0022677863 -0.09578807 0.08062955
000310 16 a6 4b 3d c5 f1 0a 3d 15 a1 86 3d 7a eb 12 bd
       0.04971894 0.033921976 0.06573693 -0.0358691
000320 dd c3 13 bc e8 16 e7 bd 79 5f f9 3d d7 b7 62 3d
       -0.009018865 -0.11283666 0.12176413 0.055351105
000330 84 e5 87 bd 09 d7 d0 3d d2 a6 82 3c 86 ac aa bd
       -0.066355735 0.10197265 0.015948687 -0.083336875
000340 65 bb 0c bb 40 b7 bb 3d fc 6d 35 3c df 86 91 bd
       -0.0021474 0.091658115 0.011073586 -0.07105803
000350 14 3e e6 bd 7c 86 85 3d 0c bd d3 ba 3e 32 40 3d
       -0.11242309 0.065197915 -0.0016154363 0.046922915
000360 b9 18 a4 bb 6b d0 83 3d 2e b8 97 3d e9 ea bf bc
       -0.00500783 0.06436237 0.07408176 -0.023427444
000370 f7 5d 00 bd 9f de 95 bd 4c 54 86 3c c6 69 a0 bc
       -0.03133961 -0.07317852 0.016397618 -0.019581687
000380 10 7b b5 bb c1 2b 54 3b 8a 55 47 3d cf 6e 2b be
       -0.005538352 0.0032374712 0.04866556 -0.16741489
000390 c4 c8 58 3d d7 55 cd bc c9 9c 97 bd b8 ee 77 3c
       0.05292584 -0.025065346 -0.07402951 0.015132599
0003a0 d8 e8 1d bd 70 7c be bd 0e ab 61 bd ed 15 b1 3c
       -0.038552135 -0.09301078 -0.05509477 0.0216169
0003b0 db 8e 67 3d b3 3a a0 3d cb ee 9c 3b 8d 93 ac bd
       0.056532722 0.07823696 0.0047892085 -0.084265806
0003c0 8f d4 4b bd 7c 26 e3 39 d0 b7 87 bc 25 13 da bd
       -0.04976326 0.00043325487 -0.01656714 -0.10648183
0003d0 2a f1 d4 bd ee 3d 54 3b d6 83 68 3d 71 f6 25 be
       -0.10397561 0.0032385546 0.056766354 -0.16207291
0003e0 60 85 a1 3d 2a ba 79 3c 5c 47 d0 bd e7 f6 ce 3b
       0.078867674 0.015242139 -0.10169861 0.006316054
0003f0 0e 80 ca bd 37 d1 d7 3d 24 72 8e 3d ff 77 d1 3d
       -0.09887706 0.105379514 0.06955364 0.102279656

layer3.bias f4 [5]
000000 c5 d1 61 bd 3a cb dd 3d 1f 69 27 3c e8 f0 88 bd
       -0.055131692 0.10829778 0.010217934 -0.06686574
000010 03 31 87 bd
       -0.06601145
