ppo_critic.pth (torch, 21679 bytes, 5 tensors)

layer1.weight f4 [64, 9]
0	0xbcc67154	-0.024223961
1	0xbcb37047	-0.021904124
2	0x3c4e5c6d	0.012595278
3	0x3d6b2416	0.05740746
4	0xbe2f6ea5	-0.17132051
5	0xbea1a1f1	-0.31568864
6	0x3da87483	0.08225348
7	0xbcc069eb	-0.023488006
8	0x3de5f447	0.11228233
9	0x3e64d64d	0.22347374
10	0xbdd44fa5	-0.103667535
11	0xbdbf2e7c	-0.09335038
12	0x3db82a1f	0.08992409
13	0x3e18cd64	0.149221
14	0x3de78814	0.11305252
15	0x3c132bb3	0.008982587
16	0x3cbcbd21	0.023039402
17	0xbe2dae5f	-0.16961049
18	0x3c60b819	0.013715767
19	0xbe8f20c8	-0.27954698
20	0xbccf00c9	-0.02526893
21	0xbe45ae8d	-0.19304867
22	0xbe8911ec	-0.26771486
23	0xbdee18c0	-0.116258144
24	0xbe8f849a	-0.28030854
25	0x3d05d0e1	0.032669906
26	0xbe8b57d4	-0.27215445
27	0xbe977144	-0.29578602
28	0x3ea11782	0.31463248
29	0x3cc96cc2	0.024587993
30	0xbea84ea6	-0.32872504
31	0xbd9062e7	-0.07050114
32	0x3ea5651d	0.32303706
33	0xbdbd3fa6	-0.092406556
34	0xbe10e0aa	-0.14148203
35	0x3e0f222d	0.13977881
36	0x3df762b9	0.12079377
37	0x3e915f71	0.2839313
38	0x3df9c379	0.121954866
39	0xbe98965a	-0.2980221
40	0x3ea1b973	0.315868
41	0xbe82c0c4	-0.25537694
42	0x3e7ddf92	0.24792317
43	0x3e61394c	0.21994513
44	0xbe89ee55	-0.26939645
45	0xbe587082	-0.21136668
46	0xbe5a0ced	-0.21293993
47	0x3de2e38b	0.110785566
48	0x3e720760	0.23635626
49	0xbe6f35df	-0.23360394
50	0xbceb954a	-0.02875771
51	0xbe2bafd7	-0.16766296
52	0x3e0bf806	0.13668832
53	0xbdd93634	-0.106060416
54	0xbe633919	-0.2218975
55	0x3e95b9fa	0.2924345
56	0x3e152a97	0.14567028
57	0xbdac031a	-0.08399029
58	0xbe6e7700	-0.23287582
59	0xbdccbd28	-0.09997016
60	0xbe69ccbc	-0.22832006
61	0xbe3148e1	-0.17312957
62	0x3e3cc960	0.18436193
63	0xbe5c7a81	-0.21531107
64	0x3e146479	0.14491452
65	0x3c74be9d	0.014938024
66	0xbc86e2cf	-0.016465573
67	0xbe7b79bd	-0.24558158
68	0x3e57a198	0.21057737
69	0x3df8a291	0.12140382
70	0xbe780c7a	-0.2422351
71	0x3e557075	0.2084368
72	0xbea1c809	-0.31597927
73	0x3df2e9bd	0.11860988
74	0xbdb10137	-0.0864281
75	0xbd5f3866	-0.054497145
76	0xbe6999a2	-0.22812513
77	0x3e9f3309	0.31093624
78	0x3e13b80a	0.14425674
79	0xbe123b87	-0.1428052
80	0x3db8d089	0.0902415
81	0x3ea31201	0.31849673
82	0x3e0905f4	0.13381177
83	0xbe9cada0	-0.30601215
84	0xbdad26d0	-0.084546685
85	0x3cb6b564	0.02230329
86	0x3e815fae	0.2526831
87	0xbe2cfed5	-0.16894086
88	0x3e4436e5	0.19161566
89	0x3ea2bea8	0.31786084
90	0xbdd74e7f	-0.10513019
91	0x3d93138c	0.07181463
92	0x3e20d873	0.15707569
93	0xbe157627	-0.14595853
94	0x3e8e5ee7	0.2780678
95	0xbea5848b	-0.32327685
96	0x3e6bdb10	0.23032784
97	0x3d5038dd	0.05083548
98	0xbd8b3513	-0.067972325
99	0x3ea34105	0.31885543
100	0x3d5af354	0.053454712
101	0xbe3f327c	-0.18671602
102	0x3d6c026b	0.057619493
103	0x3e457291	0.19281985
104	0x3d4aa61a	0.049474813
105	0xbe2ae82e	-0.16690132
106	0xbd054e6f	-0.032545503
107	0xbe6acd9e	-0.22929999
108	0xbe81467e	-0.25249094
109	0xbdee646b	-0.11640247
110	0x3df0db4c	0.117605776
111	0xbe4fe77b	-0.20303147
112	0x3b9c389c	0.0047674906
113	0x3c24ab2e	0.010050578
114	0x3e420e6f	0.18950818
115	0x3e8daca2	0.2767077
116	0xbdf9f3f5	-0.12204734
117	0x3e677b7e	0.22605702
118	0xbe86029b	-0.26173863
119	0x3e2de1ff	0.16980742
120	0xbe3743ad	-0.1789691
121	0xbe942c79	-0.2894018
122	0x3dd98949	0.10621888
123	0x3ea387e7	0.31939623
124	0x3e42958f	0.19002365
125	0x3e378dd6	0.179252
126	0xbdcbbb48	-0.099478304
127	0xbe7d4490	-0.24733186
128	0xbea1fa18	-0.3163612
129	0x3cbb31e0	0.02285093
130	0x3d498f86	0.04920914
131	0xbe8be768	-0.27324986
132	0xbd62e95a	-0.055398323
133	0xbe3a0b31	-0.18168332
134	0x39d89fc0	0.00041317753
135	0x3ea76cf4	0.32700312
136	0xbd68bff8	-0.0568237
137	0xbe78f1d0	-0.24310994
138	0xbc1b1f33	-0.009467888
139	0x3d0f73bb	0.03502248
140	0x3d2d9c86	0.0423856
141	0xbba2f207	-0.0049726996
142	0xbbe4fd64	-0.0069882143
143	0x3e8104fc	0.25199115
144	0xbea5f1d3	-0.3241106
145	0xbd103c74	-0.035213903
146	0xbe0fb813	-0.14035062
147	0x3dd0c68d	0.101941206
148	0x3e916bfa	0.28402692
149	0x3e2590fe	0.16168591
150	0xbd2f0ba3	-0.042735707
151	0x3e5000ac	0.20312756
152	0xbe82533b	-0.25454125
153	0x3dbf17d9	0.093307205
154	0xbe062fb6	-0.13104138
155	0xbe5b02fb	-0.21387856
156	0x3e965276	0.29359788
157	0x3e61e13b	0.22058575
158	0xbe0813d6	-0.13288817
159	0xbe4ad23d	-0.19806762
160	0xbd04d2c0	-0.03242755
161	0xbe68c4bf	-0.22731303
162	0xbd98b69a	-0.074567035
163	0x3dcb2bd3	0.09920468
164	0xbdbf471a	-0.093397334
165	0xbc74cf23	-0.014941963
166	0xbe92790b	-0.28607973
167	0x3ea206fe	0.3164596
168	0xbd9b82db	-0.07593318
169	0xbea9907b	-0.33118042
170	0x3d8afe26	0.06786756
171	0x3ad22e26	0.0016035482
172	0x3e0873ff	0.13325499
173	0x3e334510	0.17506814
174	0x3e65eb5f	0.22453068
175	0x3e76b2bb	0.24091618
176	0x3dd25587	0.10270219
177	0xbd3ba8fb	-0.04581545
178	0xbdf5cb1f	-0.12001633
179	0xbe94d999	-0.29072264
180	0xbe75d122	-0.24005559
181	0xbdeac509	-0.11463363
182	0xbe586bb8	-0.21134841
183	0xbe2b31ec	-0.16718262
184	0x3e7d32c0	0.24726391
185	0xbe015df1	-0.12633492
186	0x3e2df803	0.1698914
187	0xbe6f66ae	-0.23379013
188	0xbe1c9fdf	-0.15295361
189	0x3deb8a2a	0.11500962
190	0x3ea4ee33	0.32212982
191	0xbd31e55e	-0.043431632
192	0x3e9e2ea9	0.30894974
193	0x3dc26e04	0.0949364
194	0xbe6205ba	-0.22072497
195	0x3dfa8f38	0.12234348
196	0xbe57e2b2	-0.21082571
197	0x3e70f902	0.23532489
198	0x3e7d6ab6	0.24747738
199	0xbd827c73	-0.06371393
200	0xbd5f6fea	-0.05455009
201	0x3e3475fd	0.17623134
202	0x3cedf824	0.029048987
203	0x3e08ccfa	0.13359442
204	0x3d155dd4	0.036466435
205	0xbd96524e	-0.07339917
206	0xbe4c8e58	-0.19976175
207	0x3d43f981	0.047845367
208	0x3e20ea7b	0.15714447
209	0x3e258085	0.16162308
210	0x3d8e3427	0.06943541
211	0x3dc0738b	0.09397038
212	0xbe344fd9	-0.17608584
213	0xbd0ba379	-0.034091447
214	0xbd2e48f5	-0.042550046
215	0x3ea5ead9	0.32405737
216	0x3c302c5d	0.0107527645
217	0xbe1297b3	-0.14315681
218	0xbe9fff3f	-0.31249425
219	0x3e21d5f2	0.1580427
220	0x3de6ffba	0.11279245
221	0xbe2548b3	-0.16141014
222	0xbea01620	-0.3126688
223	0xbe207ab5	-0.15671809
224	0x3e993c70	0.29928923
225	0xbdc16086	-0.094422385
226	0x3de0d469	0.10978014
227	0x3e114fdd	0.14190622
228	0xbe913555	-0.28361002
229	0xbea37eb2	-0.31932598
230	0xbe88136a	-0.26577312
231	0xbe364c05	-0.17802437
232	0xbc237a06	-0.009977823
233	0x3e056839	0.13028039
234	0xbd3f75f4	-0.04674335
235	0xbca3305c	-0.01992052
236	0x3e91e8c9	0.28497913
237	0xbe7ce91c	-0.24698299
238	0xbdf704e3	-0.12061479
239	0xbd330232	-0.043703265
240	0x3e6d4f1a	0.23174706
241	0x3d03fd0d	0.03222375
242	0x3ddc9837	0.1077122
243	0xbe1aed1c	-0.15129513
244	0x3e6773d2	0.22602776
245	0xbd6795f1	-0.05653948
246	0xbe728c19	-0.23686256
247	0x3d2e58eb	0.042565268
248	0xbea19d29	-0.31565216
249	0xbdc32483	-0.095284484
250	0xbe407bf8	-0.1879729
251	0xbd0b70b3	-0.034043025
252	0xbe627bb2	-0.22117499
253	0xbe2226c9	-0.15835108
254	0xbe8a80e0	-0.2705145
255	0x3e6faeda	0.23406544

layer1.bias f4 [64]
0	0xbd384a65	-0.044992823
1	0xbe9d041e	-0.30667204
2	0x3e85d305	0.26137558
3	0xbe4ad6db	-0.19808523
4	0x3df48792	0.119399205
5	0xbe960023	-0.2929698
6	0x3e72ab16	0.23698077
7	0x3e74385d	0.23849626
8	0xbbbcda70	-0.0057633445
9	0xbe976ab7	-0.29573604
10	0xbea00a06	-0.31257647
11	0x3e54702c	0.20745915
12	0xbe107bcc	-0.14109725
13	0xbd56485c	-0.0523151
14	0x3de2b98c	0.110705465
15	0x3d6a2795	0.057166655
16	0xbe0c0682	-0.13674358
17	0x3e3426b4	0.17592889
18	0xbe8150ef	-0.2525706
19	0x3c917a1c	0.017758422
20	0xbcf1fdbc	-0.029539935
21	0xbdfd34f0	-0.12363613
22	0x3e6da959	0.23209132
23	0x3d48e47e	0.049046032
24	0xbdac011f	-0.08398651
25	0x3b2f8feb	0.0026788663
26	0x3d58019a	0.052735902
27	0x3af79ab5	0.0018890711
28	0x3e3d2dff	0.18474577
29	0x3e92813c	0.28614223
30	0xbd1043f3	-0.03522105
31	0xbe523273	-0.20527057
32	0x3d8da50d	0.069162466
33	0xbe6ec549	-0.23317446
34	0xbe3caafb	-0.18424599
35	0x3b22bd62	0.002483212
36	0xbe87c2ac	-0.2651571
37	0x3d9b321d	0.07577918
38	0x3dd6112c	0.10452494
39	0x3e6debf5	0.23234542
40	0x3e997152	0.2996927
41	0xbe972749	-0.2952216
42	0xbd4ff653	-0.050772022
43	0xbd6ad156	-0.057328545
44	0xbdb2a068	-0.08722001
45	0x3dbe3aad	0.09288535
46	0x3c186e72	0.009303676
47	0x3d25583e	0.040367357
48	0x3e9cbbf4	0.30612147
49	0x3e990d65	0.29893032
50	0xbea2320f	-0.31678817
51	0x3c2716dd	0.010198322
52	0xbe0c2aa4	-0.13688141
53	0xbe440e20	-0.19146013
54	0xbd95e188	-0.07318407
55	0xbd887e4d	-0.06664715
56	0x3e60abd0	0.21940541
57	0xbe4c6372	-0.1995981
58	0x3e16a12d	0.14709921
59	0xbe267cbd	-0.16258521
60	0xbea31f47	-0.318598
61	0xbe95751b	-0.29190907
62	0x3da061a8	0.078311265
63	0x3ea14205	0.3149568

layer2.weight f4 [64, 64]
0	0xbd9d9d34	-0.07696
1	0xbdcfdc73	-0.10149469
2	0x3df2ebd1	0.11861385
3	0xbdabda00	-0.083911896
4	0x3dbccc4d	0.09218655
5	0xbde07454	-0.10959688
6	0xbdc01698	-0.093793094
7	0x3c1877ae	0.009305878
8	0x3d70283d	0.058632124
9	0x3d08b020	0.03337109
10	0x3dc1f0c9	0.09469754
11	0x3df01aaa	0.11723836
12	0x3df3c20b	0.11902245
13	0x3c8f40c3	0.017486935
14	0xbdd43824	-0.103622705
15	0x3d5a316a	0.05326978
16	0xbdff4840	-0.124649525
17	0xbce7655b	-0.028246572
18	0x3c9fbce4	0.01949925
19	0x3d961651	0.07328475
20	0xbdecec23	-0.11568477
21	0x3aad5f00	0.0013227165
22	0xbe012f8d	-0.12615795
23	0xbd75f081	-0.060043816
24	0xbdab7bb7	-0.08373206
25	0x3d3cd3a2	0.046100266
26	0x3dcaa63c	0.09894988
27	0xbdca2bbb	-0.09871622
28	0x3bfd4119	0.0077287075
29	0x3da2f19f	0.07956242
30	0xbdd39d7c	-0.10332772
31	0x3df6f662	0.120587125
32	0x3d9137e9	0.07090742
33	0x3d465429	0.048420105
34	0xbd81c78b	-0.06336888
35	0xbcbea3b7	-0.023271425
36	0x3d5a1a5f	0.053247806
37	0x3d6adc75	0.05733915
38	0xbd92d027	-0.07168608
39	0xbd6d3cf2	-0.05791945
40	0xbd8bc771	-0.0682515
41	0xbdf46bf4	-0.11934653
42	0xbd477036	-0.048690997
43	0x3cc468d0	0.02397576
44	0xbdce1319	-0.10062236
45	0x3cdcf665	0.026972959
46	0x3dfe0477	0.12403195
47	0xbbd1ae04	-0.006398918
48	0xbda6412a	-0.08117898
49	0xbd3dd94e	-0.046349816
50	0xbdce00c2	-0.10058738
51	0x3daf3769	0.085554905
52	0x3d50a2b4	0.050936416
53	0xbd511c50	-0.05105239
54	0xbd204ef7	-0.039137807
55	0x3d51e60e	0.051244788
56	0x3d89e24a	0.06732614
57	0x3cfe9cfd	0.031080717
58	0x3daf860c	0.08570489
59	0xbdd04193	-0.10168757
60	0xbccdfe80	-0.02514577
61	0x3c472498	0.012154721
62	0xbdf5d64b	-0.12003764
63	0x3dc83b8a	0.09776981
64	0xbbeddf80	-0.0072593093
65	0xbcc0e3b7	-0.023546083
66	0xbbaf710c	-0.0053540524
67	0x3d298001	0.04138184
68	0x3db47aa1	0.08812452
69	0xbd93282e	-0.07185398
70	0x3dee599c	0.116381854
71	0x3c8bd368	0.01706858
72	0xbd150301	-0.036379818
73	0x3df43d39	0.1192574
74	0xbb673335	-0.0035278325
75	0xbdb5fbd5	-0.08885924
76	0xbc6415de	-0.013921229
77	0xbddd76fd	-0.10813711
78	0xbc5dfe86	-0.013549453
79	0xbb180e00	-0.0023201704
80	0xbd8e27ff	-0.069412224
81	0x3d39361c	0.04521762
82	0xbda3446d	-0.079720356
83	0xbc84e9d5	-0.016224781
84	0xbd635a3b	-0.055505972
85	0xbd124219	-0.035707567
86	0x3dd11b06	0.102102324
87	0x3d417700	0.047232628
88	0x3c286857	0.010278783
89	0xbca37ea1	-0.019957842
90	0x3ddd9dcc	0.10821113
91	0xbe007347	-0.12543975
92	0x3da39c4f	0.07988798
93	0xbda629fa	-0.08113475
94	0xbdb58934	-0.0886406
95	0xbd021af7	-0.031763997
96	0x3a92a7c4	0.0011188914
97	0xbc12c1eb	-0.008957366
98	0x3d947a2f	0.07249867
99	0xbdae3822	-0.085068
100	0x3d7725ed	0.060338903
101	0xbdeb8606	-0.11500172
102	0xbba183f2	-0.004929059
103	0x3d4f0f72	0.05055184
104	0x3cd737fe	0.026271816
105	0xbd8ff3a9	-0.07028896
106	0xbd6db8bc	-0.058037505
107	0x3cb55d4c	0.022139214
108	0x3dcab856	0.098984405
109	0x3ceaa323	0.028642243
110	0xbc89b814	-0.016811408
111	0xbdf0ab32	-0.11751403
112	0xbd2276b8	-0.039664
113	0x3df2a8c4	0.11848596
114	0x3d9c5919	0.076341815
115	0xbcc324e3	-0.0238213
116	0x3c0b929b	0.00851884
117	0x3c03a30e	0.008034481
118	0xbdee66e0	-0.116407156
119	0xbdb497fd	-0.08818052
120	0x3d9f04a1	0.07764555
121	0x3dd42bf1	0.10359944
122	0xbd6c5f80	-0.057708263
123	0xbc29aac6	-0.010355657
124	0xbe0034f3	-0.12520199
125	0xbdef4940	-0.11683893
126	0x3d78cd6e	0.060742788
127	0x3d5850a1	0.05281127
128	0x3da2b661	0.07944942
129	0x3d8bff52	0.06835808
130	0x3cc6cc61	0.024267377
131	0xbcd91151	-0.026497515
132	0xbdec214f	-0.115297906
133	0xbddc3955	-0.10753123
134	0x3da6f868	0.081528485
135	0xbd02fa15	-0.031976778
136	0x3ddc75dd	0.10764668
137	0xbdf6dc68	-0.12053758
138	0xbddf2156	-0.1089503
139	0xbdce677a	-0.1007833
140	0xbd0fd200	-0.03511238
141	0x3d4324ce	0.04764252
142	0x3dade13a	0.08490224
143	0xbdaa8410	-0.0832597
144	0xbdad2f51	-0.084562905
145	0x3d5728bd	0.052529085
146	0xbd1eb0f2	-0.038742967
147	0x3d3727f0	0.04471582
148	0x3dceae2e	0.10091816
149	0xbde4ef22	-0.111784235
150	0xbdf06487	-0.11737924
151	0xbb6a88f6	-0.0035787201
152	0xbd7ff8a6	-0.06249299
153	0xbdaf7594	-0.08567348
154	0x3dd983e3	0.106208585
155	0x3dfc0e1a	0.12307377
156	0x3b99e8a8	0.0046969242
157	0x3dee7525	0.11643437
158	0x3d9da32c	0.07697138
159	0xbde9c6c8	-0.11414868
160	0xbda37dde	-0.07982992
161	0xbc6b40ab	-0.01435868
162	0xbdd829ff	-0.10554885
163	0x3d132201	0.0359211
164	0x3d45895c	0.0482267
165	0x3d4712fa	0.04860208
166	0x3d60eb21	0.054911736
167	0x3cc4d566	0.024027538
168	0x3d92166a	0.071331814
169	0x3d4ee699	0.050512884
170	0x3d4d9b1f	0.050196763
171	0x3cf43be0	0.029813707
172	0xbdb24096	-0.08703725
173	0xbd028a30	-0.031870067
174	0x3db11cf9	0.08648104
175	0x3dcdb614	0.10044494
176	0xbd4e1344	-0.050311342
177	0x3d47c3b6	0.04877063
178	0x3decec2d	0.115684845
179	0xbdd84abf	-0.10561132
180	0x3dede4af	0.116158836
181	0x3a81fd30	0.0009917375
182	0xbdfa1683	-0.12211325
183	0x3cc4674b	0.023975035
184	0xbd34d15a	-0.044144966
185	0xbc5c5661	-0.013448329
186	0xb9e64e9c	-0.00043927587
187	0xbd54e964	-0.05198039
188	0x3d8ffffe	0.070312485
189	0x3da57948	0.08079773
190	0xbdc29db5	-0.095027365
191	0x3daf34bf	0.085549824
192	0x3c31d2f0	0.010853514
193	0x3b58ed80	0.0033100545
194	0xbd315c55	-0.043300945
195	0x3dfce63f	0.123486035
196	0xbb3c6c80	-0.0028751194
197	0xbbd16a9d	-0.006390883
198	0xbd4b3dcb	-0.049619477
199	0xbce1dcb6	-0.027571063
200	0x3d62b75d	0.05535065
201	0xbe015b70	-0.12632537
202	0xbde6d68c	-0.1127139
203	0xbd8ba108	-0.06817824
204	0x3dc2e07e	0.09515475
205	0xbd9b0cb8	-0.07570785
206	0xbd8f6da1	-0.07003332
207	0x3d9b9ef4	0.07598677
208	0xbd8ea289	-0.06964595
209	0xbddece3b	-0.10879179
210	0xbcefa02c	-0.02925118
211	0xbd5f5dcd	-0.054532815
212	0x3da93714	0.082624584
213	0x3c187b5f	0.009306758
214	0xbce8df70	-0.028426856
215	0x3d8c9d42	0.06865932
216	0x3d2e7247	0.042589452
217	0xbd8c290b	-0.06843766
218	0xbad7d880	-0.001646772
219	0x3deb4b43	0.114889644
220	0x3c04c4f0	0.008103594
221	0x3d9c3098	0.07626456
222	0xbcf919d8	-0.030407831
223	0x3decdf5e	0.115660414
224	0x3c409f50	0.011756733
225	0xbd9b3a9c	-0.07579538
226	0x3d481286	0.04884579
227	0xbc9e5cb8	-0.019331321
228	0xbd266e54	-0.04063256
229	0x3db9245f	0.0904014
230	0xbd091cfc	-0.033474907
231	0xbd192fea	-0.03739921
232	0xbc9536c1	-0.018214585
233	0x3ddfb85e	0.10923837
234	0xbc12af0e	-0.008952869
235	0xbcfff6ff	-0.031245707
236	0xbdde6225	-0.10858563
237	0x3d9821bc	0.07428309
238	0xba0ed87b	-0.0005449128
239	0x3dc36e6d	0.095425464
240	0x3d3cbeff	0.046080586
241	0x3cd8da93	0.026471412
242	0xbd98071d	-0.07423232
243	0xbb2a32bf	-0.0025970188
244	0xbdabf86a	-0.083969906
245	0x3dd437ed	0.103622295
246	0xbdead2c8	-0.114659846
247	0x3cdba8cb	0.026813885
248	0x3be13dc1	0.0068738167
249	0xbd3983f0	-0.04529184
250	0x3c098fa4	0.008396063
251	0xbd04d015	-0.032425005
252	0xbcacc363	-0.021089261
253	0xbd883077	-0.06649869
254	0xbdd6eb38	-0.10494083
255	0xbdb7bccc	-0.08971557

layer2.bias f4 [64]
0	0x3d82e70e	0.063917264
1	0x39a56478	0.00031546107
2	0x3cdaa0b5	0.02668796
3	0x3d253d54	0.04034169
4	0x3c7d6361	0.015465588
5	0xbae7112c	-0.0017629019
6	0x3c884e1a	0.016638804
7	0x3d635232	0.05549831
8	0xbdca9b2b	-0.09892877
9	0x3d976fd7	0.07394379
10	0xbd12a6f9	-0.03580377
11	0x3d881d0b	0.066461645
12	0x3ca4451e	0.020052489
13	0xbde24314	-0.110479504
14	0xbdb951ea	-0.09048827
15	0xbd4caeb1	-0.049971286
16	0xbddfe670	-0.10932624
17	0x3de40ccb	0.111352526
18	0xbdbc21a4	-0.09186104
19	0x3dd2daf2	0.10295667
20	0x3ca99025	0.020698616
21	0x3d9ee526	0.0775855
22	0x3d7e664e	0.062109284
23	0x3def69d1	0.11690105
24	0xbd2dabee	-0.042400293
25	0xbd7a4bf1	-0.06110758
26	0x3c70e3b8	0.01470273
27	0xbdb2f586	-0.08738236
28	0xbd087087	-0.03331044
29	0x3cd4d94e	0.025982525
30	0xbdcfdf0a	-0.10149963
31	0x3daf7973	0.085680865
32	0x3dd43f62	0.10363652
33	0x3d568fea	0.05238334
34	0x3dabf2e3	0.08395936
35	0xbd4c8173	-0.04992814
36	0x3cc8a7bd	0.024494046
37	0xbc677b93	-0.0141285835
38	0xbd8b79ed	-0.06810365
39	0xbcf69fb1	-0.030105444
40	0x3de0ff03	0.109861396
41	0x3c8ccab0	0.017186493
42	0x3ddd02b0	0.10791528
43	0xbda698da	-0.08134623
44	0x3d28d565	0.041219134
45	0xbde9502a	-0.11392243
46	0x3de7a017	0.113098316
47	0x3de6f28c	0.11276731
48	0x3d40d557	0.047078457
49	0x3dbb3ed3	0.09142842
50	0xbcc01716	-0.023448508
51	0xbdbc5f63	-0.09197881
52	0x3d8e39fa	0.06944652
53	0x3da5e746	0.081007525
54	0xbdd4d1d7	-0.10391586
55	0xbcdf8130	-0.027283281
56	0xbc4b912a	-0.0124247465
57	0xbd9596ce	-0.07304154
58	0x3d22f94a	0.03978852
59	0xbdb497cf	-0.08818018
60	0x3dbdeacc	0.092732996
61	0xbde0b784	-0.10972503
62	0x3df348b8	0.118791044
63	0x3cad254a	0.021135945

layer3.weight f4 [1, 64]
0	0xbd0c1ef0	-0.03420919
1	0x3d26c488	0.04071477
2	0x3bb60802	0.005555154
3	0x3d9b284e	0.07576047
4	0xbd2b729f	-0.041857358
5	0xbdc512bb	-0.09622713
6	0xbd9697dc	-0.073531836
7	0x3da929c7	0.082599215
8	0x3dfd3d02	0.12365152
9	0xbdd54800	-0.104141235
10	0xbd788cd3	-0.060681175
11	0xbcd96eda	-0.026542116
12	0x3b542591	0.0032371024
13	0xbd83bafc	-0.06432149
14	0xbaf0106a	-0.0018315439
15	0xbd2c7841	-0.04210687
16	0xbdc3ddb4	-0.09563771
17	0x3c0daf80	0.0086477995
18	0xbd872244	-0.065983325
19	0x3ddd9d14	0.10820976
20	0x3db1810a	0.086671904
21	0xbd78b72d	-0.060721565
22	0xbcdc3efe	-0.026885506
23	0x3b773ac5	0.0037724238
24	0xbdbbf73d	-0.09178016
25	0x3c1b46b8	0.00947731
26	0xbdcfe928	-0.10151893
27	0xbde8b41b	-0.113624774
28	0xbda2a8db	-0.07942363
29	0x3dc7fd7e	0.09765147
30	0x3d7645c0	0.060125113
31	0x3c9b8d82	0.018988375
32	0xbd6d2705	-0.05789854
33	0xbdfce167	-0.123476796
34	0xbc714049	-0.014724799
35	0x3de8de15	0.11370484
36	0x3d9f50fc	0.077791184
37	0x3d2be2a9	0.041964207
38	0x3d86bb1f	0.06578659
39	0x3de828eb	0.113359295
40	0x3dd70720	0.10499406
41	0xbd4be32c	-0.049777195
42	0xbdbbf6b9	-0.09177918
43	0xbc6cf370	-0.014462337
44	0x3d7e9911	0.062157694
45	0x3d081d3c	0.033231005
46	0x3d9c812b	0.07641824
47	0x3d7dfaf0	0.06200689
48	0xbded507a	-0.11587615
49	0x3dc50a70	0.096211314
50	0x3d5b4cfe	0.053540222
51	0xbdc8a02d	-0.09796176
52	0x3baaeeac	0.00521644
53	0xbdc7af87	-0.09750276
54	0xbc0a46b2	-0.008439707
55	0x3d0d809a	0.034546472
56	0xbd98b907	-0.07457166
57	0x3d14dcea	0.036343493
58	0x3dea965c	0.1145446
59	0x3d014184	0.03155662
60	0x3d4561ff	0.04818916
61	0x3da6bbef	0.08141314
62	0xbde7e6f3	-0.11323347
63	0x3dc81d23	0.097711824
