ppo_actor.pth (torch, 22695 bytes, 6 tensors)

layer1.weight f4 [64, 9]
0	0x3e30f1d7	0.17279755
1	0x3e9035e0	0.28166103
2	0x3da451ad	0.08023391
3	0x3e7bd7b3	0.24594001
4	0xbbd680ca	-0.0065461146
5	0x3e5590d8	0.20856035
6	0xbcedbc37	-0.029020412
7	0x3ca24716	0.019809287
8	0xbdf26024	-0.118347436
9	0x3dbebac0	0.093129635
10	0xbb91d30a	-0.0044502066
11	0x3e51c088	0.20483601
12	0xbe76db15	-0.2410701
13	0xbd76e107	-0.060273197
14	0xbc0fcc0a	-0.008776674
15	0x3d53a5c8	0.051671773
16	0x3e3b0592	0.18263844
17	0xbdcfccc0	-0.10146475
18	0xbdb88cd2	-0.09011234
19	0x3e87fd3a	0.26560384
20	0x3e28582a	0.16439882
21	0xbe16f3fc	-0.1474151
22	0xbdfc47d2	-0.12318386
23	0x3e7c46c6	0.24636373
24	0xbe32a575	-0.1744593
25	0xbdf6ef80	-0.120574
26	0x3de8ea6c	0.113728374
27	0xbe979dbc	-0.2961253
28	0xbd5aafa6	-0.053390168
29	0x3ea2aae3	0.31771
30	0x3e182aee	0.14860126
31	0x3b7c0d21	0.0038459974
32	0x3e50df02	0.2039757
33	0x3d1da15d	0.038483966
34	0x3dbf2a0f	0.09334194
35	0x3e3150bf	0.17315958
36	0xbc47891c	-0.0121786855
37	0xbe97ef9d	-0.29674998
38	0x3e833661	0.25627425
39	0x3d9d2ddb	0.07674762
40	0x3e0b4c0b	0.13603227
41	0xbd97d589	-0.074137755
42	0x3d9cbefe	0.07653616
43	0x3e6b48f0	0.22977042
44	0x3dab26b3	0.08356991
45	0xbdef87d8	-0.11695832
46	0x3e669408	0.22517407
47	0x3df7b88e	0.12095748
48	0xbc8b267a	-0.01698612
49	0x3e8b77ea	0.27239925
50	0xbd106edc	-0.035261974
51	0x3db56a1d	0.0885813
52	0xbe184a4d	-0.14872093
53	0xbd758d6e	-0.05994933
54	0xbea21827	-0.31659052
55	0xbd6c78c8	-0.057732373
56	0x3e2af0b6	0.16693386
57	0x3dd40aae	0.103535995
58	0x3e98533e	0.2975101
59	0x3d5d44af	0.05402058
60	0x3d788bc5	0.06068017
61	0x3e635dc1	0.22203733
62	0x3e9477e1	0.2899771
63	0xbd929cb4	-0.07158795
64	0x3bac0488	0.0052495636
65	0xbd72eb71	-0.059306566
66	0x3c8501cb	0.016236207
67	0x3e0217d8	0.12704408
68	0xbd499e4f	-0.04922324
69	0x3e03cd7d	0.12871356
70	0xbe110fc2	-0.14166167
71	0x3e0e421a	0.13892403
72	0x3e6a3003	0.22869878
73	0xbdac02b1	-0.08398951
74	0xbe8eea97	-0.27913353
75	0xbcec7f47	-0.028869284
76	0x3e83e848	0.25763154
77	0x3e396450	0.18104672
78	0x3e94863f	0.29008672
79	0x3d30ff17	0.043212023
80	0xbe90dc9e	-0.28293318
81	0x3e7dfb0c	0.24802798
82	0xbc432b74	-0.0119122155
83	0xbe2a8f70	-0.1665628
84	0xbe21dca8	-0.1580683
85	0xbd6d6c3a	-0.05796454
86	0xbe2bb181	-0.16766931
87	0xbe9e939a	-0.30971986
88	0x3e4153ad	0.18879576
89	0x3e628250	0.22120023
90	0x3d6bb2cf	0.057543572
91	0xbd49517e	-0.049149983
92	0x3e9c6ead	0.3055319
93	0x3e69aff4	0.22821027
94	0xbe22cb08	-0.15897763
95	0xbd03552c	-0.032063648
96	0x3e8868c2	0.26642424
97	0xbe26cf37	-0.16289984
98	0xbce34498	-0.027742669
99	0x3e188bf7	0.14897142
100	0xbea50610	-0.32231188
101	0xbea0bac9	-0.31392506
102	0xbdb163ae	-0.086615905
103	0xbe96483d	-0.29351988
104	0x3de622cc	0.11237106
105	0xbe01cb7c	-0.1267528
106	0xbea57a4d	-0.3231987
107	0xbe4037bc	-0.18771261
108	0xbe48018d	-0.19531842
109	0xbdec402e	-0.11535679
110	0xbd38d2c6	-0.045122884
111	0xbe8cdd51	-0.275126
112	0xbce558b5	-0.0279964
113	0xbd3e65f2	-0.04648394
114	0x3da2d95f	0.079516165
115	0x3da99530	0.082804084
116	0x3c9ea775	0.01936696
117	0xbd509368	-0.050921828
118	0xbe9cfbea	-0.30660945
119	0x3d921dc4	0.071345836
120	0xbea7ce63	-0.32774648
121	0xbe54fd1f	-0.20799683
122	0xbdcbc642	-0.09949924
123	0x3e6ec51b	0.23317377
124	0x3e59baa8	0.2126261
125	0x3d429925	0.04750933
126	0x3e0707e7	0.13186608
127	0xbea1d881	-0.31610492
128	0x3e5f5219	0.21808662
129	0xbd8229e1	-0.06355644
130	0x3e94e046	0.29077357
131	0x3e197afc	0.14988321
132	0xbe92753b	-0.28605065
133	0x3e835420	0.2565012
134	0xbda51349	-0.08060319
135	0x3d6fed44	0.058575884
136	0x3ea195c5	0.31559578
137	0xba3fbce6	-0.000731422
138	0x3e79ff45	0.24413784
139	0x3bef05ed	0.0072944076
140	0x3e1342da	0.1438097
141	0x3e966f91	0.29381993
142	0xbe92b8b2	-0.28656536
143	0xbea8616a	-0.3288682
144	0x3c61999b	0.013769533
145	0x3d27340e	0.040821128
146	0xbdfca73a	-0.123365834
147	0xbd5621a2	-0.05227817
148	0x3eacae09	0.33726528
149	0xbdc2bdb6	-0.09508841
150	0x3e513910	0.20431924
151	0x3e53f83b	0.20700161
152	0x3e77f4d7	0.24214493
153	0xbddbeeb0	-0.107388854
154	0xbe339136	-0.17535862
155	0x3ea717f9	0.32635477
156	0x3e0a19fa	0.13486472
157	0x3ea2967a	0.3175543
158	0x3d9e3461	0.07724834
159	0xbe9b34c2	-0.3031369
160	0x3bef4cf9	0.007302877
161	0x3dbe04e7	0.09278279
162	0xbe857b5e	-0.26070684
163	0x3e359c1c	0.17735332
164	0xbe427637	-0.18990408
165	0xbe1904b1	-0.14943196
166	0xbd8232e1	-0.06357361
167	0xbe25b838	-0.16183555
168	0x3cc586ec	0.024112187
169	0x3e87f6cd	0.26555482
170	0xbe9c4200	-0.30519104
171	0xbd69b55b	-0.05705772
172	0x3cc759e5	0.024334857
173	0x3e7dab8f	0.24772476
174	0x3e971985	0.29511657
175	0x3e55996f	0.20859312
176	0x3c0cbb09	0.0085895145
177	0x3d0c65f2	0.03427691
178	0x3e9668f5	0.2937695
179	0x3e921b12	0.28536278
180	0x3e36e102	0.17859271
181	0xbd43831e	-0.047732465
182	0xbe6c852e	-0.23097679
183	0xbe963d4f	-0.2934365
184	0xbe90981e	-0.28241056
185	0x3e05c6be	0.13064095
186	0xbe418bfc	-0.18901056
187	0x3d1e6998	0.03867492
188	0x3d3d8499	0.046269033
189	0x3cdb1a28	0.02674587
190	0xbe841a57	-0.25801346
191	0xbd25b50c	-0.040455863
192	0x3e3aca9e	0.18241355
193	0xbc036136	-0.008018782
194	0xbe9062ec	-0.2820047
195	0x3dba037b	0.09082695
196	0xbe469d01	-0.1939583
197	0x3e93db60	0.28878307
198	0x3db25de0	0.087093115
199	0xbdf706e1	-0.12061859
200	0x3eb0dc78	0.34543204
201	0xbd32183a	-0.043480136
202	0xbe12a04d	-0.14318962
203	0x3e894df9	0.268173
204	0x3e589631	0.21151043
205	0xbdbe8e2b	-0.0930446
206	0x3e9f8d4c	0.31162488
207	0x3dd11574	0.1020917
208	0x3eac8928	0.33698392
209	0xbe9163ce	-0.28396457
210	0xbe96a15e	-0.29419988
211	0xbe1204b0	-0.142596
212	0x3e0b9529	0.13631119
213	0xbe925374	-0.28579295
214	0xbe36ee5f	-0.17864369
215	0xbe0e66d9	-0.13906421
216	0x3e3e998d	0.18613262
217	0x3e0c83b7	0.1372212
218	0x3e844767	0.25835726
219	0x3d910522	0.07081057
220	0x3e9d2787	0.3069422
221	0x3e899b85	0.26876464
222	0x3ea990f7	0.33118412
223	0x3e4d059a	0.20021668
224	0xbe009e1e	-0.12560317
225	0x3e939d63	0.28831014
226	0x3dcb4bfe	0.09926604
227	0x3e150665	0.1455322
228	0xbe8f30d4	-0.2796694
229	0x3e92a417	0.28640816
230	0xbb46e2a1	-0.0030347484
231	0xbe483d74	-0.19554693
232	0x3e7c9d3c	0.24669355
233	0x3c06f4b4	0.008237053
234	0xbdeb7c7f	-0.11498355
235	0x3e93fa5f	0.28901955
236	0xbdb7f18e	-0.0898162
237	0x3e049958	0.12949121
238	0xbe8b9805	-0.2726442
239	0x3e20e065	0.157106
240	0x3e15d3ac	0.14631528
241	0x3dd9a6d2	0.106275216
242	0xbe952843	-0.2913228
243	0xbe29b4aa	-0.16572824
244	0x3e62d7c2	0.22152618
245	0x3b06609c	0.002050436
246	0x3e21ea0c	0.15811938
247	0x3d24a7d3	0.040199112
248	0x3ddf6c62	0.10909344
249	0xbe4285a2	-0.1899629
250	0x3e976b03	0.2957383
251	0x3e9b288c	0.30304372
252	0xbeb04692	-0.3442884
253	0x3e246038	0.1605233
254	0x3e432000	0.19055176
255	0x3d25e85f	0.04050481

layer1.bias f4 [64]
0	0x3e1686f6	0.14699921
1	0x3e35cf69	0.17754902
2	0xbe517e13	-0.2045825
3	0x3dff5f9f	0.1246941
4	0x3e8e9bb5	0.2785317
5	0x3e979349	0.29604557
6	0xbe3312a2	-0.17487577
7	0x3deabbc3	0.11461594
8	0x3d856206	0.06512837
9	0x3e5b9f13	0.21447401
10	0x3cd015be	0.025400992
11	0xbd5f322a	-0.0544912
12	0x3d45abe4	0.04825963
13	0x3e330278	0.1748141
14	0x3e3ab535	0.18233187
15	0x3cfae166	0.030625056
16	0xbdd00b58	-0.10158414
17	0x3d807115	0.06271569
18	0xbe41c926	-0.18924388
19	0x3eb0be86	0.34520358
20	0xbde32aa9	-0.11092121
21	0xbdb59728	-0.088667214
22	0xbe8d52ab	-0.27602133
23	0x3d1c0e42	0.038099535
24	0xbd07e715	-0.03317936
25	0x3c87b22e	0.016564455
26	0xbe25abff	-0.16178893
27	0xbe88e507	-0.26737234
28	0xbe1d7a4c	-0.15378684
29	0x3e901400	0.2814026
30	0x3e7f8bf5	0.24955733
31	0x3e0caef6	0.13738617
32	0x3dc87088	0.09787089
33	0xbd711224	-0.05885519
34	0xbe662bd8	-0.22477663
35	0xbd2252f4	-0.03962989
36	0x3e69f092	0.22845677
37	0x3e87c431	0.2651687
38	0x3eb26fa3	0.34850797
39	0x3db3e7bf	0.087844364
40	0xbe0ec2e0	-0.13941526
41	0xbe7d90fe	-0.24762341
42	0x3e835e17	0.25657722
43	0x3e8047e6	0.25054854
44	0xbe8669c7	-0.26252577
45	0x3db78abc	0.08962008
46	0xbd814319	-0.06311626
47	0x3e6272c1	0.22114088
48	0xbea04af0	-0.31307173
49	0x3dfbf899	0.123032756
50	0xbe7579c4	-0.23972231
51	0xbbeb0fcd	-0.0071735145
52	0xbdc57343	-0.09641125
53	0x3d7aa2f0	0.061190546
54	0xbe1767d9	-0.14785708
55	0xbd4cb2a7	-0.049975064
56	0x3e9d079b	0.30669865
57	0x3cab23ad	0.020891035
58	0x3ea6f452	0.32608277
59	0xbd961790	-0.07328713
60	0xbdd11506	-0.10209088
61	0x3e8168e6	0.25275344
62	0x3eb0f80e	0.3456425
63	0x3d036d43	0.032086622

layer2.weight f4 [64, 64]
0	0x3d8c5742	0.068525806
1	0x3d4c3deb	0.049863737
2	0xbc84d7cf	-0.016216187
3	0xbd794643	-0.060858022
4	0xbd0238eb	-0.031792562
5	0xbdc62c1c	-0.09676382
6	0xbdd347c2	-0.10316421
7	0xbd095f0c	-0.03353791
8	0x3decafa5	0.11556939
9	0xbc30ac20	-0.010783225
10	0x3cb9a86e	0.022663321
11	0x3ccdcf8a	0.025123376
12	0x3de80329	0.11328728
13	0xbd64a782	-0.05582381
14	0x3d1bb358	0.038012832
15	0x3dba6036	0.09100382
16	0xbda5facd	-0.08104477
17	0xbc9807e4	-0.01855845
18	0xbd6df260	-0.058092475
19	0xbc2f13a5	-0.010685836
20	0x3dc9cc20	0.09853387
21	0xbd9623b9	-0.07331032
22	0x3dd4b7fa	0.10386653
23	0x3bf841c5	0.0075761997
24	0x3a87f6db	0.0010373251
25	0x3dc3f9b8	0.095691144
26	0x3d8c6c8f	0.068566434
27	0xbdd5263d	-0.10407684
28	0x3dc7c8d8	0.09755105
29	0x3deded74	0.11617556
30	0x3e017c87	0.1264516
31	0x3dc9d4a0	0.09855008
32	0x3dbb15fc	0.091350526
33	0x3e08ad38	0.13347328
34	0xbc8bf6db	-0.017085483
35	0x3d62ab53	0.05533917
36	0x3c192679	0.0093475515
37	0xbd0e70c9	-0.03477553
38	0x3dcdfdb4	0.10058156
39	0x3dfecfe4	0.12441996
40	0x3dcffbaa	0.10155423
41	0x3d2a72ad	0.04161327
42	0xbdce0d71	-0.100611575
43	0x3dae8033	0.08520546
44	0xbdad2945	-0.08455137
45	0xbded5acd	-0.115895845
46	0xbd5f6024	-0.054535046
47	0x3dd6eeb4	0.10494748
48	0xbd57ed9c	-0.052716836
49	0x3c4cc795	0.012498756
50	0xbd1c0e25	-0.038099427
51	0x3d10a06e	0.035309248
52	0xbe012826	-0.12612972
53	0x3d825a52	0.063648835
54	0x3d0b8ae4	0.034068003
55	0x3d1338a4	0.03594269
56	0xbddeec24	-0.10884884
57	0x3b9fac1b	0.0048728115
58	0xbcd9ef94	-0.026603498
59	0xbdd1721b	-0.10226842
60	0xbde62397	-0.11237257
61	0x3e0724d8	0.13197649
62	0x3d89eaf8	0.0673427
63	0xbb8414d0	-0.0040308014
64	0x3c72adae	0.014811916
65	0x3d982eb1	0.07430781
66	0x3d0a0bbf	0.03370261
67	0xbdf090e3	-0.11746385
68	0x3c833d66	0.016020488
69	0x3cee786a	0.029110152
70	0xbd75bccd	-0.059994508
71	0x3ddca1c7	0.10773044
72	0x3de9e5df	0.114207976
73	0xbdfee6bf	-0.12446355
74	0x3dce5bae	0.1007608
75	0xbd41428f	-0.047182616
76	0xbda7ba99	-0.081898876
77	0xbdf0d706	-0.117597625
78	0x3dc66643	0.096874736
79	0xbdfe9fcb	-0.12432822
80	0xbca387e8	-0.019962266
81	0xbd0789a0	-0.033090234
82	0xbdaffa86	-0.085927054
83	0xbdc8f7a2	-0.09812857
84	0x3cc8e5dd	0.02452367
85	0x3df59ce6	0.119928166
86	0x3de64b9f	0.11244892
87	0x3b68de67	0.0035532953
88	0x3d65f1fa	0.05613897
89	0x3c53cbfc	0.012927052
90	0x3bc4bdf7	0.006004091
91	0xbd0cc3df	-0.034366485
92	0xbdabe954	-0.08394113
93	0x3dbfafef	0.093597285
94	0xbd751346	-0.059832834
95	0x3de00ab0	0.109395385
96	0xbd116bfd	-0.035503376
97	0xbd3d48ce	-0.04621201
98	0xbd4b8512	-0.049687453
99	0x3dbcf0c4	0.0922561
100	0xbdd97fca	-0.10620077
101	0xbdec5b27	-0.115408234
102	0xbd8ef3bd	-0.06980083
103	0xbcb00cf3	-0.02149055
104	0xbde48ee2	-0.11160065
105	0x3bcdbdf4	0.0062787477
106	0x3c9d03cb	0.019166848
107	0xbdef9f2c	-0.117002815
108	0x3da646e6	0.081189916
109	0xbd331498	-0.04372081
110	0x3dca8d18	0.09890193
111	0x3c80bf49	0.015716212
112	0x3d8eb1d2	0.0696751
113	0x3d826b25	0.063680924
114	0xbddcdd6a	-0.10784419
115	0xbd086ea9	-0.03330866
116	0xbb991cf8	-0.004672643
117	0xbdef8b0a	-0.116964415
118	0xbc9f7748	-0.019466057
119	0xbda80805	-0.082046546
120	0x3d930c48	0.07180077
121	0xbd87a1bd	-0.06622646
122	0x3db2de9e	0.08733867
123	0xbd7604df	-0.06006324
124	0x3e0eced2	0.13946083
125	0xbdcd6241	-0.10028506
126	0x3b88048e	0.0041509336
127	0xbd22db74	-0.039760068
128	0x3b02b30a	0.0019943141
129	0xbd4e4a2e	-0.050363712
130	0x3a76b23e	0.00094107154
131	0xbe01b667	-0.12667237
132	0xbda2d420	-0.07950616
133	0xbe052cbd	-0.13005348
134	0xbd009244	-0.03138949
135	0xbc9e9272	-0.01935694
136	0x3d8ae1a8	0.06781322
137	0xbdd6697d	-0.10469339
138	0xbce3c4e2	-0.027803842
139	0x3d1e3720	0.03862679
140	0x3d60c80e	0.054878287
141	0x3c99fa41	0.018796088
142	0xbd8196aa	-0.06327565
143	0xbd3583b6	-0.044315062
144	0x3dd8e058	0.10589665
145	0x3c6edf95	0.014579673
146	0xbc8cb724	-0.017177172
147	0x3d9fa645	0.07795385
148	0x3d1e5228	0.03865257
149	0x3d06e20a	0.03293041
150	0xbe073e24	-0.13207299
151	0xbc66f717	-0.014096997
152	0xbd2e7841	-0.04259515
153	0xbc2a6c0b	-0.010401736
154	0xbd94dfc7	-0.07269245
155	0xbd5bbb08	-0.053645164
156	0xbdcc8bea	-0.09987624
157	0x3dadfd3a	0.08495565
158	0xbdbf1866	-0.093308255
159	0x3d73d79c	0.059531793
160	0x3d9c7005	0.076385535
161	0x3cc1afce	0.0236434
162	0x3d881e4a	0.06646402
163	0xbd762617	-0.06009492
164	0x3d91d18a	0.071200445
165	0x3de6b114	0.11264244
166	0xbd83f3a5	-0.06442956
167	0x3db0a5d8	0.08625382
168	0x3ba2c6dc	0.0049675535
169	0x3cb7a8a9	0.02241929
170	0x3defd1ca	0.11709936
171	0xbd20ce8e	-0.039259486
172	0x3dce7cbf	0.10082387
173	0x3d155939	0.036462042
174	0xbbfb692b	-0.007672449
175	0xbdbb080e	-0.09132396
176	0x3d79f056	0.061020218
177	0xbd336625	-0.043798584
178	0x3d2f7d3e	0.04284405
179	0x3de37961	0.111071356
180	0x3d2dc6fb	0.04242609
181	0x3d822d10	0.06356251
182	0xbc00053b	-0.007813747
183	0x3d1161b6	0.035493575
184	0xbcba398f	-0.022732524
185	0xbda4fbec	-0.08055863
186	0xbdb552d4	-0.08853689
187	0xbcdb6489	-0.026781337
188	0xbd9f6d9b	-0.077845775
189	0x3c9e64c4	0.019335158
190	0x3d31f362	0.043445
191	0xbd9a2e6f	-0.07528388
192	0x3d1d613e	0.038422816
193	0x3da76683	0.081738494
194	0x3d3a3de0	0.045469165
195	0x3cf83b25	0.03030164
196	0x3ae8e6c7	0.0017768972
197	0x3d91f28b	0.071263395
198	0xbcad75b1	-0.021174284
199	0x3de36653	0.11103501
200	0xbd81401b	-0.06311055
201	0x3bc4e6f6	0.006008978
202	0xbd4cbe65	-0.049986262
203	0xbdd0fe00	-0.10204697
204	0xbd0b4a81	-0.0340066
205	0xbd185095	-0.037186224
206	0x3d1cd9a0	0.03829348
207	0xbb565f2b	-0.0032710533
208	0x3b8c90a4	0.0042897034
209	0xbc8e2c85	-0.017355213
210	0x3dfafebf	0.1225562
211	0x3e0844dd	0.1330752
212	0xbd168974	-0.03675218
213	0xbdeb4b7a	-0.114890054
214	0x3de2acfa	0.11068149
215	0x3e052a1c	0.13004345
216	0x3cd37e89	0.025817173
217	0xbda6ff0a	-0.081541136
218	0xbc94fcbb	-0.018186918
219	0xbde51727	-0.111860566
220	0xbd28aed3	-0.04118235
221	0xbdbf12f8	-0.0932979
222	0xbd432203	-0.047639858
223	0x3d96e21f	0.07367348
224	0x3deaf503	0.114725135
225	0x3d1d5666	0.038412474
226	0x3d3b7cb1	0.045773212
227	0x3d88b997	0.066760235
228	0x3dc876f5	0.09788314
229	0xbda554e1	-0.0807283
230	0x3d9f63df	0.07782721
231	0xbdc13175	-0.09433261
232	0x3dc13adb	0.09435054
233	0x3ddef7ca	0.10887106
234	0x3de418ea	0.111375645
235	0xbc81f248	-0.015862599
236	0x3d14dfeb	0.036346357
237	0xbdc612d3	-0.09671559
238	0xbbb1b166	-0.005422759
239	0x3b18afa0	0.002329804
240	0x3d77a5c4	0.06046082
241	0xbbf17ae4	-0.007369386
242	0xbddcf767	-0.10789376
243	0x3d660aa1	0.05616248
244	0x3db6b6e1	0.089216
245	0x3d248e05	0.040174503
246	0x3dcf4539	0.10120625
247	0x3d96b8c8	0.07359463
248	0xbd84f247	-0.06491523
249	0xbd86fe42	-0.065914646
250	0x3e05fe41	0.13085271
251	0xbc22d5a3	-0.00993863
252	0xbdf7bab8	-0.12096161
253	0xbd907e0f	-0.07055294
254	0x3e03f956	0.12888083
255	0xbddb0283	-0.106938384

layer2.bias f4 [64]
0	0x3da0daf7	0.07854264
1	0xbe02f34e	-0.12788126
2	0x3c901b46	0.01759113
3	0x3d9f7aac	0.0778707
4	0xbc295fa3	-0.010337743
5	0xbd162164	-0.036652938
6	0xbce013c6	-0.027353179
7	0x3dbd4d75	0.092432894
8	0x3c35b00d	0.011089337
9	0xbc340f0e	-0.010989917
10	0xbdc3fbe2	-0.09569527
11	0x3c87ef08	0.016593471
12	0xbca41180	-0.020027876
13	0x3d55ab40	0.05216527
14	0x3dff8116	0.12475793
15	0xbca57ee2	-0.020202104
16	0x3dd39183	0.103304885
17	0xbd803cbb	-0.062615834
18	0xbceab06e	-0.028648581
19	0xbce6cce9	-0.02817388
20	0x3d5bd20c	0.053667113
21	0xbc047bab	-0.008086125
22	0xbb2a714c	-0.0026007472
23	0x3da14087	0.07873636
24	0x3dac22e8	0.08405095
25	0x3e09eda1	0.13469554
26	0x3d9e84ee	0.07740198
27	0xbdb1d154	-0.08682504
28	0x3c4494e6	0.011998391
29	0x3d3a0b09	0.04542068
30	0xbd89f079	-0.0673532
31	0x3d89904c	0.067169756
32	0xbda435e9	-0.08018095
33	0x3baaee3b	0.0052163876
34	0x3d3f440e	0.04669576
35	0xbccf2816	-0.02528767
36	0xbd0284cb	-0.031864922
37	0x3d920566	0.07129936
38	0xbd968238	-0.07349056
39	0x3c87e952	0.016590748
40	0x3d00357b	0.031301003
41	0xba4c3582	-0.00077899557
42	0xbdb7e6e6	-0.08979587
43	0x3ceaf740	0.028682351
44	0x3d838ee6	0.0642374
45	0x3dae5091	0.085114606
46	0xbde26814	-0.110550076
47	0x3d3b92da	0.045794345
48	0x3dde4c59	0.10854406
49	0xbd4018b2	-0.04689855
50	0xbd224f1e	-0.039626233
51	0xbd9d6cb9	-0.07686753
52	0xbce78283	-0.028260475
53	0x3e03c659	0.12868632
54	0xbd8b94ee	-0.068155155
55	0x3e059070	0.1304338
56	0x3cb364d6	0.021898668
57	0x3bdbdfc2	0.0067100236
58	0xbd1ec64a	-0.038763322
59	0x3d3f97c9	0.046775613
60	0xbd676edf	-0.05650222
61	0x3d6cd408	0.057819396
62	0x3dc52a4c	0.09627208
63	0xbd899840	-0.067184925

layer3.weight f4 [5, 64]
0	0xbd90ecd9	-0.07076425
1	0x3db588bb	0.0886397
2	0xbda87f84	-0.08227447
3	0x3d2d9d0d	0.042386103
4	0x3dafaa92	0.085774556
5	0xbdaaa3d6	-0.083320305
6	0xbdd86943	-0.10566952
7	0x3cb5b998	0.022183225
8	0xbc7d5d37	-0.015464119
9	0xbda44a42	-0.08021976
10	0xbd52bd04	-0.05144979
11	0xbd95ea90	-0.0732013
12	0x3d16da7e	0.036829464
13	0xbdf6203e	-0.120178685
14	0x3c94fac5	0.018185982
15	0xbcc78afe	-0.024358269
16	0x3b1e9282	0.0024196212
17	0xbd8501f2	-0.06494512
18	0x3d8357c1	0.06413222
19	0xbda01852	-0.07817139
20	0x3c820248	0.015870228
21	0xbd239b26	-0.039942883
22	0xbcb75e9c	-0.02238398
23	0x3ca7acd9	0.020468162
24	0xbdc775df	-0.09739279
25	0xbbfdcddd	-0.007745488
26	0x3cebb9ea	0.028775174
27	0x3dbc2a07	0.091877036
28	0xbb98d54d	-0.0046640993
29	0x3a73bb6c	0.00092976424
30	0xbdcf4cbb	-0.10122057
31	0xbdae502b	-0.085113846
32	0x3d52ffbb	0.051513415
33	0xbdd824ca	-0.10553892
34	0x3cf11c2f	0.029432384
35	0x3c980430	0.018556684
36	0xbd9a9651	-0.07548202
37	0x3d845571	0.06461609
38	0x3dc52501	0.096261986
39	0x3dfa5cd1	0.122247346
40	0xbdf2f5dc	-0.118633
41	0xbdee2554	-0.116282135
42	0x3c9a4157	0.018829985
43	0x3d86e2d2	0.06586231
44	0x3dc15ccc	0.09441528
45	0xbdb42930	-0.087969184
46	0x3cd9e2f0	0.02659747
47	0x3de44d5e	0.11147569
48	0xbd07bcbf	-0.033138987
49	0x3d516eab	0.05113093
50	0xbde873cf	-0.11350214
51	0x3d8e27a7	0.06941157
52	0x3cc858f1	0.024456473
53	0xbc7ac66c	-0.0153060965
54	0xba844510	-0.0010091383
55	0xbd6927f0	-0.056922853
56	0x3db66df9	0.08907694
57	0xbdd097aa	-0.101851776
58	0xbd9cdb9b	-0.07659074
59	0x3d9f063b	0.0776486
60	0xbd9fe115	-0.07806603
61	0x3dcba718	0.0994398
62	0x3d1b4486	0.037907146
63	0x3d779530	0.06044501
64	0xbc20807f	-0.009796261
65	0x3d499f19	0.049223993
66	0x3d068dfe	0.032850258
67	0x3dd99b1f	0.1062529
68	0xbc89ab7a	-0.0168054
69	0x3dbeb951	0.0931269
70	0xbcef2b5e	-0.029195484
71	0x3d964b72	0.07338609
72	0xbdc9547c	-0.09830567
73	0xbdbadc01	-0.09123994
74	0x3cde4818	0.027133986
75	0x3c3fc340	0.011704266
76	0xbdd23ac6	-0.102651164
77	0x3da78608	0.08179861
78	0x3dd00966	0.101580426
79	0xbdd1c414	-0.10242477
80	0xbd08efdf	-0.033431884
81	0xba8b6ce3	-0.0010637309
82	0x3cfb279b	0.030658534
83	0xbd057208	-0.03257945
84	0x3dbc7e4c	0.09203777
85	0x3d2f891f	0.04285538
86	0x3d827a92	0.06371035
87	0xbd9b0ef9	-0.07571215
88	0xbdaf8c68	-0.08571702
89	0x3e0a3dfe	0.1350021
90	0x3d11ccd5	0.035595734
91	0xbd6a9835	-0.057274062
92	0x3e058a10	0.13040948
93	0x3db20534	0.08692399
94	0x3deb5868	0.114914715
95	0xbd1659b3	-0.036706638
96	0xbd9e5e59	-0.07732839
97	0xbdc2857a	-0.09498115
98	0xbdac084f	-0.08400022
99	0x3de918cc	0.11381683
100	0x3c86feb5	0.016478876
101	0x3b9d3810	0.004797943
102	0x3dd5c5b3	0.10438099
103	0xbdcbb95a	-0.099474624
104	0xbc9dde3c	-0.019271009
105	0xbde23946	-0.1104608
106	0xbdb1a74c	-0.086744875
107	0x3c93e9be	0.018055793
108	0xbdadf878	-0.08494657
109	0xbc820ff3	-0.015876746
110	0xba3a4900	-0.0007106215
111	0xbda89623	-0.08231761
112	0x3c9117fb	0.01771163
113	0x3defd989	0.117114134
114	0x3db14e05	0.08657459
115	0xbbc33f12	-0.0059584463
116	0xbdba011a	-0.09082241
117	0x3d548dd2	0.051893063
118	0x3df8e135	0.1215233
119	0x3d256939	0.04038355
120	0x3cd9e4f6	0.026598435
121	0xbdb30c0d	-0.08742533
122	0xbe0d3feb	-0.13793914
123	0xbb563787	-0.0032686905
124	0x3bc11c4e	0.0058932668
125	0xbd8ac4ff	-0.06775855
126	0xbd2afd47	-0.04174545
127	0x3d129d52	0.035794564
128	0x3dba8093	0.09106555
129	0xbd952388	-0.07282168
130	0x3c4c78d8	0.012479983
131	0xbccf8073	-0.025329804
132	0x3dc024a1	0.093819864
133	0x3d3f78eb	0.046746176
134	0x3db05305	0.08609585
135	0xbd23d4b8	-0.039997786
136	0xbd71aead	-0.059004474
137	0x3d34bb1a	0.044123746
138	0x3ba442a0	0.005012825
139	0xbd977038	-0.07394451
140	0xbdd47310	-0.10373509
141	0x3e029edc	0.12755913
142	0x3da34e6f	0.079739444
143	0xbdd2c9d9	-0.10292406
144	0x3de036ea	0.10947974
145	0xbde7584f	-0.112961404
146	0x3dce7f5a	0.10082884
147	0x3de21eb2	0.11041011
148	0x3d8b5540	0.068033695
149	0xbd7b2666	-0.061315916
150	0xbcc4699d	-0.023976142
151	0x3e0b2250	0.13587308
152	0x3d30dfc5	0.043182153
153	0xbc9aefb6	-0.018913131
154	0x3dc67f39	0.096922345
155	0xbd957965	-0.07298545
156	0xbdcde80e	-0.100540265
157	0x3de51b3f	0.111868374
158	0xbdcde629	-0.10053665
159	0x3d405466	0.04695549
160	0xbd360f44	-0.044448152
161	0xbdf88d10	-0.121362805
162	0xbda88e44	-0.0823026
163	0x3d1b28ee	0.03788083
164	0xbd76ca3a	-0.060251452
165	0x3c21f8e0	0.009885997
166	0x3e039ac6	0.1285201
167	0xbd9dccd2	-0.07705082
168	0x3d6b229c	0.057406053
169	0x3c87e41a	0.01658826
170	0x3dd23753	0.102644585
171	0x3d9358aa	0.07194646
172	0x3ddeb90c	0.10875139
173	0x3dda8489	0.1066981
174	0xbdc883e4	-0.09790781
175	0x3c99a859	0.018757032
176	0xbd01ac10	-0.031658232
177	0x3cb83bd8	0.022489473
178	0x39362b5e	0.00017373028
179	0xbce9bf7c	-0.02853369
180	0xbd9d0417	-0.07666796
181	0xbc604e62	-0.013690563
182	0x3dd8d0b6	0.105866835
183	0x3ceea29a	0.029130269
184	0xbd47b57c	-0.04875706
185	0xbe06b23e	-0.13153931
186	0x3da7ad83	0.081873916
187	0x3dbcb253	0.092137
188	0xbdcbae4c	-0.09945354
189	0xbde2eb5f	-0.1108005
190	0xbd9e4982	-0.07728864
191	0x3dc776d1	0.09739459
192	0x3d19b124	0.03752245
193	0xbd9846d1	-0.07435382
194	0xbda1165a	-0.07865591
195	0x3e0728a3	0.13199095
196	0x3d446413	0.047947
197	0xbd8508a9	-0.064957924
198	0xbdc23939	-0.094835706
199	0x3d9ee93b	0.07759329
200	0x3db1b93a	0.08677907
201	0x3def1ee7	0.11675816
202	0x3d3f1280	0.046648502
203	0x3cc328b8	0.023823127
204	0x3df878b7	0.121323995
205	0xbdd383b2	-0.10327853
206	0x3d051ad0	0.032496274
207	0x3c40f83d	0.011777935
208	0xbd8309d1	-0.06398357
209	0x3ca2f9bd	0.019894475
210	0xbd99c04f	-0.07507383
211	0x3dd458e1	0.10368515
212	0x3d675e14	0.056486204
213	0x3d4ead5e	0.050458305
214	0xbdc57133	-0.09640732
215	0x3dd062b1	0.10175074
216	0x3dbd5fc6	0.09246783
217	0x3cfda243	0.030961161
218	0x3dec98d2	0.11552586
219	0x3cb4f22e	0.022088137
220	0x3d36344a	0.04448346
221	0xbdbe567b	-0.092938386
222	0xbd986f2e	-0.07443081
223	0x3d78eb37	0.060771193
224	0xbdd5f809	-0.104476996
225	0x3df649c4	0.120257884
226	0x3dd507ca	0.10401876
227	0xbda2952c	-0.079386085
228	0x3d9b2bbf	0.07576703
229	0x3dcf6feb	0.101287685
230	0xbd153aff	-0.036433216
231	0xbdd9ccc2	-0.106347576
232	0xbd983b16	-0.07433145
233	0x3d27fcc5	0.041012544
234	0x3d3fec2e	0.046856098
235	0xbdb92088	-0.09039408
236	0xbbac7b25	-0.0052637034
237	0x3d4560ef	0.048188146
238	0x3d1d0f30	0.038344562
239	0xbcf69ad0	-0.030103117
240	0xbdf1140d	-0.117714025
241	0x3d7ef037	0.062240805
242	0x3de3d4a7	0.111245446
243	0xbd9dfcdc	-0.07714245
244	0x3c67b6da	0.014142716
245	0xbcbc73df	-0.02300447
246	0xbdd29b58	-0.10283536
247	0xbd418e67	-0.047254946
248	0x3d5fba7c	0.054621205
249	0x3dc95c81	0.09832097
250	0x3dc968a3	0.09834411
251	0xbceb78b5	-0.028744081
252	0xbca5c0dc	-0.020233564
253	0xbd95b212	-0.07309355
254	0xbd8e090d	-0.0693532
255	0xbdd2808c	-0.102784246

layer3.bias f4 [5]
0	0x3dbb7295	0.09152714
1	0x3cbd4ca2	0.02310783
2	0x3dddacdb	0.10823985
3	0xbd03a4a5	-0.03213944
4	0x3dcd5ea9	0.100278206
