ppo_critic.pth (torch, 21679 bytes, 5 tensors)

layer1.weight f4 [64, 9]
0	0xbe4137bb	-0.18868916
1	0x3eb3ff45	0.35155693
2	0x3b8bb7f4	0.0042638723
3	0x3b176542	0.0023101126
4	0x3d857ff2	0.06518544
5	0x3cd09db8	0.025465831
6	0x3ea851d4	0.3287493
7	0xbe033c32	-0.12815931
8	0x3e0716c3	0.13192277
9	0x3d94629f	0.07245373
10	0xbe501b2a	-0.20322862
11	0x3bae42b0	0.0053180084
12	0xbd8d5abe	-0.06902073
13	0x3d9ba342	0.07599498
14	0xbe96e318	-0.29470134
15	0x3d6b3c41	0.05743051
16	0x3e2f8ed3	0.17144327
17	0xbe92f01b	-0.2869881
18	0x3e38ec09	0.1805879
19	0x3da683c7	0.08130603
20	0x3eaa6cd5	0.33286157
21	0x3e66a554	0.22524005
22	0x3e5bd594	0.21468192
23	0xbd896c7d	-0.067101456
24	0xbe27bcd8	-0.16380632
25	0x3e016120	0.12634706
26	0xbe0094ba	-0.12556735
27	0x3e9124de	0.2834844
28	0x3e1f60cc	0.15564269
29	0x3e11c842	0.14236549
30	0x3e5c0153	0.2148488
31	0xbdc067cc	-0.09394798
32	0xbe1ee8e4	-0.15518528
33	0x3e29e530	0.16591334
34	0x3eb9cc2d	0.36288586
35	0xbe2222c1	-0.1583357
36	0xbe26cb31	-0.16288449
37	0x3de82868	0.11335832
38	0xbe8ef45d	-0.2792081
39	0x3e976991	0.29572728
40	0xbdaad5c7	-0.08341556
41	0xbe4edd31	-0.20201565
42	0xbd96abb6	-0.0735697
43	0x3e8b3698	0.2719009
44	0x3e432b27	0.1905943
45	0x3e13cb98	0.14433134
46	0xbe8db24e	-0.27675098
47	0x3e02ae07	0.12761699
48	0x3dd212b5	0.10257474
49	0x3e9c11aa	0.30482227
50	0x3ce6de22	0.028182093
51	0x3e2b979b	0.16757052
52	0xbddd1182	-0.10794355
53	0x3ea4f243	0.3221608
54	0x3d890d2a	0.06691964
55	0xbd6152b2	-0.055010505
56	0xbe31b9ce	-0.17356035
57	0x3e96d772	0.29461247
58	0xbd5ba0ff	-0.053620335
59	0xbd3ec041	-0.046570066
60	0xbdac82b8	-0.0842337
61	0xbea61bb9	-0.32443026
62	0x3eac84d9	0.33695105
63	0x3e5f2920	0.21793032
64	0x3e233b24	0.15940529
65	0x3e06b112	0.13153484
66	0x3bf02952	0.0073291445
67	0xbe4f4882	-0.20242503
68	0x3e811e6e	0.25218529
69	0xbe0dc396	-0.13844141
70	0x3dad2376	0.08454029
71	0x3c662d32	0.014048861
72	0x3de576bb	0.11204287
73	0x3dc12aa5	0.09431962
74	0xbd8c9c19	-0.06865711
75	0xbd1b56a3	-0.03792442
76	0x3cfff4a9	0.031244593
77	0x3e547f27	0.2075163
78	0xbd4d1c97	-0.050076094
79	0xbe14934a	-0.14509311
80	0x3e096fe1	0.13421585
81	0xbda476ff	-0.08030509
82	0xbe81188e	-0.25214046
83	0xbe48d917	-0.19614063
84	0xbe2cd346	-0.1687747
85	0xbeb0f791	-0.34563878
86	0xbe02c06f	-0.1276872
87	0x3d74a1ac	0.059724495
88	0x3e890ff2	0.26769978
89	0x3e91bf6e	0.28466362
90	0xbea3823f	-0.31935307
91	0xbd303cb4	-0.04302664
92	0x3e00b350	0.12568402
93	0xbe8c9ed1	-0.27464917
94	0x3df84fab	0.121245705
95	0x3e2802fd	0.1640739
96	0x3dcd112b	0.1001304
97	0xbe3cb67b	-0.18428986
98	0xbd44e4f4	-0.04806991
99	0xbe9964c6	-0.29959697
100	0x3e83e2bb	0.2575892
101	0x3e9ede76	0.310291
102	0x3e31d8c1	0.17367841
103	0x3d94a4b4	0.07257977
104	0xbe5f0ad0	-0.21781468
105	0xbe657545	-0.22408016
106	0x3e6ee746	0.23330411
107	0xbc937f1f	-0.018004952
108	0x3d640b6a	0.055674948
109	0xbe83e487	-0.2576029
110	0xbdfa3773	-0.12217607
111	0x3cd00767	0.025394155
112	0x3e015c7f	0.1263294
113	0xbe4029dc	-0.18765968
114	0x3d6fa96e	0.05851119
115	0x3e215da5	0.15758379
116	0x3d8e02bc	0.06934115
117	0x3e6a976e	0.22909328
118	0x3e470554	0.19435626
119	0xbda7d36d	-0.08194623
120	0xbea568ce	-0.32306522
121	0xbe37ff3d	-0.1796846
122	0xbb6d5b19	-0.0036217629
123	0xbe26b950	-0.16281629
124	0x3cbbb0a8	0.022911385
125	0xbe8bdaf9	-0.273155
126	0x3e785639	0.24251641
127	0xbd55b418	-0.052173704
128	0x3c8095aa	0.015696365
129	0x3e2b679c	0.16738743
130	0xbe130038	-0.14355552
131	0x3d18a27a	0.037264325
132	0xbe275ad5	-0.16343243
133	0xbe7f69cb	-0.249427
134	0x3e2e37f1	0.17013527
135	0xbe2e397e	-0.17014119
136	0xbe8675af	-0.2626166
137	0x3e026933	0.12735443
138	0xbd3172b1	-0.04332227
139	0xbddc2d31	-0.10750807
140	0x3dafa480	0.08576298
141	0xbe93ad69	-0.2884324
142	0x3e08ba86	0.13352403
143	0x3e6759d2	0.22592857
144	0x3e988462	0.297885
145	0x3d17fa50	0.03710395
146	0x3dd841e4	0.10559443
147	0xbdfeb1e8	-0.12436277
148	0xbd2cde7e	-0.042204373
149	0x3e1b7a50	0.15183377
150	0xbe954c9c	-0.2916001
151	0x3e44609c	0.19177479
152	0xbc43bbd7	-0.01194664
153	0x3e3abff9	0.18237294
154	0xbe93a6b9	-0.28838137
155	0x3e84c1d7	0.25929138
156	0x3e974216	0.29542607
157	0xbd77bbff	-0.06048202
158	0x3d0ad69f	0.033896085
159	0xbe793257	-0.2433561
160	0x3eb7a0a4	0.35864747
161	0xbe03cc23	-0.1287084
162	0x3ea38322	0.31935984
163	0x3da81767	0.08207589
164	0x3ea71285	0.32631317
165	0x3dadd1dc	0.08487293
166	0x3e2839dd	0.16428323
167	0x3d935d95	0.07195584
168	0x3e438155	0.19092305
169	0xbdc91583	-0.09818556
170	0x3e79fe9c	0.24413532
171	0xbe5603ca	-0.20899883
172	0x3e596a85	0.2123204
173	0x3ea9c447	0.3315756
174	0xbe18cf54	-0.1492284
175	0xbe19b9f3	-0.1501234
176	0x3e205e22	0.15660909
177	0xbe32ba43	-0.17453866
178	0xbe709e07	-0.23497783
179	0xbe91a9e1	-0.2844992
180	0x3e79b1f6	0.24384293
181	0x3e49a4d3	0.19691782
182	0xbe20e923	-0.15713935
183	0xbe3b6fd8	-0.18304384
184	0x3ca38d94	0.01996497
185	0xbccca81f	-0.02498251
186	0x3e2d23cc	0.16908187
187	0x3e08f43c	0.13374418
188	0xbe531d42	-0.2061663
189	0x3e19e10b	0.15027253
190	0x3df9a980	0.12190533
191	0x3d30a369	0.04312459
192	0x3db61ced	0.08892236
193	0x3e0374c2	0.12837508
194	0xbdbbdd90	-0.09173119
195	0x3e7478a9	0.23874153
196	0xbe1eb103	-0.15497212
197	0xbeaf0593	-0.3418394
198	0x3b73d762	0.0037207236
199	0xbe31988d	-0.1734335
200	0xbe85ca10	-0.26130724
201	0x3c6b99e4	0.014379952
202	0x3e5e1da1	0.2169099
203	0xbe36db41	-0.17857076
204	0x3d1bafeb	0.038009565
205	0xbe3f115f	-0.1865897
206	0x3e5e77f3	0.21725444
207	0xbe1e2a7d	-0.15445895
208	0x3e065dc2	0.13121703
209	0x3d9c835b	0.076422416
210	0xbe4cb9ee	-0.19992802
211	0xbdbfe7ac	-0.0937036
212	0x3dd2813d	0.102785565
213	0x3d84831c	0.0647032
214	0x3e1e099b	0.15433352
215	0xbe4a330c	-0.19746035
216	0xbc4cdda4	-0.012504015
217	0xbd73bc47	-0.059505727
218	0x3c80b768	0.015712455
219	0xbd55b46e	-0.052174024
220	0xbeb0939b	-0.34487614
221	0x3dca1eee	0.098691806
222	0xbe458558	-0.19289148
223	0xbccc3013	-0.024925267
224	0x3eb12e84	0.346058
225	0x3e81c72a	0.25347263
226	0xbe923738	-0.28557754
227	0x3ebc3a1c	0.36763084
228	0xbe829f14	-0.25511992
229	0x3df1a6d7	0.117994
230	0xbe0b7818	-0.13620031
231	0x3e5606c7	0.20901023
232	0x3e88573b	0.26629052
233	0xbeabc4c3	-0.33548555
234	0x3e15972c	0.14608449
235	0x3dce0d37	0.10061114
236	0x3df3aab1	0.11897791
237	0xbd2ef0cb	-0.042710107
238	0x3de8695a	0.11348219
239	0xbc6dcc5f	-0.014514058
240	0xbdd7afe7	-0.105315976
241	0xbe860b93	-0.26180705
242	0x3cdf0f6f	0.027229039
243	0xbe5077f4	-0.20358258
244	0x3e2b9318	0.1675533
245	0xbe132ec0	-0.14373302
246	0x3d64aa36	0.05582639
247	0xbe11904f	-0.14215206
248	0xbe29664e	-0.16542932
249	0xbe8a6d59	-0.2703655
250	0x3d81e369	0.06342203
251	0xbea2493b	-0.31696495
252	0xbdf24159	-0.1182887
253	0x3e191989	0.14951147
254	0xbd993870	-0.07481468
255	0xbe0ca628	-0.13735259

layer1.bias f4 [64]
0	0xbcd8b99d	-0.026455695
1	0x3ead6b55	0.3387095
2	0x3e7d7ef9	0.24755467
3	0x3e81933f	0.25307652
4	0xbd4ff17e	-0.050767414
5	0x3d6fea68	0.058573157
6	0x3e23efc4	0.16009432
7	0xbcbe1487	-0.023203148
8	0xbe58d6bd	-0.21175666
9	0xbe1092ec	-0.14118546
10	0xbd201919	-0.039086435
11	0xbe451e3a	-0.19249812
12	0x3e740b75	0.23832496
13	0x3d3b0509	0.0456591
14	0x3cb7c891	0.022434505
15	0xbe344060	-0.17602682
16	0xbe56df3f	-0.20983599
17	0x3d665c52	0.056240387
18	0xbe7eb477	-0.2487353
19	0xbe8a071a	-0.26958543
20	0x3e9ad9da	0.30244333
21	0x3e9f8cc7	0.31162092
22	0xbd8f14ec	-0.069864124
23	0xbe883c01	-0.2660828
24	0xbe001e55	-0.12511571
25	0x3e5e7bf9	0.2172698
26	0xbdc8a860	-0.0979774
27	0x3dd1aeca	0.102384165
28	0xbce10a3e	-0.027470704
29	0xbc7648b6	-0.015031984
30	0x3e58991a	0.21152154
31	0xbe78d1c3	-0.24298768
32	0x3e1a98c7	0.15097342
33	0x3d0d1bdb	0.034450393
34	0x3e6a69c1	0.22891904
35	0x3e75ebc4	0.24015719
36	0x3d918ccf	0.07106935
37	0xbdd14b0b	-0.102193914
38	0x3e52aa71	0.2057283
39	0x3c0fcbc2	0.008776607
40	0x3e27d4a7	0.16389714
41	0xbe9d187e	-0.3068275
42	0xb90a89b4	-0.00013212004
43	0x3df8e0b6	0.12152235
44	0x3dd07f95	0.10180584
45	0x3ea05811	0.3131719
46	0xbe810876	-0.25201768
47	0xbe95b7d2	-0.29241806
48	0xbe46ad55	-0.19402058
49	0x3e6fb96d	0.23410578
50	0xbd90790e	-0.07054339
51	0xbe618c78	-0.22026241
52	0x3e20a51e	0.15687987
53	0x3acba5e0	0.0015537106
54	0xbe95586e	-0.2916903
55	0xbe22a437	-0.15882955
56	0x3d9f1e83	0.077694915
57	0x3db37301	0.0876217
58	0x3cd59a39	0.026074516
59	0xbe9d8dfa	-0.30772382
60	0x3eaaf058	0.33386493
61	0xbe137169	-0.14398731
62	0x3e358a7d	0.1772861
63	0x3c67b6e2	0.014142724

layer2.weight f4 [64, 64]
0	0x3d849373	0.06473436
1	0x3d896bb6	0.06709997
2	0x3d8f1e98	0.06988257
3	0xbe01d06d	-0.12677164
4	0xbd11bfeb	-0.035583418
5	0x3cde0614	0.027102508
6	0x3d9b3e7f	0.075802796
7	0xbe05e66f	-0.13076185
8	0xbdee23c3	-0.11627915
9	0x3cc66f5e	0.024223026
10	0x3da348d0	0.07972872
11	0x3e08241c	0.13295025
12	0x3dd815c2	0.10551025
13	0xbc88b21f	-0.016686497
14	0x3dcdfa5a	0.100575164
15	0xbcb21d2f	-0.021742431
16	0xbd49bba2	-0.049251206
17	0xbde096df	-0.109662764
18	0x3bdbe857	0.0067110467
19	0x3d06df1e	0.032927625
20	0xbd4062f4	-0.04696937
21	0xbd7f1807	-0.062278774
22	0xbdd66cb3	-0.104699515
23	0x3c23896a	0.0099814925
24	0x3dbffb86	0.09374146
25	0x3d83b7d7	0.06431549
26	0x3da51d80	0.08062267
27	0x3dd06782	0.101759925
28	0xbda425fe	-0.08015059
29	0x3dff8787	0.12477022
30	0x3d0bf8fc	0.034172997
31	0xbd34e74a	-0.044165887
32	0xbd4c57b5	-0.04988833
33	0x3d9eb0a5	0.07748536
34	0xbe121dc1	-0.14269163
35	0xbdd281ef	-0.10278689
36	0xbd935331	-0.07193602
37	0xbd4a7691	-0.04942948
38	0x3d41c37e	0.047305577
39	0x3c478aa7	0.012179053
40	0xbd83de45	-0.06438879
41	0xbdc23af2	-0.09483899
42	0xbcc4a3f2	-0.024003956
43	0x3d98aa6b	0.0745438
44	0xbe0caa41	-0.13736822
45	0xbd031780	-0.032004833
46	0xbe0e6d20	-0.13908815
47	0xbdfb6e1d	-0.12276862
48	0x3d892751	0.06696952
49	0x3cf36e06	0.02971555
50	0xbde943dc	-0.11389896
51	0xbc60a9a7	-0.013712323
52	0x3d596e65	0.053083796
53	0x3d1896fd	0.03725337
54	0xbd5f4b83	-0.054515373
55	0xbe088196	-0.13330683
56	0xbd58addf	-0.05290019
57	0xbcc5f06e	-0.024162497
58	0x3cb4bf56	0.022063892
59	0x3ca76e10	0.020438224
60	0xbe0b1523	-0.13582282
61	0x3dc326bb	0.095288716
62	0x3df07790	0.11741555
63	0xbd0c5b69	-0.034266863
64	0x3e0ff1c3	0.14057069
65	0x3d45c84c	0.04828672
66	0x3dba34c3	0.09092095
67	0xbc3682c3	-0.011139574
68	0xbdf5c292	-0.12000002
69	0x3d5223aa	0.051303543
70	0x3d79e6e7	0.06101122
71	0x3d39d3d6	0.045368038
72	0x3da84838	0.082169
73	0xbc4a2473	-0.012337792
74	0x3dad0cde	0.0844972
75	0x3dbcc78b	0.09217747
76	0xbd919fb9	-0.07110543
77	0xbd64671a	-0.055762388
78	0x3aa99654	0.0012938478
79	0x3db5bf78	0.088744104
80	0x3dad62df	0.08466124
81	0x3cc0e756	0.02354781
82	0xbd74a80f	-0.059730586
83	0xbd8f5b40	-0.069998264
84	0xbd0e916d	-0.034806658
85	0xbce875a4	-0.028376408
86	0xbc2cedb0	-0.010554716
87	0xbd8ae19b	-0.06781312
88	0x3ca87897	0.020565314
89	0xbd2cc4bb	-0.042179804
90	0xbdd0a50b	-0.101877294
91	0x3dbf7974	0.09349337
92	0x3dc0c867	0.09413224
93	0x3d9a6159	0.07538099
94	0x3dbdc532	0.09266128
95	0xbd86836b	-0.06568035
96	0xbbb30a9a	-0.0054639103
97	0x3d17d2bb	0.037066203
98	0x3e13d0ea	0.14435163
99	0xbd9182d1	-0.071050294
100	0x3ddc712c	0.10763773
101	0xbdcaa12a	-0.09894021
102	0xbdc2ce7f	-0.09512042
103	0xbd4d5751	-0.0501321
104	0x3d9ba88d	0.07600508
105	0xbe0f609e	-0.140017
106	0x3d10d441	0.03535867
107	0x3d8e6edc	0.069547385
108	0x3db136e3	0.08653047
109	0x3d49951e	0.049214475
110	0xbd065f85	-0.03280594
111	0xbd60456c	-0.054753706
112	0xbcbea8b3	-0.023273801
113	0xbbd20924	-0.006409781
114	0xbdcd302a	-0.10018952
115	0xbcfbaf35	-0.030723194
116	0x3babd5a4	0.005243974
117	0xbd14928d	-0.036272574
118	0x3d4efc36	0.050533496
119	0x3d4d796c	0.050164625
120	0x3c280111	0.0102541605
121	0x3d90f30f	0.0707761
122	0xbc9dfce6	-0.01928563
123	0x3e242db8	0.16033065
124	0x394745fa	0.00019004187
125	0xbd257201	-0.040391926
126	0xbd8083a2	-0.06275107
127	0xbd2dd737	-0.042441573
128	0xbbdf6051	-0.0068169017
129	0x3db69ec3	0.08917
130	0x3cbc75f2	0.02300546
131	0xbdab7085	-0.08371071
132	0x3bcffd60	0.0063473433
133	0xbe0207f3	-0.12698345
134	0x3cefd4a8	0.029276207
135	0x3d2e500c	0.042556807
136	0x3d0cf178	0.03440997
137	0xbdc1d722	-0.094648615
138	0xbdf215cd	-0.118205644
139	0xbc78d959	-0.0151885385
140	0xbd2baf06	-0.041914962
141	0xb930f9cd	-0.00016877726
142	0xbc253e70	-0.010085687
143	0xbdd1d4f6	-0.10245697
144	0x3d8b94f1	0.06815518
145	0xbdc1d45c	-0.094643325
146	0xbdfeabd0	-0.124351144
147	0xbd2cd04f	-0.042190846
148	0xbe0971ab	-0.13422267
149	0x3d5a41c5	0.05328538
150	0x3bc7a400	0.0060925484
151	0x3ddcfe52	0.10790695
152	0xbddf2dc8	-0.10897404
153	0xbcb04ac3	-0.021520024
154	0xbd616d4f	-0.055035885
155	0xbd25d6ff	-0.04048824
156	0x3c013b30	0.007887647
157	0xbdd48c5e	-0.103783354
158	0xbdc23558	-0.09482831
159	0x3d3ad06c	0.045608923
160	0x3c701208	0.0146527365
161	0xbd469b5c	-0.048488006
162	0x3c896909	0.016773717
163	0x3c95228d	0.018204952
164	0xbdb4b92c	-0.08824381
165	0xbbefb953	-0.0073157935
166	0x3d1d8646	0.03845813
167	0x3d05d257	0.0326713
168	0x3d85a179	0.06524939
169	0xbc8e23cd	-0.017351056
170	0x3c9a2318	0.018815562
171	0xbdd6a184	-0.104800254
172	0x3d26373a	0.040580012
173	0xbd8f8459	-0.07007665
174	0xbdf8e16f	-0.12152373
175	0xbd3048a8	-0.04303804
176	0xbd642c13	-0.055706095
177	0x3db6fda0	0.08935094
178	0x3d5acc50	0.053417504
179	0x3ce5ac00	0.028036118
180	0xbd6d3a40	-0.05791688
181	0xba162c52	-0.000572865
182	0xbceacc46	-0.028661858
183	0xbde8255b	-0.1133525
184	0xbc85ec78	-0.016348109
185	0x3d3d9646	0.04628589
186	0xbcb3e18f	-0.02195814
187	0x3dd07c6f	0.10179984
188	0xbcb8b430	-0.022546858
189	0x3d8b39b4	0.067981154
190	0x3dc234bd	0.09482715
191	0xbd5d7b2e	-0.05407255
192	0xbdd77d42	-0.10521938
193	0xbd0ff6db	-0.03514753
194	0xbda6bf4e	-0.08141957
195	0x3d889a03	0.066700004
196	0xbc895897	-0.016765876
197	0x3dd448bd	0.10365436
198	0xbd208daa	-0.0391976
199	0xbd548b0a	-0.05189041
200	0x3d8d2ce3	0.06893327
201	0x3cabdf3c	0.02098047
202	0xbd84ee53	-0.06490769
203	0x3df51131	0.119661696
204	0x3d578590	0.05261761
205	0x3e0d757e	0.13814351
206	0xbda863d6	-0.08222167
207	0xbd78c26b	-0.060732286
208	0x3c5b5286	0.013386374
209	0x3bf26eda	0.0073984684
210	0xbd115e9b	-0.035490613
211	0x3d0e5a70	0.034754217
212	0x3e008889	0.12552084
213	0x3be24602	0.0069053182
214	0xbdb03935	-0.086046614
215	0xbda8822b	-0.082279526
216	0x3d84bdcc	0.064815134
217	0x3d82377e	0.063582405
218	0x3dcd3e06	0.10021596
219	0x3dd17715	0.10227791
220	0x3cf49b46	0.029859196
221	0x3d416de6	0.047223948
222	0x3dea2be4	0.11434153
223	0xbd08a417	-0.033359613
224	0xbb9e04fa	-0.0048223706
225	0x3d26508a	0.04060415
226	0xbd15dbf6	-0.036586724
227	0x3da46b67	0.08028298
228	0x3e13f88b	0.1445028
229	0x3af3e36a	0.0018607203
230	0x3daffdf5	0.0859336
231	0x3de2bd53	0.11071267
232	0x3dfb06f5	0.12257186
233	0x3d29de53	0.04147179
234	0x3dbaecf9	0.0912723
235	0x3dbbfa34	0.09178582
236	0xbdabe6e1	-0.08393646
237	0x3e04dfc9	0.12975992
238	0x3d783a7a	0.060602643
239	0xbdee83b3	-0.116462134
240	0x3e057ba9	0.13035454
241	0xbdbbd1ec	-0.09170899
242	0xbd991546	-0.07474761
243	0xbdad4c29	-0.08461792
244	0x3dbae280	0.09125233
245	0xbd9b9e7b	-0.07598587
246	0xbdfaf180	-0.12253094
247	0xbd8cc656	-0.06873767
248	0xbba90e0c	-0.005159145
249	0xbda99ff6	-0.08282463
250	0x3d789b11	0.060694758
251	0x3e076e6a	0.13225713
252	0xbd8ea243	-0.06964543
253	0xbda20cad	-0.07912574
254	0x3dddc282	0.10828115
255	0x3da4e0e8	0.0805071

layer2.bias f4 [64]
0	0xbcbf4b19	-0.023351239
1	0x3d9ccec6	0.076566264
2	0xbdc8d59e	-0.09806369
3	0x3ccde64c	0.025134228
4	0x3d96d3cd	0.073646165
5	0x3d6cecaa	0.057842888
6	0x3d809895	0.06279103
7	0xbd97e18a	-0.07416065
8	0x3d26c61e	0.040716283
9	0xbcbcdadf	-0.023053585
10	0xbd8a42ce	-0.06751023
11	0xbd7629b4	-0.060098365
12	0xbd5d4165	-0.054017443
13	0x3c8b9592	0.017039094
14	0x3beaa574	0.007160837
15	0x3de24337	0.110479765
16	0x3b3f1264	0.0029155249
17	0xbd98f72d	-0.0746902
18	0x3d3b129e	0.04567205
19	0x3d6fb999	0.05852661
20	0xbc3fe029	-0.011711159
21	0x3af2f298	0.0018535433
22	0xbdee5193	-0.11636653
23	0x3da5592a	0.08073647
24	0x3c4c3a3f	0.012465059
25	0x3e12a16c	0.1431939
26	0xbd1f256f	-0.03885406
27	0xbde1f20e	-0.110324964
28	0x3c7cd84b	0.015432428
29	0x3e07b06e	0.13250896
30	0x3dc5ab7b	0.09651848
31	0x3d02662e	0.031835727
32	0xbd581755	-0.052756626
33	0x3e07a526	0.13246593
34	0xbd9f8e13	-0.077907704
35	0x3b031b71	0.002000537
36	0xbd004a6b	-0.03132097
37	0xbdac97ef	-0.084274165
38	0xbdc92e12	-0.0982324
39	0x3cd6e896	0.026233952
40	0x3d597577	0.05309054
41	0xbd8e686f	-0.06953513
42	0xbd97f79d	-0.07420275
43	0x3c714c65	0.0147276865
44	0x3dbcab3e	0.09212349
45	0x3c9ce2df	0.01915115
46	0xbcda2058	-0.02662675
47	0x3d08dd0a	0.033413924
48	0x3d9473dc	0.07248661
49	0x3c9eb484	0.019373186
50	0xbd8f746c	-0.070046276
51	0x3de0af8a	0.109709814
52	0x3dd2b7b1	0.102889426
53	0xbd65b990	-0.05608517
54	0xbd9a1818	-0.07524127
55	0x3e1bbe65	0.15209348
56	0xbc6478a0	-0.013944775
57	0x3d98252e	0.074289665
58	0x3d91c33d	0.07117317
59	0x3b4ae573	0.0030959516
60	0x3c317296	0.010830542
61	0x3b8411f1	0.004030459
62	0x3dbded63	0.092737935
63	0x3d76270a	0.060095824

layer3.weight f4 [1, 64]
0	0x3d9afd44	0.07567838
1	0x3daf212f	0.08551251
2	0x3c6575a0	0.014005095
3	0x3db68975	0.089129366
4	0x3dcacac6	0.09901957
5	0x3d75a5d0	0.059972584
6	0xbd5d99db	-0.054101806
7	0x3d8e535a	0.06949492
8	0x3d8e6d1b	0.06954404
9	0xbcd814b1	-0.026377054
10	0xbe22c550	-0.15895581
11	0xbdd057e2	-0.10173012
12	0x3e1059ea	0.140968
13	0x3e138498	0.14406049
14	0xbdc944ea	-0.098275974
15	0x3e149cf9	0.14513005
16	0xbd9e572e	-0.07731472
17	0xbd0ab5cc	-0.03386478
18	0xbe1c09df	-0.1523814
19	0x3d9c1231	0.07620657
20	0x3c0c4ba3	0.008562955
21	0xbd984650	-0.07435286
22	0x3d991d87	0.07476335
23	0x3db46fc2	0.088103786
24	0xbd28e5c4	-0.041234747
25	0x3d372711	0.04471499
26	0xbcf6d9d2	-0.030133162
27	0xbd319660	-0.0433563
28	0xbd0f4d88	-0.03498605
29	0x3cde3d5b	0.027128866
30	0xbda86fc3	-0.08224442
31	0x3d0dc3ad	0.03461044
32	0xbdce6457	-0.10077732
33	0x3d909093	0.07058825
34	0x3e2442b0	0.16041064
35	0xbe1000c4	-0.14062792
36	0xbe06e569	-0.1317345
37	0xbd09f705	-0.03368284
38	0xbc96a1a8	-0.01838763
39	0x3dd1a3e4	0.10236338
40	0x3d9773bb	0.07395121
41	0xbde6e2b3	-0.11273708
42	0xbddb9634	-0.10722008
43	0xbe066ab8	-0.13126647
44	0xbcf750f7	-0.030189974
45	0x3da1fc06	0.07909398
46	0x3d9e84e8	0.077401936
47	0x3e24d33c	0.16096205
48	0x3dbfedaa	0.09371503
49	0x3d4ca069	0.049957667
50	0xbdd4c800	-0.103897095
51	0x3d349730	0.044089496
52	0x3d95f16a	0.07321437
53	0xbd3934dd	-0.04521643
54	0x3ce4ff30	0.027953714
55	0x3e26a10e	0.16272375
56	0x3e23b274	0.15986043
57	0xbdef0176	-0.116702005
58	0x3d95bdd3	0.07311597
59	0xbdba8ae3	-0.09108522
60	0xbda505b3	-0.08057728
61	0x3dbb5d2c	0.091486305
62	0xbdb8f572	-0.0903119
63	0x3e12ff57	0.14355217
