ppo_actor.pth (torch, 22695 bytes, 6 tensors)

layer1.weight f4 [64, 9]
-0.18730974 -0.32177228 0.32194805 -0.3304368 -0.3135169 -0.20524436 -0.24284172 -0.15456419
0.010296158 -0.0922412 0.1661388 0.28023 -0.12810451 0.03849031 0.016899824 -0.23550653
-0.30485162 0.08518306 -0.094922125 0.15416145 0.086964466 -0.31559753 0.19631885 -0.14722472
0.21957152 0.30449405 0.23259912 -0.21031888 -0.17594114 0.023387186 0.32458934 -0.047094386
-0.17408064 0.18985802 -0.16932172 -0.23689495 -0.08575115 -0.009471691 -0.2353143 0.2237506
0.29479748 0.1572242 -0.027577963 -0.25657853 0.09802989 -0.17494237 0.032729313 -0.23374143
-0.060064 0.15276903 0.26035148 0.028044716 0.22378261 -0.09099511 0.25169542 -0.05327133
-0.045172997 0.094359934 -0.17132747 -0.17634289 -0.14773504 0.23413706 0.07569526 0.25470603
0.13180229 0.28775886 -0.07704525 0.014521842 -0.16577734 0.26824534 0.1797275 -0.045281556
0.2363336 -0.32484022 -0.16411509 -0.20105584 -0.14622176 0.2885303 0.006839464 -0.23670276
0.27651063 0.007293443 -0.311026 0.15204549 -0.110762045 -0.26578256 -0.2903859 0.12885815
0.11883368 0.15881559 0.029065475 -0.10245477 -0.080723666 0.24406458 0.31419814 0.26597467
0.27454892 -0.22928083 0.04681993 0.042708367 0.20159999 -0.33519804 -0.18243651 0.15172501
-0.3253226 0.05225238 0.11323123 -0.31954274 0.043454513 0.26924962 -0.2870402 0.13858053
-0.09858645 0.16273294 -0.05560486 -0.06263268 0.08835867 -0.3286826 -0.299648 0.24629089
-0.060297053 0.15833063 0.20885074 -0.090613775 0.03925378 0.065321356 0.2624365 -0.26880577
0.034712665 0.3302793 -0.1447001 0.013160918 -0.08649693 -0.24410743 0.23646905 0.33055335
0.23890117 -0.202663 0.19774288 0.21565317 -0.15376766 -0.07574965 -0.20171155 0.19174743
0.29100928 0.293364 -0.2524372 -0.25642097 -0.0681813 0.2701337 0.17521946 0.29820698
0.30273694 -0.14988059 -0.10167887 -0.09179865 -0.20357247 0.048699554 0.15887393 0.080310084
-0.006101323 0.19490172 0.076758794 0.103616886 0.037528202 0.19527246 -0.10953269 -0.0062150573
0.14628728 -0.22855698 0.020320492 -0.26946688 0.15959047 -0.24511091 0.0020017494 0.07120741
-0.048283488 0.086834766 -0.2921757 -0.02193695 0.14956579 0.061320804 0.056561593 -0.2501173
-0.10021886 0.14037162 0.21155031 -0.32896438 0.04747155 0.18466203 -0.31924158 -0.06710061
0.057584018 0.1662288 0.038327746 -0.01085477 -0.12155306 -0.13472334 0.17384945 -0.14335209
0.047170237 -0.19362783 0.2221858 -0.019753832 -0.12166275 -0.22203782 0.3185242 0.2770332
0.16577798 0.22040235 -0.111305684 -0.28913233 -0.024167888 0.033034384 -0.24082753 0.27536833
-0.057035815 0.23382463 -0.23852442 -0.07923191 0.041757 -0.0044737663 0.32394946 -0.12167689
0.3015195 -0.1530249 0.0051339883 -0.24663974 0.19990985 0.06654621 0.14761472 0.27965614
0.32671505 0.06451513 0.2350924 -0.19910955 0.03593742 -0.013485033 0.18949622 0.28705376
0.09635415 -0.04737346 -0.10062968 -0.06326014 -0.005095848 0.03954678 0.23101194 0.18718988
0.3121289 -0.20924123 -0.10658627 0.24526034 -0.07851378 0.2894377 0.31909093 -0.2026773
00000000: 20ce 3fbe 56bf a4be 60d6 a43e 032f a9be
00000010: 4a85 a0be 942b 52be 80ab 78be 1346 1ebe
00000020: 37b1 283c f4e8 bcbd 4a20 2a3e 4e7a 8f3e
00000030: d42d 03be 04a8 1d3d 8071 8a3c a028 71be
00000040: 8315 9cbe 7574 ae3d 8866 c2bd 80dc 1d3e
00000050: 6d1a b23d 0096 a1be cf07 493e 14c2 16be
00000060: 5bd7 603e a5e6 9b3e 772e 6e3e d55d 57be
00000070: ea29 34be 7c96 bf3c 9330 a63e 0be6 40bd
00000080: 3242 32be 246a 423e ac62 2dbe 9794 72be
00000090: 4d9e afbd 272f 1bbc 3bf6 70be e11e 653e
000000a0: b2ef 963e 61ff 203e 2eeb e1bc 435e 83be
000000b0: e5c3 c83d 1824 33be 2c0f 063d ea59 6fbe
000000c0: ab05 76bd 7c6f 1c3e ca4c 853e 08be e53c
000000d0: 4527 653e a55b babd 39de 803e 0a33 5abd
000000e0: 5207 39bd c83f c13d 7870 2fbe 3b93 34be
000000f0: db47 17be a0c1 6f3e 1e06 9b3d d468 823e
00000100: 2ef7 063e 2155 933e e6c9 9dbd 05ed 6d3c
00000110: 89c1 29be 7457 893e 7c0a 383e 2779 39bd
00000120: 6f01 723e 7551 a6be c90d 28be 95e1 4dbe
00000130: 28bb 15be 3eba 933e 951d e03b 3562 72be
00000140: cd92 8d3e d6fd ee3b cd3e 9fbe d0b1 1b3e
00000150: 36d7 e2bd a714 88be 76ad 94be 64f3 033e
00000160: 135f f33d 8ea0 223e b81a ee3c ced3 d1bd
00000170: 7352 a5bd 11ec 793e 94de a03e d52d 883e
00000180: ad91 8c3e 98c8 6abe 41c6 3f3d f8ee 2e3d
00000190: 3a70 4e3e 149f abbe a3d0 3abe cd5d 1b3e
000001a0: af90 a6be 9706 563d c6e5 e73d 1b9b a3be
000001b0: 5cfd 313d 16db 893e eff6 92be 0ee8 0d3e
000001c0: b1e7 c9bd 77a3 263e ecc1 63bd 9045 80bd
000001d0: 64f5 b43d 1649 a8be 766b 99be ae33 7c3e
000001e0: 0bfa 76bd 6d21 223e f8dc 553e b793 b9bd
000001f0: 92c8 203d 34c7 853d 145e 863e e9a0 89be
00000200: de2e 0e3d 5e1a a93e 432c 14be e4a0 573c
00000210: 4d25 b1bd 4cf7 79be f124 723e 4a3e a93e
00000220: 82a2 743e e486 4fbe 1c7d 4a3e 2fd4 5c3e
00000230: 4575 1dbe a222 9bbd 798d 4ebe 7059 443e
00000240: 2bff 943e ce33 963e 733f 81be 9c49 83be
00000250: a3a2 8bbd f74e 8a3e bb6c 333e 96ae 983e
00000260: 5600 9b3e 4c7a 19be 033d d0bd ee00 bcbd
00000270: 4d75 50be 2f79 473d d9af 223e 9d79 a43d
00000280: 9bed c7bb 5194 473e b733 9d3d 1735 d43d
00000290: 2cb7 193d 81f5 473e ad52 e0bd aea7 cbbb
000002a0: 55cc 153e d70a 6abe 2977 a63c 90f7 89be
000002b0: af6b 233e 5bfe 7abe c82f 033b 31d5 913d
000002c0: e8c4 45bd 6dd6 b13d 0e98 95be 1eb5 b3bc
000002d0: c627 193e 862b 7b3d 21ad 673d 600f 80be
000002e0: 8c3f cdbd 94bd 0f3e a5a0 583e 056e a8be
000002f0: 8771 423d 0b18 3d3e a273 a3be 0b6c 89bd
00000300: 38dd 6b3d e237 2a3e 8efd 1c3d 35d8 31bc
00000310: d0f0 f8bd eaf4 09be 9705 323e e4ca 12be
00000320: 9435 413d 6046 46be ad84 633e cad2 a1bc
00000330: 522a f9bd e25d 63be 9b15 a33e 4cd7 8d3e
00000340: b4c1 293e 27b1 613e 3cf4 e3bd 2709 94be
00000350: bcfb c5bc 104f 073d 7e9b 76be 14fd 8c3e
00000360: 639e 69bd b96f 6f3e bf3f 74be 5744 a2bd
00000370: 6309 2b3d ac98 92bb b4dc a53e bc31 f9bd
00000380: c460 9a3e 8fb2 1cbe 043b a83b 218f 7cbe
00000390: 2bb5 4c3e 6149 883d 5028 173e 172f 8f3e
000003a0: 3247 a73e 8220 843d 10bc 703e 60e3 4bbe
000003b0: 1e33 133d 54f0 5cbc 4c0b 423e b6f8 923e
000003c0: 5355 c53d ac0a 42bd ef16 cebd 888e 81bd
000003d0: 12fb a6bb cefb 213d 658e 6c3e b4ae 3f3e
000003e0: 5ccf 9f3e 5543 56be e749 dabd 8725 7b3e
000003f0: d5cb a0bd 2e31 943e e35f a33e a38a 4fbe

layer1.bias f4 [64]
0.06196762 0.16779682 -0.20755963 -0.089334644 -0.03551012 -0.16081373 -0.2157582 0.07657601
0.037025113 0.021869134 -0.15149686 -0.08733982 0.07349437 -0.1498376 0.29866478 -0.09246169
-0.05708652 -0.1711907 -0.052210532 0.28973478 -0.15955152 0.05869522 0.24793158 0.05473253
0.09559232 0.2775728 0.2325567 0.316476 0.2687657 0.023739463 -0.29324722 0.29816702
-0.0019371966 -0.17036864 0.17047074 -0.28166604 -0.21913718 0.014812344 -0.25173238 -0.2541963
-0.08846204 0.2860885 -0.16288462 -0.18582934 -0.29614428 0.0452938 0.013192971 -0.07620258
0.24771927 -0.30642065 -0.1899223 -0.33348894 -0.081862554 -0.1283712 0.016891321 0.16944699
0.102124706 0.31996444 0.26946247 0.061148908 -0.22621872 -0.047835857 0.03289247 -0.11724401
00000000: c2d1 7d3d eed2 2b3e 838a 54be 15f5 b6bd
00000010: 0f73 11bd 5bac 24be b8ef 5cbe e2d3 9c3d
00000020: a5a7 173d e626 b33c fe21 1bbe 38df b2bd
00000030: 3784 963d 076f 19be 97ea 983e 8e5c bdbd
00000040: 8ed3 69bd 9d4c 2fbe b6da 55bd 1e58 943e
00000050: 7961 23be 666a 703d c7e1 7d3e 382f 603d
00000060: e8c5 c33d 061e 8e3e 5823 6e3e 2409 a23e
00000070: a89b 893e 4379 c23c 8024 96be 59a9 983e
00000080: 88e9 fdba 1e75 2ebe e28f 2e3e 8836 90be
00000090: 7f65 60be 79af 723c 11e3 80be 0426 82be
000000a0: 962b b5bd 317a 923e 3acb 26be 0c4a 3ebe
000000b0: 39a0 97be fe85 393d 5527 583c 1910 9cbd
000000c0: 1faa 7d3e 2be3 9cbe fe7a 42be 10bf aabe
000000d0: 8ea7 a7bd bd73 03be ab5f 8a3c 8383 2d3e
000000e0: c226 d13d 61d2 a33e fcf6 893e 4777 7a3d
000000f0: e1a5 67be 88ef 43bd 41ba 063d a11d f0bd

layer2.weight f4 [64, 64]
-0.045889802 0.016797632 0.04774607 -0.08601026 -0.06499788 0.11247865 -0.00045253077 0.09340475
-0.09260454 -0.011576414 -0.024081228 0.07422477 -0.026515752 -0.06431179 -0.08832033 -0.07670532
-0.09279843 -0.09560853 0.023686236 -0.09033984 0.086459465 0.09587471 0.076243475 -0.07652412
0.04359121 0.114544705 0.10212016 0.051605962 0.0722725 -0.03335507 -0.0052336752 0.064978346
0.07372531 0.033309985 -0.118944876 -0.11498131 0.07307224 -0.12529257 -0.095606685 -0.11524479
-0.10563522 -0.036722243 0.028296068 0.08212924 -0.085649714 0.1019104 -0.03264153 0.017650736
-0.080027275 -0.06529571 0.06682657 -0.090009764 -0.07528435 0.02583689 0.07808164 -0.09021874
-0.09711485 -0.110864475 -0.06035778 0.006727261 0.037874315 0.050498035 -0.047823876 -0.109664276
-0.061104536 -0.019274745 0.113357425 -0.039939508 -0.087588705 0.08014598 0.09800841 -0.033418544
-0.11894599 -0.009501219 0.029452821 -0.118672006 0.057815082 -0.052985758 0.07752292 0.04559414
-0.1180665 -0.11766116 0.049347755 -0.03917435 0.059692327 0.11588208 0.10315766 0.004017368
-0.065594286 -0.10703163 0.015987389 0.054577984 -0.029106958 0.016429512 -0.06836529 -0.05000358
-0.1032077 0.08809603 0.034752898 -0.057393387 -0.09757211 0.018827874 -0.11412491 -0.062202033
-0.056953512 -0.016328998 -0.051543206 0.061934736 0.012417297 0.12534554 0.12656562 0.08564351
0.07913005 -0.013938036 -0.01967156 -0.10680236 -0.030042365 -0.06500375 0.06131762 0.03110224
0.0717991 -0.00871521 -0.040730163 -0.057367194 -0.059667274 -0.02559401 0.014230654 0.018407732
0.06002151 -0.028908767 -0.058194377 0.05524543 0.023445006 0.0911385 0.031133259 -0.044252288
0.115500525 -0.039572988 -0.033257235 0.11715984 0.0952163 0.10281203 0.09157576 -0.046751253
0.0027462423 -0.09356589 -0.112742014 0.12093426 0.05754362 -0.091014296 -0.1004697 -0.018723935
0.039146937 0.08239357 0.10905958 -0.04274317 0.12828182 -0.056036666 -0.11165861 0.09023949
0.04897179 -0.05524746 0.10205464 0.07844427 -0.10726884 0.0692397 -0.009640632 -0.01725381
-0.051009018 -0.09181368 0.110892534 -0.056787368 0.09040052 -0.017535012 -0.003322869 0.06908289
0.060469568 0.06615894 -0.10549154 -0.027228389 -0.01526219 -0.025404878 0.006084794 -0.09824357
0.008089699 0.11576153 0.082900554 0.037287816 -0.034712758 -0.05372578 -0.03311559 -0.06720976
-0.015362577 0.019595014 -0.033531174 -0.07549896 0.016694993 -0.043608963 -0.093627445 0.014626446
-0.049658887 -0.11011293 -0.0077472827 0.059700854 -0.0831817 0.12237188 0.08408934 0.10328536
-0.125445 -0.10153801 0.04687506 -0.034865715 0.08428967 0.0132759 0.05974797 -0.036090523
-0.0041923285 0.039269917 -0.026737954 0.11198072 0.011975065 -0.08004611 -0.11610649 -0.04401325
0.07380197 0.089300804 -0.04649277 -0.04901671 0.10491148 0.115715034 0.08941511 -0.100212544
0.05605009 -0.11094347 0.016768726 -0.06847118 -0.092787944 0.099969484 0.08459727 -0.04282139
0.021107193 0.007913143 -0.0063467463 -0.09265694 -0.059299927 0.09099517 -0.008126703 -0.036011674
0.06499312 -0.07539922 0.07529019 0.08788334 -0.05176838 0.12087162 0.047825612 0.10100668
00000000: f2f6 3bbd 309b 893c 6291 433d 2626 b0bd
00000010: 9c1d 85bd 355b e63d a741 edb9 fd4a bf3d
00000020: 73a7 bdbd 00ab 3dbc ff45 c5bc 2803 983d
00000030: 9037 d9bc e6b5 83bd 4ae1 b4bd ae17 9dbd
00000040: 1a0d bebd 68ce c3bd a309 c23c 1804 b9bd
00000050: a911 b13d f659 c43d 8a25 9c3d aeb8 9cbd
00000060: b28c 323d 6a96 ea3d 6024 d13d c660 533d
00000070: 9b03 943d 539f 08bd 407f abbb 5e13 853d
00000080: 4cfd 963d 0d70 083d 5f99 f3bd 527b ebbd
00000090: e6a6 953d b24c 00be 70cd c3bd 7605 ecbd
000000a0: 4757 d8bd 106a 16bd 28cd e73c 6033 a83d
000000b0: 1e69 afbd 66b6 d03d 20b3 05bd 4798 903c
000000c0: 57e5 a3bd c2b9 85bd 5edc 883d 0a57 b8bd
000000d0: ae2e 9abd e3a7 d33c 44e9 9f3d 9ac4 b8bd
000000e0: 27e4 c6bd ea0c e3bd b839 77bd 5b70 dc3b
000000f0: 1922 1b3d 07d7 4e3d f8e2 43bd aa97 e0bd
00000100: c048 7abd 12e6 9dbc f027 e83d 9c97 23bd
00000110: b561 b3bd 9323 a43d a2b8 c83d e2e1 08bd
00000120: f599 f3bd 00ab 1bbc 0b47 f13c 4f0a f3bd
00000130: 82cf 6c3d 9807 59bd 56c4 9e3d ecc0 3a3d
00000140: d9cc f1bd 56f8 f0bd df20 4a3d 4975 20bd
00000150: f17f 743d 9553 ed3d 5344 d33d 20a4 833b
00000160: 4c56 86bd 6633 dbbd fcf7 823c 2a8d 5f3d
00000170: b771 eebc 2f97 863c 1a03 8cbd 8ed0 4cbd
00000180: 8f5e d3bd b16b b43d 0e59 0e3d 5415 6bbd
00000190: e3d3 c7bd ea3c 9a3c 52ba e9bd 8fc7 7ebd
000001a0: 1648 69bd 64c4 85bc f81e 53bd 47af 7d3d
000001b0: eb71 4b3c 955a 003e 6b9a 013e dd65 af3d
000001c0: f00e a23d 5c5c 64bc 4026 a1bc 32bb dabd
000001d0: 681b f6bc b020 85bd 2f28 7b3d 20ca fe3c
000001e0: 680b 933d 3dca 0ebc acd4 26bd ddf9 6abd
000001f0: ac65 74bd 87aa d1bc b027 693c d0cb 963c
00000200: 1dd9 753d 14d2 ecbc 3a5d 6ebd 0849 623d
00000210: be0f c03c d2a6 ba3d 2d0b ff3c e341 35bd
00000220: 8a8b ec3d 4917 22bd bd38 08bd 80f1 ef3d
00000230: c300 c33d 1d8f d23d 128c bb3d 3e7e 3fbd
00000240: 4dfa 333b 799f bfbd 49e5 e6bd 62ac f73d
00000250: dcb2 6b3d b465 babd 0fc3 cdbd f062 99bc
00000260: 8a58 203d f6bd a83d a15a df3d 7613 2fbd
00000270: 4f5c 033e b486 65bd 45ad e4bd 7bcf b83d
00000280: a596 483d 294b 62bd 0602 d13d 64a7 a03d
00000290: c4af dbbd 8bcd 8d3d bef3 1dbc dd57 8dbc
000002a0: d5ee 50bd d008 bcbd a01b e33d df99 68bd
000002b0: e823 b93d 96a5 8fbc 7ec4 59bb 557b 8d3d
000002c0: f0ae 773d 577e 873d f30b d8bd 120e dfbc
000002d0: 440e 7abc e41d d0bc f462 c73b ed33 c9bd
000002e0: a88a 043c 6214 ed3d c4c7 a93d 1cbb 183d
000002f0: f72e 0ebd 900f 5cbd 37a4 07bd 45a5 89bd
00000300: 51b3 7bbc b985 a03c fc57 09bd 339f 9abd
00000310: f0c3 883c 509f 32bd bfbf bfbd c3a3 6f3c
00000320: 1e67 4bbd e382 e1bd ebdc fdbb e288 743d
00000330: 2b5b aabd 1c9e fa3d 0837 ac3d 4687 d33d
00000340: a774 00be 29f3 cfbd 1000 403d 5acf 0ebd
00000350: 10a0 ac3d 2983 593c 4aba 743d a8d3 13bd
00000360: cd5f 89bb 7ed9 203d 8e09 dbbc 2656 e53d
00000370: 1033 443c 37ef a3bd 3dc9 edbd 3d47 34bd
00000380: 7d25 973d 57e3 b63d 346f 3ebd bfc5 48bd
00000390: d4db d63d 01fc ec3d 451f b73d 3c3c cdbd
000003a0: c794 653d 5436 e3bd 915e 893c 9e3a 8cbd
000003b0: 9b07 bebd cdbc cc3d 5541 ad3d 7b65 2fbd
000003c0: fee8 ac3c 21a6 013c 5ef8 cfbb ecc2 bdbd
000003d0: 7be4 72bd ad5b ba3d dd25 05bc fa80 13bd
000003e0: 1d1b 853d e86a 9abd be31 9a3d 2efc b33d
000003f0: 150b 54bd 8a8b f73d cae4 433d 97dc ce3d

layer2.bias f4 [64]
0.07930612 -0.08452229 -0.079190955 0.0328849 -0.11709907 0.039374884 -0.11422141 -0.07809204
0.06528747 -0.023215942 0.0733586 -0.0058624153 0.10363438 0.014931267 0.016615715 -0.09678025
0.01390477 0.053527642 0.055480685 0.08420932 0.0923027 -0.016010744 -0.050695293 0.01243075
-0.11094521 -0.01745254 0.0900824 0.0662585 0.10973976 0.016121734 0.123764224 -0.092377596
-0.03334178 0.0045701656 -0.11483076 0.030785069 0.09985548 -0.095311895 0.007177907 0.042962216
0.022604408 0.10966387 -0.073448 0.095924325 0.02626244 0.08649704 -0.039230343 0.11250277
0.019339042 0.09624388 -0.0042682644 -0.057048794 -0.0054630246 -0.0062870835 -0.011834712 -0.060719177
0.075008005 0.08202361 0.09344336 0.0032666805 0.062288407 0.015267476 0.0119691435 -0.06626185
00000000: 3f6b a23d 061a adbd de2e a2bd 51b2 063d
00000010: a3d1 efbd 8f47 213d eaec e9bd b8ee 9fbd
00000020: 70b5 853d 5c2f bebc 093d 963d 8119 c0bb
00000030: 433e d43d 46a2 743c ae1d 883c b934 c6bd
00000040: d5d0 633c cd3f 5b3d b73f 633d f075 ac3d
00000050: 3309 bd3d f728 83bc dea5 4fbd 58aa 4b3c
00000060: 3e37 e3bd a1f8 8ebc 1f7d b83d 89b2 873d
00000070: 3dbf e03d ba11 843c 1978 fd3d 7730 bdbd
00000080: 6491 08bd 54c1 953b 642c ebbd f830 fc3c
00000090: 0881 cc3d e232 c3bd a634 eb3b 26f9 2f3d
000000a0: e12c b93c 7397 e03d e86b 96bd f973 c43d
000000b0: 5424 d73c 5c25 b13d ffaf 20bd da67 e63d
000000c0: e96c 9e3c 831b c53d ccdc 8bbb ffab 69bd
000000d0: 2c03 b3bb e103 cebb 61e6 41bc acb4 78bd
000000e0: cc9d 993d fffb a73d 3b5f bf3d ce15 563b
000000f0: 2122 7f3d 7024 7a3c 3a1a 443c 4bb4 87bd

layer3.weight f4 [5, 64]
-0.09757547 -0.09234452 -0.12444953 0.006615967 -0.016750617 -0.12773968 -0.07203543 0.004964918
0.010919201 -0.018441355 0.10824056 0.11864539 0.004846694 0.012110987 0.00076331664 -0.027006987
0.082630076 0.031551473 -0.022870319 -0.03900354 0.029017694 0.035187222 -0.1301974 0.07318999
0.02365985 0.082337335 0.048710328 0.0038716646 0.10850007 0.054853592 0.06885857 0.010992118
0.04038845 0.07003245 -0.0888391 -0.123001434 0.05301808 0.020869186 0.032298565 -0.048949733
-0.04534682 -0.04188937 -0.097774245 -0.037400734 0.084430955 0.09138093 -0.108031765 0.07300646
-0.09435865 -0.0149729345 -0.0017388382 -0.06696836 -0.10827641 -0.054545604 0.02732477 -0.05109276
0.10962987 0.01760545 -0.12525806 0.08251398 -0.08090893 -0.12165508 -0.11865609 -0.0978724
-0.031014914 0.11207691 0.07441415 0.009838404 0.12529694 -0.026520217 -0.058175698 -0.041124016
-0.11774187 -0.032473434 0.074853405 0.0364444 0.072421044 -0.021962453 -0.0043120766 -0.0684836
-0.11176997 0.08292817 -0.03182145 -0.0872101 0.027151957 -0.11245569 -0.112330064 -0.07683009
-0.005293158 0.085825674 -0.022800004 0.016833432 -0.03975091 -0.0045784945 0.029056907 -0.006731212
-0.11581406 0.06542515 0.089372575 -0.06684748 0.03279758 -0.085833594 0.047962975 0.03510325
0.029072117 0.027250469 -0.05412504 0.003842461 0.055938438 0.13076197 0.0177562 0.096402176
-0.08584896 -0.05401328 -0.1073312 -0.050220646 -0.008920453 0.07078932 0.05124024 -0.09540875
-0.0632993 0.062001407 -0.09778577 0.06491621 0.01269119 -0.03736773 0.05847057 -0.028722623
-0.087539576 0.061540473 -0.054708544 -0.066187486 0.07269337 0.08325325 0.015586509 -0.082681924
-0.07899088 -0.059819642 -0.100948095 0.11944303 -0.05906078 0.08967324 0.08231902 -0.057287075
-0.10859073 -0.08347497 0.09542769 0.0046695326 -0.11897702 0.10250006 -0.07196498 -0.010083949
-0.06416091 0.02712597 -0.12506205 0.070416875 0.085274875 -0.092591174 -0.032067914 0.03374029
0.034854874 -0.004653436 -0.020896945 -0.038433503 -0.06884788 0.016349306 -0.08957572 0.07892629
0.03206143 -0.11759633 -0.02505416 -0.03460521 -0.028367 -0.058389366 -0.040085528 0.08523315
-0.06911774 -0.059601758 -0.024856826 -0.081328884 -0.029739166 0.093577415 0.09945861 0.060077697
-0.03962782 0.06866643 -0.058780435 0.120327026 -0.06164024 -0.08366601 0.01783321 -0.046761677
0.011533982 0.07589188 0.020519013 -0.024322988 0.07339475 -0.078418486 -0.044234797 -0.109825626
0.094505146 0.044491883 -0.119066 -0.11623734 -0.021617927 -0.11742307 0.052658938 -0.0619352
-0.10688966 -0.00064424996 -0.0049794097 0.08332646 -0.03874988 0.019807134 -0.02174491 -0.023043215
0.11453742 0.037170164 -0.005954222 -0.016570583 -0.10423377 -0.017523516 -0.010590813 -0.13024063
0.12442276 0.07930798 -0.11323866 -0.05134793 0.046385553 0.04728378 -0.0468062 -0.008577858
-0.11695722 0.09894517 -0.10754414 -0.029261895 0.021119405 -0.06433324 -0.009102238 0.0073551363
-0.016250568 -0.083661616 0.039074454 -0.09435751 0.1032059 -0.016516445 0.061213456 0.08645311
0.08673604 0.10603523 -0.103585735 0.11910267 0.11703574 -0.047729284 0.10709707 0.066370755
00000000: a6d5 c7bd 201f bdbd 65df febd c1ca d83b
00000010: 9738 89bc 31ce 02be 5087 93bd c0b0 a23b
00000020: 73e6 323c 5312 97bc 3aad dd3d 5bfc f23d
00000030: 04d1 9e3b 296d 463c 5019 483a c23d ddbc
00000040: f539 a93d 1e3c 013d 895a bbbc 2dc2 1fbd
00000050: 84b6 ed3c 7a20 103d 7852 05be a2e4 953d
00000060: 4dd2 c13c 7aa0 a83d 7b84 473d c1bb 7d3b
00000070: 4935 de3d 29ae 603d b905 8d3d 4918 343c
00000080: 5c6e 253d 2c6d 8f3d 46f1 b5bd 2de8 fbbd
00000090: 7c29 593d dbf5 aa3c 804b 043d 847f 48bd
000000a0: 96bd 39bd 3094 2bbd dd3d c8bd 8331 19bd
000000b0: 23ea ac3d ed25 bb3d c23f ddbd 6984 953d
000000c0: 1c3f c1bd 0a51 75bc bae9 e3ba b526 89bd
000000d0: 06c0 ddbd 366b 5fbd 32d8 df3c a446 51bd
000000e0: a085 e03d 4e39 903c a643 00be 17fd a83d
000000f0: 95b3 a5bd 4c26 f9bd f701 f3bd 5371 c8bd
00000100: fd12 febc 9488 e53d 7266 983d 4231 213c
00000110: d74d 003e ed40 d9bc a449 6ebd a871 28bd
00000120: a622 f1bd dd02 05bd be4c 993d b946 153d
00000130: 7c51 943d 9aea b3bc 524c 8dbb 2141 8cbd
00000140: a7e7 e4bd 3fd6 a93d 3557 02bd 359b b2bd
00000150: c86d de3c 2b4f e6bd 4e0d e6bd 1859 9dbd
00000160: 3a72 adbb 5fc5 af3d 13c7 babc 44e6 893c
00000170: dad1 22bd 3207 96bb c008 ee3c 8091 dcbb
00000180: ec2f edbd 9ffd 853d f808 b73d 55e7 88bd
00000190: c156 063d 86c9 afbd d374 443d 6dc8 0f3d
000001a0: a628 ee3c 603c df3c 38b2 5dbd ccd1 7b3b
000001b0: b41f 653d 77e6 053e 7375 913c 816e c53d
000001c0: 94d1 afbd 073d 5dbd 76d0 dbbd 2ab4 4dbd
000001d0: 1727 12bc fef9 903d 49e1 513d aa65 c3bd
000001e0: 10a3 81bd 30f5 7d3d e843 c8bd caf2 843d
000001f0: b5ee 4f3c e80e 19bd d67e 6f3d b54b ebbc
00000200: f347 b3bd dd11 7c3d 1116 60bd 4e8d 87bd
00000210: 43e0 943d ae80 aa3d 8f5e 7f3c 2455 a9bd
00000220: f8c5 a1bd 7105 75bd e0bd cebd 8c9e f43d
00000230: b7e9 71bd 9ba6 b73d e096 a83d daa5 6abd
00000240: d164 debd edf4 aabd 986f c33d e102 993b
00000250: 39aa f3bd 8deb d13d 6062 93bd 2637 25bc
00000260: cc66 83bd 4837 de3c 4410 00be b936 903d
00000270: 98a4 ae3d 71a0 bdbd a559 03bd 4233 0a3d
00000280: fcc3 0e3d da7b 98bb 1230 abbc 736c 1dbd
00000290: 1e00 8dbd fbee 853c 7a73 b7bd 1ba4 a13d
000002a0: d952 033d 58d6 f0bd 623e cdbc 31be 0dbd
000002b0: e961 e8bc b029 6fbd b930 24bd b88e ae3d
000002c0: 9a8d 8dbd f920 74bd 8ba0 cbbc c28f a6bd
000002d0: 8d9f f3bc 84a5 bf3d f5b0 cb3d 0814 763d
000002e0: c850 22bd fca0 8c3d c1c3 70bd 046e f63d
000002f0: 7a7a 7cbd 1659 abbd f416 923c 2c89 3fbd
00000300: 07f9 3c3c 346d 9b3d 7d17 a83c 0141 c7bc
00000310: fd4f 963d df99 a0bd 8c2f 35bd 42ec e0bd
00000320: ea8b c13d 1f3d 363d e0d8 f3bd d80d eebd
00000330: 1418 b1bc 827b f0bd e6b0 573d c4af 7dbd
00000340: f7e8 dabd e2e2 28ba 512a a3bb 10a7 aa3d
00000350: 32b8 1ebd 9242 a23c 6222 b2bc 20c5 bcbc
00000360: 9892 ea3d be3f 183d a21b c3bb 08bf 87bc
00000370: 8478 d5bd 7a8d 8fbc 1785 2dbc cd5d 05be
00000380: 5cd1 fe3d 396c a23d ace9 e7bd 3552 52bd
00000390: c7fe 3d3d a3ac 413d dcb7 3fbd 258a 0cbc
000003a0: 4487 efbd c4a3 ca3d 1a40 dcbd a4b6 efbc
000003b0: 9a02 ad3c 25c1 83bd 8e21 15bc 5b03 f13b
000003c0: e91f 85bc c856 abbd 890c 203d 833e c1bd
000003d0: 9d5d d33d 7f4d 87bc f6ba 7a3d 540e b13d
000003e0: aaa2 b13d 0029 d93d c224 d4bd 1aec f33d
000003f0: 6fb0 ef3d c87f 43bd b555 db3d 64ed 873d

layer3.bias f4 [5]
0.041244306 -0.10503973 0.11524573 -0.08669512 0.117588565
00000000: caef 283d 121f d7bd f405 ec3d 368d b1bd
00000010: 46d2 f03d
