ppo_critic.pth (torch, 21679 bytes, 5 tensors)

layer1.weight f4 [64, 9]
00000000: d7c2 75be 8f85 cd3e 0089 193d fc5a 373d
00000010: e83a d53d 4d51 ae3c 62a0 bb3e e3d8 1fbe
00000020: 799c a53d 226d fe3d 2c1a 29be 0b58 3d3d
00000030: 622a 54bd ed6f f43d 59fb 7abe 1a6b 8a3c
00000040: 8bcf 613e 8561 98be 683f 6f3e db52 e13d
00000050: 6b32 be3e c7a5 833e 7d01 833e 66ee 85bc
00000060: 9d6a 4bbe 5376 353e 3269 fdbd 482d ac3e
00000070: a8d4 473e de0c 3f3e 6afb 6c3e b512 4abd
00000080: afcc d4bd 96e7 fd3d c3eb d23e 83f1 2ebe
00000090: 4c47 57be bde4 153e ad7b 7bbe 3755 843e
000000a0: 175d 36bd 7eff 30be c00d ecbd e7e7 a33e
000000b0: 0cf5 2e3e 980b 483e 7f98 87be 279d 353e
000000c0: f20d e33d aca8 b63e 4dd6 8a3d beca 013e
000000d0: 1d50 afbd 70e0 9e3e 9fbb e43c 5c9b 60bc
000000e0: 9f2f 1ebe 6b8f 823e fd3a 6ebd 36d9 05bd
000000f0: c3bd ddbd e355 b4be ad50 9f3e bd56 8a3e
00000100: 153c 443e 2728 313e 5a4c 1d3d 66a8 22be
00000110: 08df 9a3e abc5 30be 64a0 0a3e 1894 603b
00000120: 77f9 083e d4b5 da3d f281 1fbd dd82 9dbd
00000130: cafe 113d 7c86 703e 503b a2bd 6c5c 1abe
00000140: bbd7 c33d 9c14 dcbd 769f 7cbe ca2b 35be
00000150: 34c5 2cbe 8583 a5be 074d d1bd b919 483d
00000160: 9282 9d3e 7f23 993e 93b5 88be bde8 a2bb
00000170: d0b1 2d3e 00a4 7fbe fa01 2b3e 90e5 5b3e
00000180: ab9a 663d 72e0 07be e101 82bd 3b45 80be
00000190: 9d38 9b3e b0f3 b63e 83c5 203e 8ce5 f43d
000001a0: dcbf 2fbe 3feb 89be db68 8f3e f245 85bd
000001b0: bcb2 0a3a f29b 56be d6ec a6bd 4e8b ff3c
000001c0: 33bc 353e 476b 71be b513 623d ed3c 543e
000001d0: fe5b dc3c 4d27 8f3e 8e43 773e 250c 06bd
000001e0: 5c9b aebe 3cb0 05be ac27 3e3d 26e7 57be
000001f0: c9da 933d 3470 9ebe f995 523e f1ea 60bc
00000200: 245a 433d dac2 f43d 9b7b 1bbe 1ff0 4f3d
00000210: 19d6 48be cfa5 92be a44c 033e 8cd1 5cbe
00000220: f8fc 63be a760 f63d 1f2a c8bd f115 90bd
00000230: 7cb6 873d abf7 a6be 9ea3 1f3e d04f 443e
00000240: a383 b33e d1f8 9a3d a1b6 193e 75c2 b4bd
00000250: 9140 c03a 0778 4f3e 2487 9bbe f7e2 773e
00000260: a32f ebbc 1bf2 703e a93a 81be e569 9a3e
00000270: f9ed a63e 1076 94bc 3d5d ae3d 4952 8abe
00000280: f7a1 d03e 5650 0cbe 1358 b13e 235a 763d
00000290: 5411 b53e c365 ba3d 1ffa 2d3e 6720 bd3d
000002a0: 82d8 253e 1ed2 babd ec6b 7e3e ed3d 22be
000002b0: 7ddb 803e b054 c23e 0e01 03be 4fd3 d0bd
000002c0: 4a46 533e ed4f 60be 0504 3ebe e475 9bbe
000002d0: 75bf 973e 91ce 693e bb9d eebd 0991 1bbe
000002e0: 7df5 7e3d d16d d23c 5262 0e3e eed9 3b3e
000002f0: 4afb 55be 243b 4f3e 4fc8 1e3e e962 ac3d
00000300: 874c eb3d 9710 2f3e 0ea4 2abd 1182 4c3e
00000310: 3306 d7bd fb52 b1be 4e73 02bc cbee 3abe
00000320: f771 7cbe 9003 543c 0fd5 4d3e 80d7 23be
00000330: 9eed 033d cfe8 68be 20f9 663e 2ee3 d2bd
00000340: c6c2 2c3e 9630 f73d b694 3bbe 009a 47bd
00000350: ce93 1c3e ab26 b83c c647 503e 492f 55be
00000360: 54f5 3bbd 3684 c9bc 21aa af3c 60ac bfbd
00000370: 5ad0 b0be 890e dc3d 67cc 5fbe 3aba a6bc
00000380: ad8e a63e a0a4 9c3e bf2e 80be 969d d13e
00000390: ac82 64be 002f 243e afdc aebd 7bf4 313e
000003a0: 528f a13e 321b aebe f456 be3d e8c5 0b3e
000003b0: b4c8 113e 972d c7bd ee41 f03d 1d43 cebc
000003c0: 8c1a 0dbe 588c a0be 0e36 ccbc 98fe 1cbe
000003d0: de76 543e cf13 c8bd 9cae 813d c1f9 c1bd
000003e0: ca60 efbd 3efb a0be 9999 e53d 7e46 afbe
000003f0: 95d3 87bd c321 403e cc19 fabc 82df dcbd
-0.24000107 0.4014096 0.03748417 0.044764504 0.10411626 0.021279002 0.366458 -0.1561008
0.080864854 0.12423159 -0.1651389 0.046226542 -0.051798232 0.11935411 -0.24509944 0.016896773
0.22051828 -0.29761901 0.23364031 0.110021316 0.3714784 0.25712416 0.25587073 -0.016349029
-0.19864888 0.17720918 -0.1237358 0.33628297 0.19514716 0.18657252 0.23142782 -0.049334247
-0.10390603 0.12397687 0.41195497 -0.17084317 -0.21023291 0.14638038 -0.24558897 0.25846264
-0.04452237 -0.17284963 -0.1152606 0.32012865 0.17085665 0.19535673 -0.26483533 0.1773573
0.11086644 0.3567556 0.06779156 0.12674996 -0.08560202 0.31030607 0.027921496 -0.013708916
-0.15447854 0.25500044 -0.058161724 -0.03267785 -0.1082721 -0.35221776 0.31116238 0.270193
0.19163544 0.17300473 0.038402893 -0.15884551 0.30248284 -0.17262904 0.13537747 0.0034267958
0.13376413 0.10679212 -0.038942285 -0.07690976 0.035643376 0.23488802 -0.07921469 -0.15074319
0.09562632 -0.107461184 -0.24670205 -0.17692485 -0.16872102 -0.32326904 -0.1021977 0.048852656
0.3076368 0.29909894 -0.2670103 -0.004971592 0.16962361 -0.24964905 0.16699973 0.2147429
0.056299847 -0.13269213 -0.063480146 -0.2505282 0.3031663 0.35732794 0.15700345 0.11957845
-0.17163032 -0.2693729 0.28009686 -0.06507482 0.0005290916 -0.20957926 -0.081506416 0.031194355
0.17747574 -0.2357608 0.055194575 0.20726366 0.026899334 0.27959672 0.24146864 -0.032726426
-0.34102905 -0.1305551 0.046424553 -0.2108427 0.07219464 -0.3094498 0.20565023 -0.013727889
0.047693387 0.119512275 -0.1518387 0.050766107 -0.19612922 -0.28642127 0.12822205 -0.21564311
-0.22264469 0.12030154 -0.09773659 -0.07035435 0.06626603 -0.3261083 0.15589759 0.19171071
0.35061368 0.07566989 0.15011074 -0.08826152 0.001466768 0.2026063 -0.30376542 0.24207674
-0.028709238 0.23529856 -0.25240067 0.30158916 0.32603434 -0.018122703 0.085138775 -0.27015904
0.4074857 -0.1370252 0.34637508 0.060144555 0.35364783 0.09101441 0.16989945 0.09234696
0.16195872 -0.09122108 0.24845856 -0.15843935 0.25167456 0.37955236 -0.12793371 -0.10196554
0.20632282 -0.2190549 -0.18556221 -0.3036338 0.29638258 0.22832705 -0.116511784 -0.15192045
0.062245835 0.02568713 0.13904694 0.18344852 -0.2089664 0.20237404 0.15506099 0.08417303
0.11489206 0.17096172 -0.04166036 0.19971491 -0.10499229 -0.34633622 -0.007962061 -0.18255155
-0.24652849 0.0129403025 0.20100807 -0.16000175 0.03220903 -0.2274506 0.22555971 -0.10297237
0.16871175 0.12069814 -0.18318447 -0.04873085 0.15290758 0.022479376 0.2033988 -0.20818819
-0.04588826 -0.024599176 0.021443428 -0.0935905 -0.3453396 0.1074496 -0.21855317 -0.020352472
0.32530728 0.3059435 -0.25035664 0.4094054 -0.22315472 0.16033554 -0.08538186 0.17378418
0.31554657 -0.34005123 0.09293929 0.13649714 0.14236718 -0.097254924 0.11731325 -0.025178486
-0.13779658 -0.31357074 -0.024928119 -0.15331495 0.20748469 -0.09769403 0.06332132 -0.09471465
-0.11688383 -0.31441683 0.11210937 -0.3423347 -0.06632153 0.18762879 -0.030529879 -0.10784818

layer1.bias f4 [64]
00000000: 7971 953c 4068 c53e 6267 943e 9fe7 9a3e
00000010: 2a60 84bc e98f e03d 2116 423e 1699 b03c
00000020: e782 40be 74ef fcbd 2f0d 1e3c 9a1b 15be
00000030: f9e0 783e 1d4f c23d ff73 6c3d 4f0e 25be
00000040: df72 25be a27a d03d 4af4 6fbe 2a8d 62be
00000050: fa15 b13e 8206 b63e d24f 69bd 5d9c 5ebe
00000060: e8d0 e7bd e225 863e f1db a7bd 008c 193e
00000070: f212 b23c ce70 173c f114 833e 10fa 78be
00000080: 772c 4c3e ecb6 4c3d 4da0 8d3e 3fad 8d3e
00000090: 3160 eb3d a63d 5ebd a206 673e 55eb 553d
000000a0: a032 593e b843 9bbe 288c 3a3c 28d5 273e
000000b0: 0bf2 133e af2f b63e 6180 59be dae8 73be
000000c0: 4ee3 13be 4a79 7a3e 4b94 a7bc b39a 3abe
000000d0: 5e0b 533e 6aa2 373d b859 74be e39b e8bd
000000e0: 467d b83d 5967 083e 4171 a13d 46b1 84be
000000f0: b27e c33e 805b c3bd 5b6f 513e 262c 853d
0.018242585 0.385561 0.28985125 0.30254838 -0.016159136 0.10964949 0.18953754 0.021557372
-0.18799935 -0.123503596 0.009646698 -0.1456131 0.2430457 0.09487746 0.05772781 -0.1611874
-0.16157101 0.1017964 -0.23433033 -0.22124162 0.3458708 0.3555184 -0.05696089 -0.21739335
-0.113191426 0.26200777 -0.08196247 0.14994812 0.02173755 0.009243203 0.25601915 -0.24314141
0.19938837 0.049979135 0.27661362 0.2767124 0.114929564 -0.05425801 0.22561124 0.052226383
0.21210718 -0.30325103 0.011385955 0.16389906 0.14447801 0.35583255 -0.21240379 -0.23819295
-0.14442179 0.2446033 -0.020456454 -0.18223076 0.20609805 0.044832624 -0.2386235 -0.11357858
0.09008269 0.13320674 0.078829296 -0.259165 0.38182598 -0.095389366 0.20452635 0.06502561

layer2.weight f4 [64, 64]
00000000: 85b1 713d e2be a03d dfba ae3d 8e44 f3bd
00000010: 29bf b7bc 5327 db3c 5435 c23d 0d0b 03be
00000020: 5f15 efbd 24c4 1d3d 4a8c 743d 1884 223e
00000030: 337c 093e e40e 3bbd 3357 f63d 4e3e b73b
00000040: 5d92 36bd 881e fdbd 57ba 693b de67 8e3c
00000050: 5bff 49bd f066 adbd daac a7bd 6ff5 f83c
00000060: c445 e43d 31bd a63d a152 d03d 0cde 0a3e
00000070: c5c5 1cbd 4f6a 183e 3871 b13c da38 46bc
00000080: 2290 fabc 3d0d d43d fe45 05be 259e cdbd
00000090: 2845 82bd 02e8 a2bc 7499 763d 4ee3 503c
000000a0: 1548 72bd be17 d5bd 1bdc ff3a 4b8f a63d
000000b0: a943 25be c17b b6bc 7350 18be 4172 e9bd
000000c0: e567 613d 1585 f33c 4aba bbbd 9aa2 f2bb
000000d0: fa22 413d adb1 313d b240 39bd 25ad 1dbe
000000e0: c924 bfbc aee9 28bd 837d 623c 535a 813c
000000f0: 12b4 f5bd 1705 053e e378 e23d 8551 17bd
00000100: cbbc d93d e2c3 873d c5de 063e f5c0 e33c
00000110: 0b3a 1fbe 0049 813d e810 843d 964b c23d
00000120: 479f a63d 6035 03bd 498f f13d a877 a73d
00000130: edc1 f3bd 2357 f2bc f407 11bc 22aa 7f3d
00000140: bf76 073e 6976 8a3d 26b4 7dbd 6198 7ebd
00000150: 33b1 773b 450e 93bb 7afa 2c3c 7f6e 50bd
00000160: e707 713c 0951 04bc 2a9e 12be 32b4 c83d
00000170: 855b 073e e756 7f3d 3d67 063e 75ee b8bd
00000180: 81cf 6c3c 2820 043c af44 343e 9846 a8bd
00000190: 906f 1d3e 04a2 1cbe e71c e3bd 45b2 afbb
000001a0: 31c1 f33d 5aba 45be cf76 563d 1334 ed3d
000001b0: 7c81 003e 8bff c83d 5e93 80bd cf90 dbbd
000001c0: 050d ca3c 1dbc f4bb 6a65 1dbe 5859 acbd
000001d0: 8209 eb3c 4657 b53b 1485 07bb de8f 4a3d
000001e0: 9dd6 52bc f79b e13d 6b7b 24bc 1eb6 393e
000001f0: c552 523b db6d c1bd 4752 acbd e0bb 0e3c
00000200: bac1 08bc 707d b33d f275 bc3c 7f92 aebd
00000210: 60fd cf3b f307 02be a8d4 ef3c 0c50 2e3d
00000220: 78f1 0c3d 22d7 c1bd 0232 f5bd 59d9 78bc
00000230: 2fc9 31bd 2c0d d1ba 703e 25bc f6d4 d1bd
00000240: f194 8b3d 5cd4 c1bd d0ab febd f764 32bd
00000250: d302 0bbe 6bfa 533d 00a4 c73b fedf d93d
00000260: c82d dfbd 15d8 bcbc 4f6d 61bd ffd6 25bd
00000270: 303b 013c 3597 d7bd 5819 c5bd 6cd0 3a3d
00000280: 99fc 563c 47b7 4cbd 0969 893c 8d22 953c
00000290: 2cb9 b4bd eae1 10bc 4686 1d3d cf47 ff3c
000002a0: 329b 823d cd23 8ebc 1823 9a3c 84a1 d6bd
000002b0: e7f2 1f3d e592 92bd c15d fbbd a848 30bd
000002c0: cc6e 6abd a0fd b63d a186 543d 00ac e53c
000002d0: 1062 73bd 522c 16ba b058 f7bc 0233 ebbd
000002e0: 78ec 85bc 5552 373d 8fe1 b3bc 6f7c d03d
000002f0: 30b4 b8bc 9a19 883d 8512 bf3d bab4 63bd
00000300: 466a 0fbe 7d38 7bbc b096 26bd 79b1 d93d
00000310: d92c 3cbd 0f32 023e ba5b 12bd f3d1 1ebb
00000320: f681 8b3d d846 e63c 5d98 fcbc 0841 e03d
00000330: e350 583c d441 283e c330 bdbd bc8d b1bd
00000340: 26b7 793d 4858 523d 2263 d0bc 6c75 2e3d
00000350: 719f 283e a2a7 083d b423 84bd b1fe 80bd
00000360: 8891 713d ede5 ca3d d1c0 713d 67b3 da3d
00000370: 4e0b 8b3d f127 7b3d 4795 1c3e 945b 6dbd
00000380: 0c2c ad3c 2c24 163d bfee a0bb e38b a13d
00000390: fe29 433e 0f55 4dbd 46fa 8f3d f95d 1f3e
000003a0: ea8d 293e b4d2 3bbc 1d5f e63d 7d59 0d3e
000003b0: 7758 37bd bb1d 373e f9f5 fa3c f908 2dbe
000003c0: 0d12 393e cfcc bbbd 404d febd 7659 0dbe
000003d0: bbe9 ea3d d82f 0cbd ceb6 2dbe 1778 8dbd
000003e0: 3f22 dabc 6b77 2ebd 07d7 943d 86f5 1c3e
000003f0: 3970 88bd cb4a 06be 42f2 d03d 3a14 073e
0.059007186 0.07848908 0.085317366 -0.1187831 -0.02243002 0.02675215 0.09482828 -0.12797184
-0.11673998 0.038517132 0.059704103 0.15870702 0.13426284 -0.045668498 0.12028351 0.005592144
-0.044573177 -0.12359339 0.0035664046 0.017383512 -0.04931579 -0.084668994 -0.08187266 0.03039047
0.11146119 0.08141554 0.1017201 0.13561267 -0.038274545 0.14884304 0.021660432 -0.012098515
-0.030586306 0.103540875 -0.13014981 -0.10039929 -0.06360847 -0.01988602 0.060204938 0.012749506
-0.059150774 -0.10404919 0.0019520553 0.081328 -0.16139092 -0.022275807 -0.14874439 -0.11398745
0.055030722 0.029726544 -0.09166391 -0.0074046375 0.047152497 0.043382335 -0.045227714 -0.1539808
-0.02333297 -0.04123848 0.01382387 0.01579014 -0.11997236 0.12990223 0.110582136 -0.036942977
0.106317125 0.066291586 0.13170917 0.02780197 -0.15549485 0.06312752 0.06448537 0.09487073
0.081358485 -0.032033324 0.117949076 0.081771195 -0.11902223 -0.029582566 -0.008851994 0.06241811
0.13228892 0.06760866 -0.06193938 -0.06215704 0.0037794828 -0.004487785 0.010557765 -0.050886627
0.014711357 -0.008075961 -0.14318147 0.097999945 0.13218506 0.062338736 0.1312532 -0.09029857
0.01445377 0.008064307 0.17604326 -0.0821659 0.15374589 -0.15296179 -0.11089497 -0.0053618276
0.11902083 -0.19309369 0.0523594 0.11582198 0.12549394 0.09814366 -0.06278108 -0.107209794
0.024664411 -0.007468714 -0.15370718 -0.084154785 0.028691057 0.0055340854 -0.0020678686 0.04945361
-0.012868551 0.11016076 -0.010039191 0.18135878 0.0032092792 -0.094447814 -0.08414131 0.008711785
-0.008346969 0.0876416 0.02300546 -0.08524036 0.0063473433 -0.12698345 0.029276207 0.042556807
0.03440997 -0.094648615 -0.11972429 -0.0151885385 -0.043404754 -0.001594936 -0.010085687 -0.10245697
0.06815518 -0.094643325 -0.124351144 -0.04355332 -0.13575296 0.05175249 0.0060925484 0.10638426
-0.10897404 -0.023052255 -0.055035885 -0.04048824 0.007887647 -0.10526887 -0.096239746 0.045608923
0.013121747 -0.049979474 0.016773717 0.018204952 -0.08824381 -0.008842925 0.03845813 0.03116217
0.063772574 -0.017351056 0.018815562 -0.104800254 0.03905001 -0.07156924 -0.122737415 -0.04303804
-0.05723457 0.08935094 0.051886205 0.028036118 -0.05941969 -0.000572865 -0.030193657 -0.11484338
-0.016348109 0.044756252 -0.02195814 0.10179984 -0.022546858 0.06645508 0.09329704 -0.055592276
-0.14005384 -0.015333292 -0.04067105 0.10629553 -0.045941208 0.12714408 -0.03573201 -0.0024234026
0.068118975 0.028109953 -0.030834371 0.10949904 0.013202879 0.16431361 -0.09237816 -0.08669612
0.06096568 0.051353723 -0.025437895 0.04259245 0.16467072 0.033362992 -0.06452122 -0.062985785
0.05897668 0.09907136 0.059021775 0.106787495 0.067892656 0.061317388 0.1529132 -0.057948664
0.021139167 0.03665559 -0.0049112733 0.078880094 0.19058987 -0.050129946 0.07030158 0.15563191
0.16558042 -0.01146381 0.1124861 0.13803668 -0.0447621 0.17882435 0.030634867 -0.16897954
0.18073292 -0.091699235 -0.12417078 -0.13803658 0.11470362 -0.034225315 -0.16964266 -0.06907671
-0.026627658 -0.042594355 0.07267576 0.15328035 -0.0666203 -0.13114469 0.10202457 0.1319131

layer2.bias f4 [64]
00000000: c014 cbbc ed50 f33d 59f1 cbbd 122f 8a3d
00000010: a46c ed3d b966 ce3d 4c98 723d c926 a3bd
00000020: 1ec6 263d 864e 4dbd b196 c0bd ac0e aebd
00000030: 8d1c 42bc 17e9 723d 74a5 ea3b cb4a 1c3e
00000040: 0f09 debc cab6 c9bd 80b6 243d 7fd5 ce3d
00000050: 4104 063d d9f2 77bc 91c9 02be 211f fc3d
00000060: f6f5 ebbb 0768 3e3e 978f 64bd 0ef2 e1bd
00000070: bbed b63a 17e4 333e ec69 af3d 8967 ed3c
00000080: 0712 9bbd 9813 333e acc3 11bd 123c 67bc
00000090: cb74 5ebd 23c8 bfbd 122e c9bd 1970 8c3d
000000a0: a6b2 c33d 9a2a a5bd b13e bdbd 0882 eabb
000000b0: 139f bc3d 8d25 7c3d 5820 dabc c8a1 9a3d
000000c0: 3c25 eb3d 1fe5 7e3d 44f9 cabd fc11 1c3e
000000d0: 65c1 143e 2123 abbd c3c9 9dbd d9e1 463e
000000e0: f012 e83c 4d19 823d 8f3b e83d edb6 9dbc
000000f0: 9672 313c 80c3 3d3d df19 953d ce70 d13d
-0.024790168 0.1188067 -0.09958143 0.06747259 0.11592987 0.100781865 0.059227273 -0.07966382
0.040716283 -0.050123714 -0.09403742 -0.08498892 -0.011847627 0.059304323 0.007160837 0.15262906
-0.027103929 -0.09849317 0.040213108 0.10099315 0.0327189 -0.015133583 -0.12772204 0.12310625
-0.0072009517 0.18594371 -0.055801 -0.110324964 0.0013956347 0.17567478 0.08565125 0.028980033
-0.07571798 0.17487943 -0.035586998 -0.014113443 -0.0543106 -0.09364345 -0.0982324 0.068573184
0.09555559 -0.08064766 -0.09240473 -0.007156614 0.092100285 0.06155925 -0.02662675 0.075503886
0.11481711 0.062230226 -0.09910825 0.15241235 0.14526899 -0.0835631 -0.077044986 0.19422092
0.028329343 0.06352482 0.11339485 -0.019252265 0.010830542 0.04632902 0.07280325 0.10226594

layer3.weight f4 [1, 64]
00000000: b023 973d cac9 023e ea7b 513c df57 063e
00000010: 4d74 0e3e 503f ca3d 8dbd d8bd 9838 833d
00000020: 1b6d 8e3d 39a9 90bd 51c6 57be fd9c 1cbe
00000030: 71d9 3b3e 93a4 3c3e ea44 c9bd 8575 3e3e
00000040: 34c4 f6bd 76f6 b2bd 0596 4fbe c05c f33d
00000050: 55b6 4f3d 9569 01be aada 823d 91a2 063e
00000060: b6bd c0bd 553d b03d 939a aabd 6096 31bd
00000070: 387c aebd b3fb 8d3d 3589 07be 8840 033d
00000080: 87bc 1ebe 1070 e53d 3073 4c3e dd44 46be
00000090: 5881 3ebe 85da acbd a8a1 96bc 694f 143e
000000a0: f230 ee3d 42fe 24be f10d 25be 0892 3cbe
000000b0: e786 a4bd f7b7 f73d e884 9e3d 2290 4e3e
000000c0: 1c27 0b3e 0ab1 b83d 4c16 21be f1a9 a93d
000000d0: 610b ea3d 0190 c9bd 00cd ca3c dceb 513e
000000e0: 21dd 4f3e 0c28 2cbe 646a eb3d 7740 14be
000000f0: b305 a5bd 861a 053e baf9 13be a65a 3d3e
0.07379854 0.12772289 0.012785891 0.13119458 0.13911553 0.09875357 -0.10583029 0.06407279
0.06954404 -0.07063527 -0.21071745 -0.15294261 0.18344666 0.18422155 -0.098275974 0.18599518
-0.120491415 -0.08738415 -0.20272072 0.11882925 0.050710995 -0.12637933 0.06389363 0.13147952
-0.094111845 0.08605448 -0.08330264 -0.0433563 -0.085197866 0.069327734 -0.13235934 0.032043964
-0.15501605 0.11203015 0.19965816 -0.19362207 -0.18604028 -0.08440117 -0.01838763 0.14483418
0.11630429 -0.16112617 -0.161186 -0.18415082 -0.08033543 0.120956354 0.077401936 0.2017217
0.13589138 0.090181425 -0.15731162 0.08284367 0.114279516 -0.0984192 0.024755955 0.2050013
0.20299198 -0.16812152 0.11494902 -0.14477716 -0.08057728 0.12998399 -0.14450732 0.18491611
