PPO_example/ppo_actor.pth (torch, 20135 bytes, 5 tensors)

layer1.weight f4 [64, 3]
000000 a5 38 c0 be 81 99 be be b6 57 a5 bd 16 37 9c 3e
       -0.37543216 -0.3722649 -0.0807337 0.30510777
000010 c8 b4 10 bf a5 65 82 be 67 3a 04 3f a7 d8 81 3c
       -0.5652585 -0.25468174 0.51651615 0.015850378
000020 11 64 8f be d8 29 8f be b6 86 09 3f fd be 41 3e
       -0.28006032 -0.27961612 0.5372118 0.18920512
000030 7f ba 0e bf 43 9c 17 be d6 02 8f be 5a ec 62 3e
       -0.5575332 -0.14805703 -0.2793185 0.22160473
000040 41 d8 bd be b0 4b 34 bd fc ec 30 be 23 ea 04 3e
       -0.3707905 -0.044017494 -0.17277902 0.12979941
000050 21 aa 8b 3e a7 05 c5 3e bd 51 b9 bc 65 3b 8c be
       0.27278236 0.38480875 -0.022621984 -0.27389064
000060 28 38 6e be b9 8c e7 3e bd ba 03 be 86 1e 76 3e
       -0.2326361 0.4522455 -0.12864204 0.24035081
000070 43 0f e0 3e d5 24 c7 be 0c 9c d8 be 6c 99 0b bf
       0.43761644 -0.38895288 -0.42306554 -0.5453098
000080 7c 61 d9 be 5e 8f d1 3e 84 c6 de 3e 1d be 90 3e
       -0.42457187 0.40929693 0.4351083 0.28270045
000090 a2 c9 0c 3f ed e3 e2 be 43 4e f8 be 10 2d 29 3e
       0.5499517 -0.4431452 -0.4849721 0.16521096
0000a0 ea 97 ad be 07 b6 d4 3e a9 37 ff 3d c5 c8 f6 bd
       -0.33904964 0.41545126 0.12461788 -0.120500125
0000b0 ff e6 00 be 2f 61 e3 be ed 16 84 3e 2e b1 e9 3e
       -0.12588118 -0.44410083 0.2579874 0.4564299
0000c0 ae e0 16 3e ac 7c e3 bd a3 06 62 3e a1 ce a7 be
       0.14734146 -0.11107764 0.22072844 -0.32774833
0000d0 4a 86 da be a0 81 3e 3e 2a a4 d4 be b5 22 11 bf
       -0.4268058 0.18604136 -0.41531497 -0.56693584
0000e0 94 d6 9b 3e b4 92 13 3f 0c 1e 6c bd 69 26 fa 3e
       0.30437148 0.57645726 -0.057645842 0.4885743
0000f0 76 7d db 3e 89 14 de 3e 64 ec a8 3e 08 64 39 be
       0.42869157 0.43375042 0.32992852 -0.18104565
000100 78 31 08 bf 02 d6 89 be 32 07 5c 3e 22 22 7a 3d
       -0.53200483 -0.26921088 0.2148712 0.061067708
000110 7c 5e fb 3e bf eb a4 bd ea 22 9c 3e 05 d8 34 be
       0.49095523 -0.080527775 0.30495387 -0.1766053
000120 44 fe 02 bf 9e 3c 92 3d b7 bd d6 be fb 9e a5 be
       -0.5116923 0.07140468 -0.41941616 -0.32347855
000130 0a 18 0a bf 32 8a f2 be a0 f7 eb be d5 a7 e7 3d
       -0.5394293 -0.4737106 -0.4608736 0.11311308
000140 93 e2 fe be cc 54 0e bf 1e 3d a5 bd 8a 4b 95 bd
       -0.49782237 -0.5559814 -0.08068298 -0.072897986
000150 74 51 42 be 3e 0a ab ba 23 3f 93 be 95 12 ca 39
       -0.18976384 -0.0013049317 -0.28759107 0.00038542287
000160 16 1a ba be e4 bb 02 bf b7 93 a9 3e c0 7f 5c be
       -0.36348027 -0.5106795 0.3312051 -0.21533108
000170 37 14 09 bf ed 28 a3 3e a1 d3 29 3c 30 40 cd 3e
       -0.5354647 0.3186716 0.010365398 0.40088034
000180 3f cb 99 3c b2 5e 05 bf 48 4f 0a 3f ac 81 8e 3e
       0.018773673 -0.5209762 0.54027224 0.27833307
000190 5e 01 76 3e 6c 2c 00 bf 0f e5 aa 3e 19 92 3e be
       0.24023959 -0.5006778 0.33377883 -0.1861042
0001a0 d4 52 c3 bd 9d d2 a3 3e 15 ed 05 3f fb 80 91 be
       -0.095372826 0.31996623 0.52314883 -0.28418717
0001b0 7b 0f be be 5c 5a 9d 3e 65 fe cb be 13 18 a2 3e
       -0.37121186 0.30733 -0.39842525 0.31658992
0001c0 4f 8b 6b be 1a 76 08 bf f7 68 f8 3c a1 f0 96 3e
       -0.23002361 -0.5330521 0.030323489 0.2948046
0001d0 29 03 8f 3e f9 65 df bd 59 99 88 3d 71 1c 20 3e
       0.27932099 -0.109081216 0.06669874 0.1563585
0001e0 a6 94 7a be 51 bb fe bd 26 96 cc 3d 59 ba d3 be
       -0.24470767 -0.124380715 0.09989576 -0.4135311
0001f0 7b 61 2e be 1b 1d 9e 3e 5e 90 41 3e 36 91 e0 3e
       -0.17029373 0.3088158 0.18902728 0.43860787
000200 25 60 c6 be fc 53 e0 be e4 14 7c bd fa 32 c6 3e
       -0.38745227 -0.43814075 -0.06154336 0.38710767
000210 ce 7d ed 3e b0 4e 01 bf 68 05 c0 3e 36 82 00 3d
       0.46385044 -0.5051069 0.37504125 0.03137418
000220 db 2c a8 be bc a6 0e bf 3d 1e 96 3d 11 47 f9 3d
       -0.32846722 -0.55723166 0.07329986 0.12171758
000230 7e ca 13 3f 69 0a 12 3f 2a c1 eb be b9 b5 b5 3d
       0.57730854 0.57047135 -0.4604581 0.088725515
000240 2f 29 c1 3d 14 2b 5c be d3 5f fe 3e 69 d6 d4 3e
       0.09431683 -0.21500808 0.49682483 0.41569832
000250 76 ae 72 be 72 e1 fa be 58 b7 0f 3f 3e 9e d0 3e
       -0.23699364 -0.49000126 0.56139135 0.4074573
000260 1f 72 dd 3e 8b 23 fd be 0f 89 f3 be 19 84 07 3f
       0.4325113 -0.4944118 -0.47565505 0.5293594
000270 93 a2 91 3d 3d 87 0d 3f 1d 79 c5 bd 2e dd a3 3e
       0.07111087 0.5528448 -0.09642241 0.32004684
000280 87 89 6f bb 04 92 f2 be bd 65 e1 3e a7 b9 78 be
       -0.0036550479 -0.47377026 0.44022933 -0.24289571
000290 58 c0 ea 3e 71 47 59 3d b8 a3 06 be 22 23 ac 3e
       0.45849872 0.053046647 -0.13148391 0.33620554
0002a0 fb 54 1c 3d 8a 33 3f bd e7 0b a7 3e 91 bb fe bd
       0.03816698 -0.04668001 0.32626268 -0.12438119
0002b0 d8 df a7 be 16 be f4 bd ae 92 0b bf 2f 12 c8 bc
       -0.32787967 -0.119503185 -0.5452069 -0.024422733
0002c0 13 89 c8 3e 71 1a be bd 13 55 ba 3d f3 68 f9 3e
       0.3916708 -0.09282387 0.09098258 0.48712882
0002d0 64 e8 e1 be 45 86 e1 3e ba 47 d5 3d 58 8d 32 3e
       -0.44122612 0.44047752 0.104140714 0.17436731
0002e0 c7 0b ec be 5f 8b 41 3e de 18 0a bf ba a7 0f 3f
       -0.46102735 0.18900822 -0.53944194 0.56115305
0002f0 a3 06 c6 3d 4e 46 c2 be d0 9a a5 3e a7 bc b8 be
       0.096692346 -0.37944263 0.32344675 -0.3608143

layer1.bias f4 [64]
000000 78 ef a7 3e 6b 19 bb 3e fd b8 cd bd 1f 94 f8 bc
       0.32799888 0.3654283 -0.10045049 -0.030344067
000010 de c8 eb 3e a7 b1 a5 3e 5f 6f ee 3e 90 ba d2 3e
       0.46051687 0.323621 0.46569344 0.4115796
000020 b9 8b d0 bd 01 1a cf 3e 9d bc 9a 3e dd a6 d9 3e
       -0.101829 0.40449527 0.30222026 0.4251012
000030 99 41 ea 3e 79 a3 80 be 15 fb 87 be 5e 44 f7 be
       0.45753172 -0.2512472 -0.26558748 -0.48294348
000040 7a 28 6e be 68 a0 12 bf 71 ac 9a be 94 69 d3 3e
       -0.23257628 -0.5727601 -0.30209687 0.41291487
000050 e3 ab 07 3f 53 16 13 bf a1 99 ff bd 6c c2 fa 3d
       0.52996653 -0.5745594 -0.12480474 0.12244114
000060 e5 47 ae 3e 37 b9 e9 be f2 e3 99 3e de 24 96 3e
       0.34039226 -0.4564912 0.3005672 0.29325002
000070 f0 88 01 3f 98 fa d1 3d 5e 3c 94 be 3f 9b f5 3e
       0.50599575 0.10252875 -0.28952307 0.47970006
000080 dc 28 27 be fa e3 ad 3e a1 c7 81 be f9 ee 0a 3f
       -0.1632418 0.33962995 -0.25347617 0.54270893
000090 61 c9 a7 3d 3f 81 8a 3e 1c 21 02 3d 84 03 af 3e
       0.08192707 0.27051732 0.031769857 0.3418237
0000a0 c4 3a 01 3e fa a7 f4 3e 6a 45 ec 3e c4 0d 97 3b
       0.12620074 0.47784406 0.4614671 0.0046097953
0000b0 21 67 b3 3e 84 39 96 bd f5 71 03 3f ee fa fa be
       0.3503962 -0.07335189 0.5134576 -0.4901957
0000c0 d9 92 ff 3e 82 5f c2 bd b2 ec 07 3f 46 99 ec 3d
       0.49916723 -0.09490873 0.53095543 0.11552672
0000d0 13 4a 8c 3b 92 55 b7 3e 3b c4 b5 3e 4e 2e 0b 3d
       0.0042812913 0.35807472 0.35501274 0.033979706
0000e0 6c 14 d6 be 61 42 03 3f 24 08 e6 be b9 e0 e0 be
       -0.41812456 0.5127316 -0.44928086 -0.4392145
0000f0 87 48 16 3e a4 c2 e3 bd de d9 98 3e 06 9e 04 3f
       0.14676104 -0.11121109 0.2985372 0.51803625

layer2.weight f4 [64, 64]
000000 ac d1 74 bd 20 ee 69 bd 74 0f 2c bd 40 da 6f 3c
       -0.05977027 -0.05711186 -0.042006925 0.014639437
000010 c0 c2 8b 3c 32 2b d9 3d 78 a1 8f 3d 7e c8 fa bd
       0.017060637 0.10603942 0.070132196 -0.12245272
000020 f8 05 4d 3d 54 67 ba bd 94 c0 81 3d 80 f5 7a 3b
       0.05005452 -0.091017395 0.063355595 0.0038293302
000030 c8 2f 8b bd f0 8a 06 bd 78 3b ba bc 42 68 88 bd
       -0.06796223 -0.032847345 -0.022733435 -0.066605106
000040 74 cb 86 bd 8c 1e d7 3d 00 d0 85 bc 3a 49 ea 3d
       -0.06581774 0.10503873 -0.016334534 0.11439748
000050 ae 3e 81 bd 64 c9 bf 3d 88 2b cc bd d4 c5 a0 bd
       -0.06310783 0.09364584 -0.099692404 -0.07850233
000060 8e e5 f8 3d 48 04 f9 bc a8 b7 15 3d ee 1c f2 3d
       0.12153159 -0.03039755 0.0365521 0.11821924
000070 b4 29 d9 3d d8 f0 12 bd 40 ec 0f 3b 8c 44 0f 3d
       0.10603657 -0.035874218 0.0021960884 0.03497748
000080 10 83 d1 bc 50 cc 6d 3c 28 85 df 3c 3c 4f 3a bd
       -0.02557519 0.014514044 0.027285174 -0.04548572
000090 f0 53 bf bc 60 a7 59 3c be b1 84 bd 8a 64 ac bd
       -0.023355454 0.013284534 -0.06479214 -0.08417614
0000a0 b0 47 2a 3c 8c b4 8c bd e0 bb 1a 3c c0 89 e4 3b
       0.010393068 -0.06870374 0.009444207 0.006974429
0000b0 9c 4b 80 bd a8 ee ca 3c f2 32 aa 3d 48 86 67 3d
       -0.06264421 0.024772003 0.08310498 0.056524545
0000c0 e0 74 c9 3d 78 68 84 bd 68 fc 04 bd a4 15 a0 bd
       0.09836745 -0.06465238 -0.032467276 -0.078166276
0000d0 e0 f1 31 3c e0 d9 45 3d 98 71 64 3d ba 0f b1 3d
       0.01086089 0.048303485 0.055772394 0.08645578
0000e0 ac 4b 00 bd 9e fd 82 3d 5a 21 d5 bd b2 9a a7 bd
       -0.031322166 0.0639603 -0.10406752 -0.08183803
0000f0 90 1e e4 bd 66 d2 f1 bd 40 6a bd 3c 60 cd 8a bb
       -0.11138642 -0.118077084 0.023121953 -0.0042359084
000100 e8 28 05 3d e6 c8 d5 3d c8 a4 bc 3d d0 0e dd bc
       0.032509714 0.10438709 0.09211117 -0.026984602
000110 84 db 4f 3d 6c 87 6d bd f8 de c1 bd 40 c7 00 3b
       0.050746456 -0.057990476 -0.09466356 0.0019650012
000120 10 e1 df 3c 00 6e df b9 e0 2a 56 bc 78 b9 97 bd
       0.027328998 -0.0004261583 -0.013071746 -0.07408422
000130 84 f4 12 bd a8 d0 9c bc da 97 d5 bd bc f1 58 bd
       -0.03587772 -0.019142464 -0.10429354 -0.05296491
000140 7c d3 f0 bd 10 58 32 3d 76 ef 9f 3d 08 e1 b1 bc
       -0.117590874 0.043541014 0.078093454 -0.021713749
000150 74 ac e4 bd cc 48 8f 3d c0 58 7d 3c b0 af ce bc
       -0.11165705 0.06996307 0.015463054 -0.025230259
000160 76 b9 d2 bd 2e 4a e0 bd 80 8e ed 3c 2c 37 c6 3d
       -0.1028928 -0.10951649 0.028998613 0.09678492
000170 40 3c 1c bb 4c e5 91 bd 88 b5 12 bd 76 93 8f bd
       -0.0023839623 -0.07123813 -0.035817653 -0.07010548
000180 00 14 f4 ba ba 21 89 bd 18 83 1b bd 80 2b fa bd
       -0.0018621683 -0.06695886 -0.037966818 -0.12215328
000190 20 0f 08 bd 58 1a b1 3d 86 7a bf bd 40 8f 6f 3c
       -0.03321755 0.08647603 -0.09349541 0.014621556
0001a0 04 72 de bd 6a c1 a0 bd 84 6c 9e 3d 80 12 fa bb
       -0.108615905 -0.07849391 0.077355415 -0.0076316
0001b0 76 c5 cb bd 60 a6 98 3c e0 f3 61 3d be 83 91 3d
       -0.09949772 0.018634021 0.055164218 0.07105206
0001c0 1c 96 d0 3d 80 f7 6a bd f4 a1 e2 3d 80 57 93 bd
       0.10184881 -0.05736494 0.11066046 -0.07194424
0001d0 d6 1c c7 bd fc 36 17 bd 48 5b 08 3d 10 49 51 bc
       -0.09722297 -0.03691767 0.033290178 -0.012773767
0001e0 a0 df 88 3b 40 d1 85 3d e0 b4 b8 bc 64 62 f4 3d
       0.004177049 0.06534052 -0.022547185 0.11932829
0001f0 68 2b b1 3c d0 31 54 3d d6 99 ba 3d 98 1f 97 bd
       0.021627143 0.051805317 0.09111373 -0.07379073
000200 88 01 76 3d 44 47 22 bd ee 48 cf 3d 98 60 f2 bc
       0.060060054 -0.039618745 0.10121332 -0.029587075
000210 d2 2e ca 3d 2c 38 66 bd f8 c9 ca bd 18 09 84 bd
       0.098722115 -0.056205913 -0.09901804 -0.06447047
000220 f4 42 5e 3d c0 64 d4 3d c0 16 cd 3c b6 31 cf 3d
       0.05426307 0.10370779 0.025035262 0.101169035
000230 9c 30 44 bd 6c c7 80 bd 12 e1 c8 bd 4a ea cd bd
       -0.04789792 -0.06288037 -0.09808554 -0.10054453
000240 00 c9 5e bb cc d2 84 bd c8 fa ce bc e0 44 e7 bd
       -0.0033994317 -0.06485519 -0.025266066 -0.11292434
000250 a0 fd a4 3b 70 c5 02 3c 3c 90 3a bd 20 1d 6b 3c
       0.0050351173 0.007981643 -0.04554771 0.014350206
000260 bc b1 26 bd a0 81 7e 3d 18 69 52 3d b8 3a ee bc
       -0.040696844 0.06213534 0.051369756 -0.029080734
000270 40 e6 64 3c c0 c7 2d bb 02 cc 8b 3d 88 aa ba bc
       0.0139709115 -0.0026516765 0.06826021 -0.022786394
000280 a0 fd fa 3c f4 24 4c 3d 5a ae ba bd 80 5d 5b 3c
       0.030638516 0.04983993 -0.09115286 0.013388991
000290 d8 73 05 3d f4 be 23 3d 3c 66 b8 3d a0 8e ad bb
       0.03258118 0.03997703 0.09003875 -0.0052965432
0002a0 5c 4b 8a 3d c2 66 df bd 28 b2 55 bd 50 bd 7d 3c
       0.06752655 -0.10908271 -0.052171856 0.01548703
0002b0 6c 96 ac bd c0 b3 5b 3c 36 e1 ff bd c8 17 b2 bc
       -0.08427128 0.013409555 -0.124941275 -0.021739855
0002c0 44 b6 a2 3d ce 4a e6 3d ac 72 0e 3d f8 62 0b bd
       0.07944921 0.112447366 0.03477733 -0.03402993
0002d0 98 42 37 3d 66 81 94 bd 98 9e 8b bd 12 60 f5 3d
       0.044741243 -0.07251243 -0.06817359 0.119812146
0002e0 00 c9 42 3c 1c 75 96 bd c8 4b c0 bd 4c 4c b9 3d
       0.011888742 -0.073465556 -0.09389454 0.090477556
0002f0 62 6b ed bd a4 69 85 3d 5e 9f 90 bd 7a 82 95 3d
       -0.11592747 0.0651429 -0.07061647 0.07300277
000300 64 31 7a bd 68 4e 5d bd 3e d2 a2 bd 80 b9 da 3d
       -0.06108226 -0.054029852 -0.07950257 0.106799126
000310 ce d8 f4 3d f2 d5 fa bd 60 99 d6 bc 52 fb e8 bd
       0.11955415 -0.12247838 -0.026196182 -0.113760605
000320 ae 72 e1 3d 7c 71 f3 3d ae 7d da 3d 7a 14 84 3d
       0.110082015 0.1188688 0.10668503 0.06449218
000330 00 75 c6 bd 00 c9 9d bc b6 4a d9 3d 30 1c 48 3d
       -0.09690285 -0.019260883 0.10609953 0.048855007
000340 00 be f0 ba dc 61 d5 3d 80 99 d9 3d d8 99 6e bd
       -0.0018367171 0.10419056 0.10624981 -0.058252186
000350 f0 7a 8a 3c e8 d7 d1 3c 1c f7 c1 3d 48 34 bf bc
       0.016904324 0.025615647 0.094709605 -0.02334036
000360 02 2a b0 3d 40 51 ed bd c6 6e b1 3d e0 0a 07 3d
       0.08601762 -0.11587763 0.086637065 0.032969356
000370 74 f7 73 3d c4 14 1b 3d 50 2e 21 3c 30 a3 3a bc
       0.05956216 0.0378616 0.009837702 -0.011391446
000380 80 4c 09 3b f8 a2 d3 3c 4c bd 1f bd 08 27 ae 3d
       0.0020950139 0.025834545 -0.038998887 0.08503538
000390 36 6e aa 3d 40 16 56 bb 00 2a 04 bb c6 bd aa 3d
       0.08321802 -0.003266707 -0.0020166636 0.08336978
0003a0 44 f0 fc 3d 1a 3c bb 3d fa ba 8f 3d f0 2f 36 bc
       0.123505145 0.09142323 0.07018085 -0.011119828
0003b0 c8 66 76 bd be 73 eb bd 10 05 a6 bc d0 ea d2 3d
       -0.060156614 -0.114966854 -0.020266086 0.10298693
0003c0 30 b1 e1 bd 98 68 dd 3c 90 05 59 3c 58 c6 d3 3c
       -0.11020124 0.027027413 0.013245955 0.025851414
0003d0 08 d4 d5 bd be 05 91 3d 24 7e 54 3d 20 73 09 3c
       -0.104408324 0.07081173 0.05187811 0.008389264
0003e0 00 75 3e ba 84 cb 26 bd 86 e3 b6 3d 32 16 fa 3d
       -0.0007265359 -0.04072143 0.089301154 0.12211265
0003f0 98 61 7a 3d 7a 71 cd bd 06 7d b9 bd 04 4c 6e bd
       0.06112823 -0.100314096 -0.090570495 -0.058177963

layer2.bias f4 [64]
000000 e8 d7 46 bd be 47 ee 3d 5c 49 5f 3d 0c f1 e4 3d
       -0.048545748 0.116347775 0.05451332 0.111787885
000010 f0 36 33 bc d8 20 71 3d 88 85 4c bd f0 d4 11 bc
       -0.010938391 0.058869213 -0.049932033 -0.008900866
000020 44 67 1e bd d0 b3 19 3c ce bb 92 bd 24 66 60 bd
       -0.0386727 0.00938125 -0.07164727 -0.05478491
000030 94 c8 4a bd c0 8d 53 3c d0 2d 96 bd 38 c5 f6 bc
       -0.049507692 0.012912214 -0.07332957 -0.030123338
000040 b8 7a c6 bc 2a 07 9e 3d c0 22 1b bd 80 7e 77 3c
       -0.024228439 0.0771621 -0.037874937 0.015105844
000050 60 6a 8f 3d 4e 61 98 bd 54 91 10 3d 4c c1 a4 bd
       0.07002711 -0.074404344 0.035294846 -0.08044681
000060 08 2b fe bd fe 82 ab bd 40 ef c2 bd 38 dc 0e 3d
       -0.12410551 -0.08374594 -0.095182896 0.034877986
000070 9c c3 d1 bd 04 5e dd bd be d3 94 3d f8 1d 01 bd
       -0.10242388 -0.10808948 0.07266949 -0.03152272
000080 88 65 b4 3d ec c3 55 3d f0 71 47 bd 34 02 99 bd
       0.08808428 0.0521888 -0.048692644 -0.07471123
000090 a4 68 b7 3d 90 aa e1 3d a0 31 bb 3b 3c fe a4 3d
       0.089555055 0.1101886 0.005712703 0.08056304
0000a0 40 95 cd bc c6 3e c0 bd 4a 00 83 bd ac 0f 1e bd
       -0.025095582 -0.09386973 -0.063965395 -0.038589165
0000b0 de 99 fb bd 14 27 92 bd 22 38 e0 bd 42 8d e9 bd
       -0.12285207 -0.0713636 -0.109482065 -0.11403896
0000c0 c0 79 0d bd 9c 68 a7 3d b0 2a 61 3c e6 50 cd bd
       -0.034539938 0.081742495 0.013743088 -0.10025196
0000d0 1c fc 00 3d e8 1b fa bc e4 12 3d 3d 64 c6 8b bd
       0.03149043 -0.030530885 0.046160594 -0.068249494
0000e0 60 39 6c 3d d8 88 f6 bd c0 4c a3 3d 2e 93 ba 3d
       0.057671905 -0.120378196 0.07973623 0.091101035
0000f0 f8 84 d4 bd 52 51 8a bd 88 a3 fc bd f8 35 42 bd
       -0.10376924 -0.06753792 -0.123358786 -0.04741475

layer3.weight f4 [1, 64]
000000 d5 9d 38 bc f8 71 96 bd fa c3 c0 3d 2d 5c 97 bd
       -0.011268099 -0.073459566 0.094123796 -0.07390628
000010 00 fb 33 bc 9a 8c ba bd 40 09 a3 bd e7 92 06 be
       -0.010985136 -0.09108849 -0.07960749 -0.13141976
000020 a8 60 8f 3d 1a 93 34 3d 30 b2 d8 3d 25 dd 7d 3d
       0.070008576 0.0440856 0.105808616 0.061978478
000030 da 4d 8f bd 48 e7 b1 bd 86 4c a4 bd 66 c0 06 bd
       -0.06997271 -0.086866915 -0.08022408 -0.03289833
000040 d6 dd cf 3d bc c2 ec 3d 8b 24 8a bd a9 24 cc 3d
       0.10149734 0.1156058 -0.06745251 0.0996793
000050 a0 a6 e9 3d c6 03 e6 bd 52 c2 67 3d bd 0c 8b ba
       0.11408734 -0.112311885 0.056581803 -0.0010608655
000060 3b a8 56 3d 07 f9 ca bd 73 4e d7 3d ce 82 a6 3d
       0.05240653 -0.099107794 0.1051301 0.08130418
000070 dd 29 68 bc 30 a6 6b 3d ed ce f8 3d 72 c1 a8 3d
       -0.014170137 0.057531536 0.12148843 0.08240022
000080 1b 52 d7 3c d7 79 eb 3b 2e d3 b7 bd 43 51 4e 3c
       0.026284268 0.0071861553 -0.08975826 0.0125926165
000090 6a cd a2 3d 15 8c a0 3d 54 83 8b bd 3f b7 f5 3d
       0.07949336 0.078392185 -0.06812158 0.11997842
0000a0 4b 2c 69 3d d6 4a 81 bd 7e f0 aa bd 3f 75 02 3d
       0.056927007 -0.06313102 -0.083466515 0.031850096
0000b0 b3 27 a6 bd 70 7a 1c bd ad 82 b9 3d 95 4f 9a 3d
       -0.08113041 -0.038202703 0.090581276 0.0753471
0000c0 11 03 2c 3d 6c ab af 3d d4 97 e2 bd 60 c2 f1 3c
       0.04199511 0.08577618 -0.11064115 0.02951163
0000d0 75 fd d8 bd 1e 73 56 3d f4 9c 41 bd b9 e0 f3 bc
       -0.10595218 0.052355878 -0.047268823 -0.029770242
0000e0 4e e8 bc 3d a8 17 f9 3d ef a9 d0 3d bf 69 81 3d
       0.09223996 0.12162715 0.10188662 0.063189976
0000f0 a7 85 e2 bd 0c 8e 91 3d 01 2f ae bd 08 85 35 bd
       -0.110606484 0.071071714 -0.08505059 -0.04431632
