PPO_example/ppo_actor.pth (torch, 20135 bytes, 5 tensors)

layer1.weight f4 [64, 3]
00000000: c9dc 093f 9589 f13e 0a93 f73e 1643 503e
00000010: 04f3 d0be 15d3 083e 93ee 02bf 38f9 823d
00000020: dd5f dcbe cb26 103f 94d7 d9be 6d24 103f
00000030: de31 7abe aaca 083f 488e c13e a719 46be
00000040: 6b08 5a3e 799c a6be 9cfc 96be 756e 9e3d
00000050: 56bd 8e3e 81d0 d83e d35b bd3e 131e a23e
00000060: aab4 bdbe 1f9c 4f3e cc40 ba3e 5bd2 82bc
00000070: 196d 023f 0248 9bbc d964 81be a151 ba3e
00000080: 62dc 2c3d 495b a5bd 30ab 8f3e 4727 08bf
00000090: dec8 04bf 253e c8be 0575 63bd 3162 b9ba
000000a0: dff2 de3e d1f3 9a3e baca c2be f7af 633e
000000b0: cb26 b3be 6f22 58be 9913 acbe 6fc2 a63c
000000c0: 0f0e 6abd c66a 7cbd d8a9 2b3e 91ca a2be
000000d0: 1053 bbbe 2bef 653e f937 c63e 8061 963e
000000e0: 3337 b23e ba7d 04bf 6f69 e93e 06ea 02bf
000000f0: 5da9 c1be b37d ae3e 5a46 863d 7a67 ebbe
00000100: f0d1 15be 4534 4a3e ad89 07bf b49a 8b3d
00000110: 2410 0abf 217f 083f b848 d6be e39e ef3d
00000120: 33fc 39bd b498 ce3e a285 ab3e 455d 043f
00000130: 07e4 a63e b318 193d adf4 3abd deca e73e
00000140: 44c5 3fbe 5f6f 5f3e a131 8f3e 0824 173e
00000150: ea4f 853e 9384 d5be 8a5c ff3d 2237 abbc
00000160: 2c86 f33d b17d d83e fb02 013f d66e 1b3d
00000170: c36d 013f f645 cbbe cb02 08bf 9fd0 b03d
00000180: 8624 b7bd d712 1dbe 2d9f 003f 85e2 b1be
00000190: b03f 973e 5681 cc3e e68f 0fbf a0b0 5b3e
000001a0: a4ff 8dbe ad6e 36be 688e c73d fa24 0c3d
000001b0: 0b03 76be b012 ec3e 3c1f 053e a2d2 95be
000001c0: 63c7 67be 2e40 eabe 1c11 87be 1258 d33b
000001d0: 3a56 073f 7d30 593d 527b a63e 42e4 213e
000001e0: 65c0 273d cee9 0a3f fb79 ddbe 0d63 fcbd
000001f0: a90d 843d 7625 93be ceb4 39be d090 edbe
00000200: a3fa f4bd db73 03bf 6f87 e63e bb17 1fbe
00000210: d8b3 e5be 2f48 063f 62fd df3d e9b2 b5be
00000220: 77ed 103e 2e2b eabe 0a85 e0be d7cd 2abe
00000230: ee5d 023f 089e 49be 771b 0f3f bacc 063f
00000240: ee9b d6bd 09c6 6abe 4361 aabd 0581 8dbe
00000250: 6c4c 82be aa84 e3be a878 55bd 371d e0be
00000260: c607 a0be 7062 173e 0594 4abe 3b0f 113f
00000270: 518e 30be 0897 013f f622 103f 71de 7b3e
00000280: d4b0 0a3f eaef ee3d c92a b03e c353 0bbe
00000290: b424 373e c251 a5be 6810 6c3c 3b52 c03e
000002a0: 2114 b3be 57ea 6dbe 9ffc 01bf 9e95 80be
000002b0: df96 9a3d 2960 5e3e dbc4 0ebf 5eb6 f83e
000002c0: 61a4 e0bd 90cd 95be 561f 95be a18e b63d
000002d0: f64e 54bd f39a 0a3f 5138 bcbd 5dc0 45be
000002e0: ca94 9fbe 9b89 0d3f 280c 13bf 0f76 233c
000002f0: edf5 0c3f 5e08 d2be a3a4 dc3e 9246 553d
0.53852516 0.4717528 0.4835437 0.20338091 -0.40810406 0.13361771 -0.51145285 0.06395191
-0.43041888 0.56309193 -0.42547286 0.5630558 -0.24433085 0.5343424 0.37803864 -0.19345723
0.21292274 -0.32541254 -0.294896 0.07735912 0.27878827 0.42346576 0.3698412 0.3166357
-0.37051898 0.20274399 0.3637756 -0.015969446 0.5094772 -0.018955234 -0.25272253 0.36390403
0.04220236 -0.08074052 0.28060293 -0.5318493 -0.51869 -0.39109913 -0.05553152 -0.0014143643
0.4354467 0.30264142 -0.38045293 0.22235094 -0.34990534 -0.21106885 -0.33608702 0.020356385
-0.057142314 -0.061625265 0.16764009 -0.3179517 -0.3658681 0.22454517 0.3871458 0.29371262
0.3480774 -0.51754344 0.45588252 -0.5113834 -0.37824526 0.34080276 0.06556387 -0.45977384
-0.14630866 0.19746502 -0.5294445 0.06816617 -0.5393088 0.53318983 -0.41852355 0.11700227
-0.04540653 0.40350878 0.3350039 0.5170482 0.32595846 0.03737707 -0.045643497 0.45271963
-0.18727595 0.21819828 0.2796755 0.14759839 0.26037532 -0.4170271 0.12468822 -0.020900313
0.11890826 0.42283395 0.5039517 0.0379475 0.5055811 -0.39701813 -0.5312926 0.08633541
-0.08942513 -0.15339218 0.5024288 -0.34743133 0.29540777 0.39942425 -0.56078947 0.21454096
-0.277341 -0.17815657 0.09743959 0.03421495 -0.24024598 0.46108007 0.13000196 -0.29262263
-0.22634654 -0.4575209 -0.2638024 0.006449708 0.52865946 0.053024758 0.3251596 0.1580973
0.040954966 0.5426301 -0.43257126 -0.1232358 0.06447918 -0.28739518 -0.18135378 -0.46399546
-0.11961868 -0.51348656 0.45025203 -0.15536396 -0.44863772 0.52453893 0.10937001 -0.3548806
0.14153086 -0.45736068 -0.438515 -0.16680084 0.50924575 -0.1968919 0.55901283 0.5265614
-0.1047896 -0.22927107 -0.083193325 -0.27637497 -0.2544893 -0.44437152 -0.05211702 -0.4377229
-0.3125593 0.14783645 -0.19783027 0.56663865 -0.1724179 0.5062108 0.56303346 0.24596573
0.5417607 0.11666854 0.34407642 -0.13606171 0.17885095 -0.3228894 0.014408208 0.37562737
-0.34976295 -0.23233925 -0.50776094 -0.2511415 0.075483076 0.2171637 -0.5576913 0.48576635
-0.10968853 -0.29258394 -0.2912547 0.08913923 -0.051833116 0.54142684 -0.09190429 -0.19311662
-0.31168205 0.55288094 -0.57440424 0.009976878 0.5506275 -0.4102201 0.43094358 0.052069254

layer1.bias f4 [64]
00000000: 3c05 9a3e 7079 78be 9d57 113f 1458 883e
00000010: 3874 a63e 8a96 b9be 05ab c93d f8c5 bfbe
00000020: 5fe5 7f3e ecf8 84be bec8 1f3e 8789 f33d
00000030: 8838 94be 5b4c 66be 22ce a43e 6822 153e
00000040: a523 993e 435c f63d d77d 423e dc4f 35bd
00000050: c707 cd3c 2602 013f 8301 edbe 5b69 073e
00000060: 422b 573c 52e6 5a3e 49b3 7dbb 6625 c5bd
00000070: ca3b fabd 97fb a6bd 225f b73e 7165 093f
00000080: 0c0d 91be 8f12 093f c86a 11bf e199 ebbe
00000090: ff6b 0fbe 5b64 f93e 819f 0c3f 0399 2e3c
000000a0: 0777 e8be 8346 cc3e 8c02 843d 0297 cf3e
000000b0: 44b8 11bf ad64 a4be 9e17 313e 9c45 a93e
000000c0: e7c3 813e 7505 08be 4ec7 c0be 2d4a 4ebe
000000d0: e610 0d3e ae0b 07bf 0c8b cf3e b54b 9a3c
000000e0: 7af4 edbd a129 39be 4f93 273e 8a1c 0dbf
000000f0: 6dc6 923d c619 0dbd 04ec 923e d50f e4be
0.3008212 -0.24265075 0.5677431 0.26629698 0.32510543 -0.36247665 0.098470725 -0.37455726
0.24989842 -0.25971162 0.15603921 0.11891466 -0.2894938 -0.22490065 0.32188517 0.14563906
0.29910007 0.12029316 0.18993317 -0.044265613 0.025028123 0.50393903 -0.46290216 0.13223784
0.013132872 0.21376923 -0.0038711599 -0.09626274 -0.12218435 -0.08153456 0.35814768 0.5367041
-0.28330266 0.53543943 -0.5680356 -0.46015838 -0.14006041 0.48709378 0.54930884 0.010656598
-0.4540331 0.39897546 0.06445798 0.40544897 -0.5692179 -0.3210806 0.17294165 0.3306092
0.25344774 -0.13283332 -0.37652057 -0.20145483 0.13775977 -0.52752197 0.40535772 0.018834928
-0.11618896 -0.18082286 0.16364788 -0.5512167 0.07166753 -0.034448408 0.2869569 -0.4454333

layer2.weight f4 [64, 64]
00000000: e4ba 3d3d 765a 9a3d c08b 8fbd 306d 1bbd
00000010: 44a5 d43d c046 42bb 0003 703a 30ef 95bc
00000020: 2078 1c3c 8c28 aabd fac3 d13d c44b 31bd
00000030: c4ea 3b3d 887b 6ebd 828b ebbd 7e0b ebbd
00000040: be24 f9bd b89b 8c3d bab0 e6bd 9c84 593d
00000050: 00c0 ff39 00f6 18bc d660 8cbd 0036 5abd
00000060: f8db 743d 58ca d8bc 40f7 1d3d e4a3 853d
00000070: fa27 8bbd 8450 d33d 68d1 bfbc 101c 8f3d
00000080: 0e83 ed3d 68ca 973c 3850 933d 2076 80bd
00000090: c22f f93d 9c20 bd3d 9080 793d 0686 d9bd
000000a0: 306b acbc c0ae 693d 80f2 3b3d 80f0 1bbb
000000b0: 08ed 153d 6c17 0dbd d043 433c a00a 56bd
000000c0: 609a 73bd 5079 493c c021 52bc 0018 843d
000000d0: 5035 b83c 629c 953d fa68 d23d accd 47bd
000000e0: 24ed f23d 26e2 e33d 705c 66bc bc35 713d
000000f0: 248a eabd ac1e cd3d 8e2c c1bd 482e bfbc
00000100: 086d 36bd 144b 773d 1829 af3c 425e 91bd
00000110: 0844 62bd c044 8cbd 50c6 133c 265a a13d
00000120: 7acc e03d 94a1 4cbd 98ef a8bd e0be 433c
00000130: 1641 e53d b2f6 8c3d 781a efbd 22ea d5bd
00000140: 609e 12bd a007 a53c a0be d33d 5aae d8bd
00000150: c047 d43c 2006 25bd bcc3 983d 6ae9 a93d
00000160: 98f1 f1bd ead7 a2bd 7a09 903d 46fb cc3d
00000170: 5604 f43d d81c c53d b05a f03d 3c82 ccbd
00000180: 407e a8bd ac49 a9bd badf 983d 30d0 04bc
00000190: 90fd d0bc 08c2 97bc c413 c7bd 80b3 e83a
000001a0: 8e27 ff3d 104b 093c 4036 ab3b 2a2e d8bd
000001b0: 9c4f a33d e090 6e3d 4061 e13c 0e7a 8dbd
000001c0: 46ac cb3d bafe e53d 1806 6bbd a04b e03b
000001d0: 0494 35bd 06cc d13d 6cef e3bd 2ca2 abbd
000001e0: 00c3 88bb 90a0 f9bd 961a c93d 86f4 84bd
000001f0: 18ef 823c f0fd 733d d000 1a3c 588c eabc
00000200: a0b5 a23c a44e 643d 4010 a13d a05b 08bc
00000210: 8415 3b3d ca4d f4bd f0ea e43c 1825 943d
00000220: 4e7b fdbd b89b 993d f0e4 40bc 74cc 97bd
00000230: 64ce 253d 2051 b7bb 80dd f23c 38d7 9c3d
00000240: 6879 3e3d b4ef 9e3d 2c2a 4a3d 2094 54bc
00000250: 0e1f ca3d 6044 f4bd 7604 833d a2db fd3d
00000260: 1c96 283d 786b aa3d 2832 973d 30be ef3d
00000270: 709f 3abd e440 afbd 58f1 a33c f829 aabc
00000280: 28ee f6bd 6ca8 4fbd 6a35 b73d a0dc 8a3d
00000290: ac6d 42bd 9ce5 cf3d eca2 a33d acef 8cbd
000002a0: d4d3 803d ccb2 43bd 0cc4 d7bd 849d 563d
000002b0: 6022 bfbc b447 bf3d aee0 aebd 727a 80bd
000002c0: e80e 08bd dcea 623d 98b6 8dbc 3a7b 8abd
000002d0: 2ab2 cbbd 4036 5cbb 04bd 413d 5ccb 80bd
000002e0: 78cc 523d b2d3 b7bd a0cc ffbb b01d 8bbc
000002f0: 9271 8abd 109b 4bbc e09a fe3c fee8 eb3d
00000300: 2487 e43d ec9d 2b3d 1cee 6ebd 8018 013d
00000310: 986f 2abd 4484 293d c433 b1bd 8cf9 413d
00000320: e68f 9b3d 70cd 5cbc 2038 ca3b 8033 ee3d
00000330: dec6 aa3d e2cb e53d b2d5 c4bd 0e9d a8bd
00000340: d6c6 8abd 90b7 7bbd 9c79 c93d 8af3 c23d
00000350: 06d7 f63d f00b 7abd 2043 ec3c 9c1b 083d
00000360: 882f c73c d82b 30bd 207e 013c 60f1 48bd
00000370: 50c7 92bd 0468 ebbd ec2c 8a3d 2c53 77bd
00000380: 28e9 d6bc 3492 da3d dceb 273d 000f 85bc
00000390: c41c 833d d0d4 753c d2a9 c9bd 98e2 643d
000003a0: 4634 fe3d 6650 febd 00ae 7bbc 62b6 f2bd
000003b0: d028 693d 70e7 a03d a8dc 573d beaa aa3d
000003c0: 08f5 92bd 68a2 c2bc 003c 6fba e2e0 e7bd
000003d0: 0acc e5bd c046 43bb 626e cd3d f0bf 943c
000003e0: 583b c2bd 08ac 84bd ca98 9b3d 16ad b23d
000003f0: 74f0 cfbd b882 033d 7a05 a5bd 00f0 ebbc
0.04632081 0.07536785 -0.07009077 -0.037945926 0.103830844 -0.002964422 0.00091557205 -0.01830253
0.009550124 -0.08308515 0.10242458 -0.043285146 0.045878187 -0.058223277 -0.115012184 -0.11476801
-0.12165211 0.068656385 -0.11264177 0.05310498 0.0004878044 -0.009335995 -0.068544075 -0.053274155
0.05978009 -0.026463673 0.038565874 0.065254 -0.06794734 0.103180915 -0.023415282 0.06987774
0.11597262 0.018529132 0.07193035 -0.062725306 0.12167312 0.09234735 0.060913622 -0.10621266
-0.021047205 0.05705142 0.045885563 -0.0023794472 0.036603004 -0.034446165 0.011918023 -0.052256227
-0.059473395 0.01229699 -0.012825429 0.0644989 0.022486359 0.07305218 0.10273929 -0.04878013
0.11861637 0.11127119 -0.014060125 0.058889136 -0.114521295 0.10015616 -0.09432326 -0.023337498
-0.044537574 0.060374334 0.0213819 -0.070980564 -0.05524066 -0.068490505 0.009019449 0.078785226
0.10976501 -0.04995878 -0.08248824 0.011947364 0.11194055 0.06882991 -0.116749704 -0.10445048
-0.03579557 0.020145237 0.10339093 -0.1058013 0.02591312 -0.040289044 0.07459208 0.08296473
-0.118136585 -0.079513386 0.070330575 0.10008864 0.119148895 0.09624642 0.11736047 -0.09985778
-0.08227205 -0.08266005 0.074645475 -0.008106276 -0.025511533 -0.018525138 -0.09720567 0.001775369
0.12458716 0.008379713 0.005224973 -0.1055568 0.07974169 0.058243632 0.027512193 -0.06908046
0.09944968 0.11230226 -0.05737886 0.0068449527 -0.04433061 0.102439925 -0.111296505 -0.08380541
-0.0041736364 -0.12188828 0.09819524 -0.06491952 0.01598315 0.059568346 0.009399608 -0.028631374
0.019861996 0.05573906 0.078644276 -0.008322626 0.045674816 -0.119288996 0.027944058 0.072336376
-0.12377034 0.07500404 -0.011773333 -0.07412043 0.040480033 -0.0055943877 0.029646635 0.07658237
0.0465025 0.077605635 0.049356624 -0.012974769 0.098692045 -0.11927104 0.06397335 0.12395407
0.04115878 0.08321279 0.073826134 0.11706197 -0.045562208 -0.08557299 0.020012543 -0.020771965
-0.120571434 -0.05069773 0.08945735 0.06780362 -0.047467873 0.101512164 0.07990059 -0.06881651
0.06290403 -0.047777936 -0.1053544 0.052396312 -0.023331821 0.09339848 -0.08538948 -0.062733546
-0.03321734 0.05539976 -0.017298982 -0.06761785 -0.099460915 -0.0033601671 0.0472994 -0.06288788
0.051464528 -0.089759246 -0.0078063756 -0.01698193 -0.06759943 -0.0124271065 0.03107971 0.11519049
0.111585885 0.041898653 -0.058332548 0.031517506 -0.04161033 0.041385904 -0.08652452 0.047357127
0.07595806 -0.0134767145 0.0061712414 0.116309166 0.08338712 0.11220528 -0.09611072 -0.08233081
-0.06776206 -0.061454356 0.09837648 0.09519108 0.12052731 -0.06104654 0.028840601 0.033229455
0.024314657 -0.043010563 0.007903606 -0.04905832 -0.07166922 -0.11494449 0.067468494 -0.060382053
-0.026234224 0.10672417 0.040996417 -0.016242504 0.06401971 0.015004352 -0.09846844 0.05588016
0.12412314 -0.124176785 -0.015361309 -0.11851193 0.056923687 0.07856643 0.05270067 0.08333348
-0.07175642 -0.023759082 -0.0009126067 -0.1132219 -0.11220558 -0.002979681 0.100308195 0.01815793
-0.09483975 -0.06478125 0.075975016 0.0872442 -0.10153285 0.032107085 -0.08057685 -0.028800964

layer2.bias f4 [64]
00000000: b6b5 f73d 1004 3fbd 56a4 ca3d dca0 30bd
00000010: 1ea6 c5bd 56fe f8bd b691 833d 8ca0 073d
00000020: 08d2 90bd bcaa aa3d 6013 2bbd c8cb 2f3d
00000030: 10b4 cf3c 62c0 9dbd f004 4e3c e289 bd3d
00000040: 7469 77bd 704c e5bd d0cc 9fbc 12cc e8bd
00000050: 409e 1d3c f0f3 eb3c 7832 e1bc 005c 903d
00000060: 8aab dabd 7648 d6bd e064 dabb 0294 f93d
00000070: f8ad dbbd 72ee 9ebd a2fc b1bd 6c96 5cbd
00000080: 76be e83d 2012 443c 80de b7bc 1e66 c73d
00000090: 7826 15bd 3c44 933d a0a7 d0bb 6ca0 f93d
000000a0: 42ec e23d f863 f93d d0bd 67bc 4029 9bbc
000000b0: 3c36 7ebd f488 b13d 0ea3 f7bd 800b b7ba
000000c0: 38dd b7bd 28b4 48bd cc95 48bd 20f8 b63c
000000d0: 3ce2 5a3d a62d eebd 5041 e0bc 2068 d2bb
000000e0: a6a0 d2bd c805 eabc 60cf 7fbc 80d7 dc3a
000000f0: 0c97 493d 1042 6d3d 3aef 99bd d81e c0bd
0.120952055 -0.046634734 0.09894626 -0.043122157 -0.09650825 -0.12157886 0.064242765 0.033112094
-0.0707131 0.08333346 -0.041766524 0.04291895 0.025354415 -0.0770271 0.012574419 0.09254815
-0.060403302 -0.1119622 -0.019506842 -0.11367048 0.009620249 0.028802842 -0.027489886 0.070487976
-0.1067725 -0.104630396 -0.0066648573 0.121864334 -0.10726541 -0.077603236 -0.08690764 -0.05385439
0.113644525 0.011967212 -0.022444963 0.09736274 -0.03641364 0.07190749 -0.0063676387 0.12188801
0.11080219 0.12177271 -0.014144376 -0.018940568 -0.06206344 0.086687 -0.12091647 -0.0013965219
-0.08977741 -0.048999935 -0.048970982 0.022335112 0.05343841 -0.116298005 -0.027374893 -0.006421104
-0.102845475 -0.02856721 -0.015613407 0.0016848892 0.049216315 0.05792433 -0.07516332 -0.09380883

layer3.weight f4 [1, 64]
00000000: 92b0 5bbd a402 eebd 8018 e33c 12fe 4fbd
00000010: 800d 313c e83e 99bd 6023 273d 9420 873d
00000020: e66f 9f3c 4b54 693d c73c 003d 24c5 80bd
00000030: fc7f e73d 366e e2bc e8b9 083e d070 f53d
00000040: 0f46 04bd 44d6 5a3d 3916 243d c4b4 8e3d
00000050: 3000 8bbd 4572 a53d ea3c 82bb 063a f8bd
00000060: 42c4 753d 2ab1 5bbd dead b53d c8d6 de3c
00000070: 4819 97bc af63 f8bd 82a6 95bd fb0f e33d
00000080: f26e 9b3d 18d4 cdbd 9c32 863d 04f2 af3d
00000090: 28f5 bb3d d2c0 f0bd 689c 17bd 8325 943c
000000a0: 3f79 a7bc f904 08bd b593 91bd 9510 0bbc
000000b0: 10e4 a0bd cd6c 1cbd f113 c7bc 01ac 913d
000000c0: c168 bc3b e531 d23d 1359 483d d633 933d
000000d0: 4d48 6dbd 287e 0f3d 3d3e 7abd b82d 113d
000000e0: 75b7 e3bd b473 683c f4a5 aebd c7a4 e63d
000000f0: 5715 41bd 413b e13d 74ba 8d3d 5e33 663d
-0.053635187 -0.116215974 0.027721643 -0.05077941 0.010806441 -0.074827015 0.04080522 0.06598011
0.019462537 0.056965154 0.03130796 -0.062876016 0.11303708 -0.027640443 0.13352168 0.11984408
-0.032293376 0.053426996 0.040060256 0.06968072 -0.06787145 0.08078436 -0.0039745467 -0.12120442
0.06000162 -0.053635754 0.08871053 0.027202025 -0.018444672 -0.12128388 -0.073071495 0.110870324
0.075895205 -0.10050219 0.06552622 0.08591083 0.09177619 -0.117555276 -0.037014395 0.018084293
-0.020443557 -0.033207867 -0.07108251 -0.00848784 -0.078559995 -0.038189698 -0.024301501 0.07112885
0.0057497923 0.10263423 0.048913073 0.07187621 -0.05793028 0.03503242 -0.06109451 0.03544399
-0.11118976 0.014187742 -0.08527747 0.112618975 -0.047139492 0.1099763 0.06920329 0.05620133
