PPO_example/ppo_critic.pth (torch, 20143 bytes, 5 tensors)

layer1.weight f4 [64, 3]
000000 8d 25 3a 3d 41 73 19 be 46 e5 d9 3e 8d 93 4e 3c
       0.045445967 -0.14985372 0.42557734 0.012608421
000010 52 64 01 3f b5 23 cf bd ce 09 ec 3e 6a bb 56 be
       0.505437 -0.101142325 0.4610123 -0.2096993
000020 52 8c 9f 3d 66 6b 9b be 4d fd 54 3e b0 bb 78 3e
       0.07790436 -0.30355376 0.20799752 0.24290347
000030 0b 37 ac 3e 20 bd 3a be 8c b4 7c be 0f 6e da be
       0.33635744 -0.18236208 -0.24678248 -0.42662093
000040 33 61 88 3e a7 e0 ca 3e 37 02 c2 be ff 7d 55 3d
       0.26636657 0.3962452 -0.37892315 0.052122112
000050 c1 2b f4 3e 8a ce 26 3e 63 8a b4 3e 08 c4 a6 3e
       0.47689632 0.16289726 0.3526183 0.32571435
000060 fa cc fd be 42 0c 06 bd 3a 2e d0 3e de ef fa be
       -0.49570447 -0.032726534 0.40660268 -0.4901113
000070 3a 05 8f 3e 65 92 fb 3e 1e fe a9 3e 5a 5f 62 be
       0.27933675 0.49135128 0.3320169 -0.22106686
000080 a0 23 74 3e f8 30 7e be 01 63 93 be de 87 fc 3e
       0.23841715 -0.24823368 -0.2878647 0.49322408
000090 9c ad a1 be 54 97 88 bd 41 7a e6 3e 9a 77 64 be
       -0.31577766 -0.066694885 0.45015147 -0.2231125
0000a0 fa aa ae be cb 34 35 be e5 86 bf bd cc 8f 9a be
       -0.3411482 -0.1769592 -0.09351901 -0.30187833
0000b0 27 a9 a3 3a de d3 7c be 4f 73 cb bd a1 97 37 3e
       0.0012486324 -0.24690196 -0.09934103 0.17928936
0000c0 2a 6c e3 3e 41 13 ea bd 16 8b 02 bf a4 dc 9d 3e
       0.4441846 -0.11429454 -0.5099348 0.30832398
0000d0 5d 51 80 be 65 1e 8f bd a2 cc 15 be be 0f 9a 3e
       -0.25062075 -0.06988219 -0.14628842 0.30090135
0000e0 85 13 f8 be a6 18 4f be c6 44 95 3e 13 67 e1 3e
       -0.48452392 -0.20224246 0.29154032 0.44023952
0000f0 d3 76 47 3e 91 c5 02 3e 6e 5b 8c bd 01 ba e1 be
       0.19478922 0.12770678 -0.06853376 -0.44087222
000100 86 3c 0b 3d ca 52 5c 3c 62 31 b5 be 95 7d 11 3f
       0.033993267 0.013447473 -0.3538924 0.5683225
000110 5c 03 e8 3e 55 61 5a bd 7c 71 ef 3e 53 c8 80 bd
       0.45315063 -0.05331548 0.4676627 -0.06288209
000120 8b fd f5 be b7 7a c0 bd 1e b4 4d 3b 2d 0d 05 3f
       -0.48045 -0.09398406 0.0031387876 0.5197323
000130 b2 8f a2 bd 75 2e 03 bf 5b 9f 6b 3e 04 f0 be 3e
       -0.07937564 -0.5124276 0.23010008 0.37292492
000140 ff c7 17 3e 99 43 9d 3e 8f 5a 1f 3e 37 33 cb be
       0.14822386 0.30715635 0.15561889 -0.3968751
000150 37 7e d7 bd 7e a1 ba 3e 0a 1e fd be 3a aa 7b bc
       -0.105221204 0.36451334 -0.4943698 -0.015360409
000160 99 68 08 be 57 a1 a3 3e ba 83 cc be 35 7d 8e bd
       -0.13321151 0.3195903 -0.3994425 -0.06957475
000170 c9 67 b9 3d 95 fd d4 be 7a ce e6 3e 9f 25 f7 be
       0.090529986 -0.41599718 0.45079404 -0.4827089
000180 bc 8f 07 3f b4 65 e0 3d 34 4d e7 3e aa 9f 0a 3f
       0.52953696 0.10956898 0.4517609 0.5414988
000190 c3 3f e7 3d 22 ca 3c 3d 5b 1a f5 3e 66 4c 8a 3e
       0.112914585 0.046091206 0.4787167 0.27011412
0001a0 b5 4b da be 91 89 f7 be 84 fb e2 3e 70 ec 08 3f
       -0.42635885 -0.48347142 0.44332516 0.53485775
0001b0 f6 70 cb bd 1e d8 3d 3d 7c ae 16 be d1 07 e8 be
       -0.09933655 0.046348684 -0.14714998 -0.45318463
0001c0 c5 2a 5a 3e b6 b9 00 3e 81 42 ca bd 46 83 97 3e
       0.21305378 0.12570843 -0.09875966 0.2959234
0001d0 ed 87 ab 3d 40 2f c9 3d 8d 6c e3 3e 08 cc 00 3f
       0.08375535 0.09823465 0.44418755 0.50311327
0001e0 bd 93 9a be ce 97 c5 3e cc 01 72 be 85 b9 f0 3e
       -0.3019084 0.3859238 -0.23633498 0.4701654
0001f0 1a 12 93 be d2 c4 ba be dc 97 b1 3e 04 4b 45 3e
       -0.28724748 -0.36478287 0.34686172 0.19266897
000200 1b 8a 5a 3c 82 69 16 3d 58 5a 08 bf f1 1d 73 3e
       0.013338591 0.036721714 -0.53262854 0.2374189
000210 69 01 b3 3d 34 46 f0 be 77 89 fd 3e b6 eb 09 be
       0.08740503 -0.4692856 0.4951894 -0.13468823
000220 76 25 37 bc 7d 3d 33 3e e1 4a 04 bf 20 ad a5 3e
       -0.011178365 0.17503925 -0.51676756 0.32358646
000230 f4 53 0e 3f 9a 6d c2 be 0b 75 84 3e 68 cc 6f 3e
       0.5559685 -0.37974244 0.25870547 0.23417819
000240 48 76 2f bd 42 10 02 be 10 eb e6 3e f7 de 7d be
       -0.04283741 -0.12701514 0.45101213 -0.24792086
000250 f3 37 e4 bd a1 d6 b2 3e 8e 05 ef be 76 19 83 be
       -0.11143484 0.34929374 -0.46683925 -0.25605363
000260 c0 4e e0 3d 1e be b0 3e e3 dc 03 bf 67 c1 58 3e
       0.1095252 0.34520048 -0.5150892 0.21167527
000270 2e 57 d8 3e 3c 21 04 bf 13 a3 ee 3e 42 c0 d8 3e
       0.42254013 -0.5161321 0.4660879 0.4233418
000280 b9 06 8f bd de 9c 95 3e 38 12 5e be 16 ab a8 bd
       -0.06983704 0.29221243 -0.21686637 -0.08235757
000290 9c cc 0d bd f6 fe e1 3e 4a 90 09 bf 90 19 85 be
       -0.03461896 0.44139832 -0.5373579 -0.25996065
0002a0 1a 77 54 be 9e d4 0c 3f 28 7e 95 be 03 f4 0b 3f
       -0.20748559 0.5501193 -0.29197812 0.5466921
0002b0 a1 76 a4 3e 3f a3 8c 3e 06 52 9e be c9 64 4d 3e
       0.32121757 0.27468297 -0.30921954 0.20057978
0002c0 2b 0d 48 be a4 09 3a be 4c 96 0e bf a9 a8 fe be
       -0.19536273 -0.1816774 -0.55698085 -0.49738052
0002d0 16 7c 98 be 08 34 d6 be 12 8d fb 3b 54 e1 00 3e
       -0.2978217 -0.41836572 0.007676729 0.12585956
0002e0 1c 5d 0e 3e 14 74 0f bf d0 a2 af 3e cf 43 b9 3d
       0.13902706 -0.56036496 0.34303904 0.090461366
0002f0 3a 3d f2 3e 2e b0 ae 3d 72 4c 9b 3d 59 55 02 bf
       0.47312337 0.08529697 0.0758294 -0.5091148

layer1.bias f4 [64]
000000 bb 78 8e be 06 46 7d be 91 3b a7 bd 85 0c e3 3d
       -0.27826485 -0.24733743 -0.08165658 0.11086372
000010 45 b7 c6 bd 45 cb b7 be 08 79 90 be 3d 58 9e be
       -0.09702925 -0.3589727 -0.2821734 -0.30926695
000020 52 ba be 3e b9 7f 4f be a5 1d bd be cf 97 be 3e
       0.37251526 -0.20263566 -0.3693668 0.37225196
000030 c6 56 8d be 53 b8 69 be 68 90 92 3c 2d 23 5d 3e
       -0.27605265 -0.2282422 0.017891124 0.2159545
000040 8f cb ab be 88 24 de be 86 eb 7c 3c 67 90 40 3e
       -0.3355374 -0.43387246 0.015437013 0.18805085
000050 a5 e8 d6 bd 50 c7 32 3e 12 15 12 bd 4d e5 4d be
       -0.10493592 0.17458844 -0.035664625 -0.20107003
000060 ca f0 89 3e 6c 23 6c 3e 85 f5 e4 be fe 9c d4 3e
       0.2694152 0.23060387 -0.44718567 0.41526026
000070 0d 9b 00 bf 7c d5 8d 3e fd 12 3b be 4d 06 00 bf
       -0.5023659 0.27701938 -0.18268962 -0.50009614
000080 56 c1 07 bf 82 82 fe be 42 9e 0d 3f ba 14 46 3e
       -0.5302938 -0.49708945 0.5531961 0.19343844
000090 51 54 04 3e 84 c5 ed be 08 2b 18 3e ec af e7 be
       0.12922789 -0.46439755 0.14860165 -0.45251405
0000a0 f0 94 03 3f ab 33 85 be 41 a6 b9 3e 31 f8 9e 3d
       0.51399136 -0.26015982 0.36259654 0.077621825
0000b0 23 9d ba bc f9 0d a2 3d 1c c1 9d 3e bc 27 ae 3e
       -0.022780007 0.07912821 0.30811393 0.3401469
0000c0 00 5e c8 bd 43 ae c1 bc 54 4d fc 38 95 ee 8a be
       -0.09783554 -0.023642665 0.000120307 -0.2713515
0000d0 bb e4 0d 3f 48 4f 83 bd 63 4d e8 bc b8 33 3d bd
       0.5542714 -0.06411606 -0.028357213 -0.0461919
0000e0 29 79 a1 be 30 7b dd 3d 81 16 93 be 34 46 c0 be
       -0.3153775 0.10814512 -0.28728107 -0.3755356
0000f0 ce b2 96 3e e0 e3 8c 3e 22 18 0c bf 0f 32 f3 3e
       0.29433292 0.27517605 -0.54724324 0.4749913

layer2.weight f4 [64, 64]
000000 1c db db 3d 00 3c c9 bb a8 04 80 3d f0 4c 45 3d
       0.10735151 -0.0061411858 0.06250888 0.048169076
000010 96 7b ef bd b0 1a 2b bc 00 fa 71 3d 1a f4 d4 bd
       -0.11693494 -0.0104433745 0.05907631 -0.10398121
000020 1c bc 6c 3d 10 66 38 3d 80 ad e6 ba 44 d4 35 3d
       0.057796583 0.04501921 -0.0017599314 0.044391885
000030 00 ec 70 3a e0 88 78 3d 28 ee 5f 3d e8 2e a1 3c
       0.000919044 0.06067741 0.054670483 0.019675687
000040 62 4e dd 3d b4 10 4f 3d 2e 8f a2 3d 78 e4 35 3d
       0.10805966 0.05055304 0.079374656 0.044407338
000050 00 dd 53 bc ec 7d 12 3d 04 49 d8 3d 4e 20 bc 3d
       -0.0129311085 0.03576462 0.105608016 0.09185849
000060 d8 b0 93 3d f0 aa db bd 3a d8 aa bd c8 2d df 3d
       0.07211465 -0.10725963 -0.08342023 0.10897404
000070 e0 2c 6a 3d 10 ac a0 3c ac e9 0a 3d 0c 22 ce bd
       0.057171702 0.019613296 0.033914253 -0.10065088
000080 9e c1 a9 3d 78 d5 d8 3d c0 2c 70 bd ba 7a b8 bd
       0.08288883 0.10587591 -0.058636427 -0.09007783
000090 98 5c 21 bd c2 14 b3 3d bc df c5 3d 78 fc fe 3d
       -0.039394945 0.087441936 0.096618146 0.12450498
0000a0 f0 3b 78 3d 88 91 f9 3d 48 28 af 3d 98 7a 66 bd
       0.060604036 0.12185961 0.08552605 -0.05626926
0000b0 58 c6 fa bd bc 19 f6 3d 54 94 4d bd 68 e6 ff bc
       -0.12244862 0.12016627 -0.050190285 -0.031237796
0000c0 72 fb e5 bd 00 b8 1f bb 7a 11 9c 3d 78 94 56 3d
       -0.112296 -0.0024371147 0.07620521 0.052387685
0000d0 78 9b c9 3d 24 4f 30 bd 08 7d d9 3d 00 4f 49 bb
       0.098441064 -0.043044224 0.10619551 -0.0030717254
0000e0 98 54 f9 3c 80 9e 8f 3b c6 73 db 3d 08 b6 8c bc
       0.030435845 0.0043829083 0.107154414 -0.017176643
0000f0 9e e3 93 bd b6 02 9c bd c8 2a 98 bc 22 88 b0 3d
       -0.07221149 -0.076177046 -0.018575087 0.08619715
000100 4c 52 f1 bd 62 ae e0 bd 68 4c 52 bd a4 c4 9b 3d
       -0.11783275 -0.10970761 -0.051342398 0.076058656
000110 e4 2b ab bd 00 e1 39 3c 60 d1 33 bd 82 8c b3 bd
       -0.08357981 0.011345148 -0.043900847 -0.08767034
000120 d8 6f 04 bd 50 fd 25 3d 00 29 4a 3c c0 38 21 3c
       -0.032333225 0.04052478 0.012338877 0.00984019
000130 cc 81 f1 bd 4e 50 ad bd 10 2f fe bd d0 9a b3 3d
       -0.11792335 -0.084625825 -0.1241132 0.087697625
000140 c4 ad 25 3d 78 9f 11 bd ea 70 99 3d 76 12 f0 3d
       0.04044892 -0.035552472 0.0749224 0.11722271
000150 30 35 30 bc f0 94 a9 3c de d3 8d 3d d8 53 91 3c
       -0.010754868 0.020700902 0.06925176 0.017740175
000160 20 c3 cc 3c fa bb ab 3d c0 29 c8 bd e0 df 62 3d
       0.024995387 0.08385463 -0.09773588 0.055389285
000170 38 f5 48 bd 40 3d ce bb f0 3c bf 3d 70 5c 3b 3c
       -0.049061984 -0.0062939227 0.09337795 0.011435613
000180 ea 74 aa 3d 4c c9 4c bd 84 1e c5 bd ca d3 d2 3d
       0.08323081 -0.04999666 -0.09624961 0.10294302
000190 ac fc 0e 3d 00 ec 9f bd e8 e4 d9 3c 90 55 9a bc
       0.034908935 -0.07808685 0.026598409 -0.018839628
0001a0 98 25 ef bc 90 90 1d bd 10 f9 0f bd a0 cc e2 3c
       -0.02919273 -0.038467944 -0.035149634 0.027685463
0001b0 c8 79 f4 bd 96 ba c4 bd b0 73 70 bc f8 db 1e 3d
       -0.119372904 -0.09605901 -0.01467602 0.038783997
0001c0 30 2b 67 3c 88 c8 17 bd 2a 1b c1 3d d8 44 6f bd
       0.014109418 -0.037056476 0.09429009 -0.058415264
0001d0 28 69 e5 3c d8 c3 c1 3c 5c 2a c5 3d 72 ae a8 3d
       0.028004244 0.023652956 0.0962722 0.08236398
0001e0 da 18 fc 3d 2c 03 21 bd 00 b6 14 bd 62 35 c9 bd
       0.123094276 -0.039309666 -0.03630638 -0.09824635
0001f0 48 8b f7 3d 34 01 c6 bd 8a df eb 3d 68 9b 3c bd
       0.12087113 -0.09668198 0.11517246 -0.046046644
000200 08 64 26 bd 40 22 30 3b ec 4d 6c bd e0 ca b3 3b
       -0.04062274 0.0026875883 -0.0576915 0.005486831
000210 de f0 b6 bd 32 22 95 bd 04 dc f9 bd 40 0b 5a 3c
       -0.089326605 -0.07281913 -0.12200168 0.013308346
000220 88 de c8 bc 48 2e 27 3d 3e 76 f2 3d 3e 4d fa bd
       -0.024520174 0.04081562 0.11838959 -0.12221764
000230 80 68 64 bd 40 d1 b8 bb 40 00 eb 3c a6 34 cb bd
       -0.05576372 -0.005640179 0.028686643 -0.09922151
000240 08 3c 80 3d b8 61 23 bd 04 96 6a bd 38 37 d5 3d
       0.0626145 -0.039888114 -0.057271972 0.10410923
000250 c8 92 34 bd 98 d5 a1 3d 00 2c 2b 3d 7c 70 93 3d
       -0.044085294 0.07902068 0.04179001 0.07199189
000260 b4 5f 7c bd b0 09 69 bc 48 18 b4 3c a0 5e ad 3c
       -0.061614707 -0.014223501 0.021984234 0.021163285
000270 10 1c d2 3c ac 4e f6 3d dc 16 27 bd be d8 e1 3d
       0.025648147 0.12026724 -0.040793285 0.110276684
000280 b8 38 c1 3c 16 63 eb bd f8 55 13 3d 70 bf 64 bc
       0.023586616 -0.114935085 0.035970658 -0.013961658
000290 f6 65 8a 3d 56 2c c6 3d 94 a9 52 bd 98 a2 bc 3d
       0.06757729 0.09676425 -0.051431254 0.092107
0002a0 28 99 8b bc d0 92 b7 3d 44 06 91 3d 10 14 1a 3c
       -0.017040804 0.08963549 0.07081273 0.009404197
0002b0 38 b8 b1 bd 80 43 96 3b 68 ba e9 bc 1e f7 a5 3d
       -0.08677715 0.0045856833 -0.028531268 0.081037745
0002c0 1e 67 bf bd a2 8d b6 3d 30 ed 25 3c 70 b4 db bd
       -0.0934584 0.08913733 0.010127351 -0.10727775
0002d0 d4 6d 52 3d a0 ea 2d bd 60 51 f0 3c d0 bd bf 3d
       0.05137427 -0.042460084 0.029335678 0.09362376
0002e0 80 99 05 3b 60 f7 3d bc f8 29 d4 bc 52 70 de bd
       0.0020385683 -0.011594623 -0.025898919 -0.10861267
0002f0 f4 27 cd 3d c8 aa 57 3d 34 f1 70 bd b8 54 71 bd
       0.10017386 0.052653104 -0.05882378 -0.058918685
000300 20 eb 50 3d 90 aa c6 bd a4 42 f3 3d 0c 57 7d 3d
       0.051005483 -0.09700501 0.11877945 0.061850592
000310 b6 c2 ee bd 86 3b d9 3d f2 4b bb bd 7c 9d f2 3d
       -0.11658232 0.10607056 -0.09145345 0.11846444
000320 34 ed e2 3d 14 32 2c 3d 06 0d 89 bd e8 e7 8a 3c
       0.11080399 0.042039946 -0.06691937 0.016956285
000330 fe c6 88 bd 3c 8c 2b bd c8 f0 ab 3d cc a4 66 3d
       -0.0667858 -0.041881785 0.08395535 0.056309506
000340 f0 54 ad bd 24 5c 3c bd 14 d7 4f 3d d6 19 c1 bd
       -0.08463466 -0.04598631 0.050742224 -0.09428756
000350 98 d9 1d bd 00 13 66 bc d8 41 e3 3c 04 4c 1b 3d
       -0.03853759 -0.014042616 0.027741358 0.03791429
000360 ea 5b e5 bd ac 86 aa 3d 40 ab 8c bb de 8e cb bd
       -0.11199172 0.08326468 -0.0042928755 -0.09939359
000370 e8 fc 6d 3d 60 e2 11 bc a8 71 91 bd 24 61 2f bd
       0.05810252 -0.00890407 -0.07101756 -0.04281725
000380 c6 d7 f7 3d 78 2c 9a 3d dc ef b8 3d a2 ca a0 3d
       0.121017024 0.07528013 0.090301245 0.07851149
000390 a2 fb 99 bd 4a 36 aa bd 0e 57 94 bd e0 a1 2d bc
       -0.07518698 -0.08311136 -0.07243167 -0.010597676
0003a0 08 eb c7 bc 58 62 9a 3d ac 30 18 3d f0 2a 66 3c
       -0.024404064 0.07538289 0.037155792 0.014048323
0003b0 10 6b e3 bd b8 cc 46 3d 20 d6 ee 3b 98 1a f5 3c
       -0.11104405 0.04853508 0.0072887093 0.029919907
0003c0 38 b5 58 3d 9c 01 ba bd 50 17 0f 3c 58 66 8b 3c
       0.0529072 -0.09082338 0.0087335855 0.017016575
0003d0 ac af 96 bd cc 63 6c bd a0 68 55 3c 10 94 49 bc
       -0.073577255 -0.05771236 0.013025433 -0.012303367
0003e0 08 d2 95 bd aa b0 bd bd 80 22 a1 3d ea ff ef 3d
       -0.07315451 -0.092622116 0.078679085 0.117187336
0003f0 d0 1a 08 3c 76 fe 9f bd 22 4c b4 3d e4 ba a7 bd
       0.008307174 -0.078122064 0.08803584 -0.081899434

layer2.bias f4 [64]
000000 28 55 c8 bc e0 45 99 bb 00 82 55 bc 10 3b 6c 3c
       -0.024454668 -0.004677519 -0.013031483 0.0144183785
000010 28 e1 f1 bd 44 19 b5 3d 40 a8 6c 3b ce 82 83 3d
       -0.11810523 0.0884271 0.0036111027 0.064214334
000020 a0 59 ac bd 98 ea ad bd 68 05 44 3d 38 44 3e 3d
       -0.08415532 -0.08492011 0.04785672 0.046451777
000030 1a e3 f7 3d ec 60 00 bd 80 09 ed 3a 32 f7 e6 3d
       0.12103863 -0.031342432 0.0018084496 0.112776175
000040 e8 ac f8 bc e4 54 9c bd b4 b7 ed 3d 4c 4f 51 bd
       -0.030355886 -0.07633379 0.11607304 -0.051101014
000050 52 61 c3 bd 00 86 6d bb 3c 90 49 3d d0 b3 b7 bd
       -0.09540047 -0.00362432 0.04920982 -0.089698434
000060 00 0a bb 39 1a 97 b6 3d 42 0c b0 3d 68 f7 b1 bd
       0.0003567487 0.08915539 0.08596088 -0.08689767
000070 14 6c c6 bd 42 f9 e8 bd ae e9 eb 3d 00 12 28 3a
       -0.09688583 -0.11375667 0.1151918 0.00064113736
000080 10 b6 f6 bc 12 07 fd 3d 70 13 0e 3c 30 c0 28 3d
       -0.030116111 0.12354864 0.008671626 0.04119891
000090 b8 84 7b 3d a6 52 be 3d 14 87 2e bd 7e cd fb bd
       0.061405867 0.09293108 -0.04260929 -0.12295054
0000a0 34 8c da bd d0 e1 00 3d 8c 1a 36 3d c8 8e 91 bd
       -0.10671273 0.03146535 0.04445891 -0.071073115
0000b0 d8 ba fa bd 30 1b c4 3d 22 d0 a4 3d 68 f5 da bd
       -0.12242669 0.09575498 0.08047511 -0.10691339
0000c0 60 9f a2 bd 60 67 af 3d 90 b9 c0 3c 3a f0 ba 3d
       -0.079405546 0.08564639 0.023525983 0.09127851
0000d0 f8 31 5c 3d 50 13 b2 bc 80 56 98 bb 00 07 b0 ba
       0.05375859 -0.021737725 -0.0046489835 -0.001342982
0000e0 0c c6 e4 3d d8 0f 06 3d 98 30 8a 3d 20 e8 78 3d
       0.11170587 0.032729954 0.0674755 0.060768247
0000f0 48 23 ad bd 90 57 06 3d b8 9e aa bd c4 9a 65 bd
       -0.08453995 0.03279835 -0.083310544 -0.0560558

layer3.weight f4 [1, 64]
000000 04 b7 b6 3d 0d fc 18 be 88 74 11 3d 78 62 2d bd
       0.08921626 -0.149399 0.035511523 -0.042330235
000010 a6 4e db bd a8 1a f3 bc e7 ab f8 bd e1 b9 5c bd
       -0.107083604 -0.029675797 -0.12142163 -0.053888205
000020 16 8f 9e ba b9 fb be 3d 7d 77 40 bd 0f e4 75 bd
       -0.0012097086 0.09325356 -0.046988953 -0.060031947
000030 b4 af 18 be 00 51 fa bc 76 52 e2 bd 32 ac e5 bd
       -0.14910775 -0.030556202 -0.110508844 -0.11214484
000040 3e ca 7b 3d a6 a2 af bd 50 4b b9 3d e9 a9 1f bd
       0.06147217 -0.085759446 0.09047568 -0.0389804
000050 cf 45 10 3d 9b 29 89 bd 5c a0 00 be 98 ef 99 bd
       0.035222825 -0.06697389 -0.12561172 -0.07516402
000060 2d 4a 7a 3d 3c f4 0d be e7 00 9d 3d ce da 11 be
       0.061105896 -0.138627 0.07666188 -0.14243624
000070 c1 f1 4a bd 31 36 79 3d 96 41 fa bb 7d 91 55 3c
       -0.04954696 0.060842697 -0.007637213 0.013035175
000080 d0 df 4c bc a9 b3 80 bc b7 29 4e 3d 16 59 9b 3d
       -0.012504533 -0.015710669 0.05033275 0.07585351
000090 97 22 6c 3d d6 e9 c8 3c 76 2a 35 3d 51 97 01 bd
       0.057650175 0.024525564 0.044229947 -0.031638447
0000a0 c0 86 e8 3b a1 44 e3 3c 43 76 8a bd 21 4c 53 3c
       0.0070961416 0.027742686 -0.06760838 0.0128965685
0000b0 ad 76 b2 3d 2f f8 7d 3d 96 fc bb bb 41 16 cc bd
       0.08714042 0.062004264 -0.0057368977 -0.09965182
0000c0 6e e3 ba 3d b9 00 85 3a 96 61 22 3c 21 71 0c be
       0.0912541 0.001014731 0.009910962 -0.1371503
0000d0 30 0b 8b bd 91 35 eb bd 39 e7 ff bd 81 9e 15 be
       -0.06789243 -0.11484826 -0.12495274 -0.14611246
0000e0 f1 21 e1 bd 62 f4 a1 3d ee 48 94 bd c5 2b c5 3c
       -0.10992802 0.079079404 -0.07240473 0.024068723
0000f0 42 c7 a2 3c 7d ea 57 3d b4 89 e0 bd a8 c8 9e bd
       0.019870404 0.05271386 -0.10963765 -0.07753116
