CS141 Final Project/PPO_agent/cached ppo agents/ppo_critic5-10_morning_travis.pth (torch, 21679 bytes, 5 tensors)

layer1.weight f4 [64, 9]
00000000: 3beb d5bd 4621 683e 3783 90bc e01e c4be
00000010: 78e9 bc3e aebf dc3e 4308 6bbe 48f4 0f3f
00000020: 7531 043e c454 bb3e f086 153e ea7a 483e
00000030: 2613 393e b426 0d3e 9dc1 be3e bd55 2bbd
00000040: 23b9 c73e 361c c3be 1e56 023e 572f 3fbe
00000050: 56b3 dc3e 2c85 babe 280b 1a3e 8a48 a9be
00000060: 941f aebe 0a5e ea3e 6479 85be ee09 113e
00000070: 1129 ef3e 0be8 893d 4c2f 033e 87a7 dc3e
00000080: 379f 3f3d fcf7 d2bd e396 ad3e 4b6c 36be
00000090: 6a41 14be d8a9 ba3e a945 c93e 8133 003f
000000a0: cc0b 063e f828 4cbe baae 893e fc83 3b3e
000000b0: a716 873e 4ee1 2d3e f8ea b03e 5266 d13e
000000c0: 5e68 4a3e 926e 4d3e a744 26be 1076 7abe
000000d0: febd 933d d6f5 93bc 70c6 893e 3d4a de3d
000000e0: 28cb 7dbe 8717 93be 0113 b1bc 3628 b83e
000000f0: b253 99bd 2ee1 ec3e a9bb b4bd e100 d0bd
00000100: 717f 46bd 80e0 48be 63c2 603c b92a 5b3e
00000110: 6aec 51be 71d0 c83c 7b53 113e 2bbd c3be
00000120: bb4d ca3e cac2 8dbd 7c4f 223d 7972 153e
00000130: 7ce8 cc3d 594e f13d ae23 4d3e 9f30 693e
00000140: 09bc 74be 6c88 11be 079f 8c3e d3a8 12be
00000150: 184b 1f3e 9824 503e 05ac cd3e 34d7 4a3e
00000160: 8efb 28be ff21 043e 55a8 ed3e 2526 72bd
00000170: a1bd a03e ca86 a73d da9a 8c3e 2d2d ccbe
00000180: 9932 1e3e 4a9b 3b3e 749d 8abe 92bc 2d3e
00000190: a243 97be 4a29 e13e 792c 753d b0df ee3d
000001a0: 54bc d93d 8500 febe b50d f83e 337c 943d
000001b0: 286b d2bc cc27 21be 154e d23b 7296 073e
000001c0: ee42 4abe 39b0 d5be da01 3ebe 1f15 823e
000001d0: 4624 82be 1758 cdbd 6564 053e e571 45be
000001e0: 543d 03be 5184 af3e e67d 7fbd 6826 07be
000001f0: 78fe c13e 5ade 84be 5a64 80bd 5336 283d
00000200: a837 703d c4c5 983e ec5e 52be 77cc d33e
00000210: 38cb 3fbd 4971 be3e d206 473e 8652 953e
00000220: dc6d 533e 2f57 04be 27ad 7e3e 7ba3 733d
00000230: a26f ce3e 68fa ebbe 21b9 4f3e 7ce6 193c
00000240: 8fa0 893e bfa4 aa3e 552d e93c c1f0 3b3d
00000250: c50e b43d f47a ed3e eb56 c1be d7c5 d73e
00000260: fd90 d63d 54ae cfbe d412 523e cc1a 483d
00000270: 5f0c 3b3e a318 0c3f 77d7 c9bd 3c25 e43e
00000280: 810f 48bd cdb9 9b3e 75df ea3e 0222 b6bd
00000290: 8bc6 47bc d03c 823d 96c3 bc3e aa3f eb3e
000002a0: d410 113e 7af5 d63d 0735 3b3e 2d9a a0be
000002b0: 3c7a 9a3e 0f85 663e 8205 e03e 07f2 1f3f
000002c0: a2e6 94bc dff7 ff3e 0b7e dcbd 7f88 1d3e
000002d0: 0405 903e d4f6 6d3e d8d1 a13e 8926 8cbe
000002e0: 1df4 a53e a84a f63d f992 95be a3fe b63e
000002f0: aa94 f8bd e1da abbe 972b e13c ea0a f23e
00000300: f75a 0bbf a1aa 8b3e 36ce 0cbe f839 b9be
00000310: 3e00 a1be d060 523e f572 49be aa3d b53e
00000320: 30b3 77bd b2f9 c0be 9710 0ebe 7cd8 a2be
00000330: d359 273e d9f9 83bd 47bd c3be 0ba3 d93e
00000340: 8d79 933e 3187 903e da28 25be 2fd7 8dbe
00000350: eb61 903e 6fa2 bbbe 1db0 fdbd 2ce9 6b3d
00000360: 2155 b23e 6b05 46be d139 a33e 1d81 c83e
00000370: f6db a63e a644 4d3c 8c99 26bc baed 8a3e
00000380: 1bd3 793d 38b4 3e3d f5b8 2cbd 37e8 0f3e
00000390: ee40 0fbf e4a8 9c3e 9f0a b7be ad37 3abe
000003a0: 1b44 913e b1b9 bf3d b7aa 1a3b c9ab 2ebe
000003b0: 482c 5bbe 0aa5 3b3e fa28 9b3e 3894 bc3e
000003c0: 887a 083e d7fd 24be c119 4abe 4bba 6fbd
000003d0: ef0b 84bd d63e c33d cc38 94be 241e 9abc
000003e0: e23b 87be da65 cebe 091c 353e a9a4 2d3d
000003f0: f90b e93e e10a 1fbe 6a29 d83c 0bf7 563e
-0.10445257 0.22668943 -0.017640693 -0.38304806 0.36896873 0.4311499 -0.2295237 0.5623212
0.12909491 0.3658811 0.14602256 0.19578138 0.18073711 0.13784295 0.3725709 -0.041829813
0.39008436 -0.3810746 0.12728164 -0.18670402 0.43105572 -0.36429727 0.15043318 -0.33063155
-0.34008467 0.4577487 -0.26069176 0.14163944 0.4671102 0.06733712 0.12811011 0.43096563
0.0467827 -0.103012055 0.3390418 -0.17814748 -0.14478078 0.36457705 0.3931096 0.5007859
0.13090438 -0.19937503 0.26891118 0.18312067 0.2638447 0.16980478 0.34554267 0.40898377
0.19766375 0.2006171 -0.16237126 -0.244591 0.072139725 -0.01806156 0.26909208 0.108540036
-0.24784529 -0.28728887 -0.021615507 0.3596818 -0.07486667 0.46265548 -0.08824856 -0.10156418
-0.04846138 -0.1961689 0.01371822 0.21403016 -0.20500341 0.024513455 0.14192002 -0.3823026
0.3951243 -0.06921919 0.039626583 0.14594449 0.100052804 0.11782522 0.20033142 0.22772454
-0.23899855 -0.14212197 0.27465078 -0.14322214 0.1555599 0.2032646 0.40170303 0.19808656
-0.1650221 0.12903593 0.4641749 -0.05911841 0.31394675 0.08180006 0.27461892 -0.39878216
0.15448989 0.18320957 -0.27073252 0.16966465 -0.29543787 0.43976814 0.059856866 0.11663759
0.10631624 -0.4960977 0.48447958 0.072502516 -0.025685862 -0.15737838 0.0064179995 0.13240984
-0.19752094 -0.4173601 -0.18555394 0.2540674 -0.254183 -0.100265674 0.13026579 -0.19281729
-0.12816364 0.34280637 -0.062375925 -0.13198245 0.37889457 -0.2595089 -0.062691405 0.041067433
0.058646828 0.29838383 -0.20544022 0.41366932 -0.046824664 0.37195805 0.19436195 0.29164523
0.20647377 -0.12923883 0.2487074 0.05948208 0.40319544 -0.46089482 0.20285465 0.009393331
0.2688031 0.33328816 0.028463999 0.045883898 0.087918796 0.46382868 -0.37761626 0.42143127
0.10476873 -0.4056269 0.20514995 0.04885368 0.18266438 0.5472509 -0.0985555 0.44559658
-0.04884291 0.30415192 0.4587361 -0.08893205 -0.012193332 0.06359255 0.3686797 0.4594701
0.14166576 0.1049604 0.18281947 -0.31367627 0.30171382 0.22511695 0.43754202 0.6247868
-0.01817638 0.49993798 -0.10766228 0.153841 0.28128827 0.23238689 0.3160541 -0.2737315
0.32412806 0.12025958 -0.29213694 0.35741147 -0.121377304 -0.3356543 0.027486606 0.47273952
-0.54435676 0.27278617 -0.13750538 -0.3617704 -0.31445497 0.20544744 -0.19672759 0.35398608
-0.06047362 -0.37690502 -0.13873516 -0.3180579 0.16342859 -0.06444139 -0.38230345 0.42507204
0.28803673 0.28228143 -0.16128865 -0.27703235 0.28199705 -0.36647364 -0.123871066 0.057595417
0.34830573 -0.19338004 0.31880048 0.39161006 0.32589692 0.012528574 -0.010168444 0.27134496
0.06099234 0.04655859 -0.042168576 0.14053427 -0.5595845 0.30597603 -0.3575029 -0.18185301
0.28372273 0.0936159 0.002360029 -0.17057718 -0.2140361 0.18324676 0.303047 0.36831832
0.13327992 -0.16112457 -0.19736387 -0.058527272 -0.06447589 0.095334694 -0.28949583 -0.0188132
-0.26412874 -0.40312082 0.17686476 0.04239336 0.45516947 -0.15531494 0.026386935 0.20992677

layer1.bias f4 [64]
00000000: 2600 7bbd 15a6 d83d dc0a afbd dcca 3dbe
00000010: 9d6d 723e c9fd e73e 0505 ae3e a438 f5bd
00000020: 75a9 953e 9f8e ce3e 3768 0dbc 812f cd3e
00000030: fad7 393e 97c7 223d 80ab bf3e 4634 19bd
00000040: ac87 09be 5c73 a93e 1275 d93d cbfe 3dbd
00000050: 0548 45be 16a0 be3d dce3 553d 33ff b13e
00000060: 3746 d73e 4296 c83d c434 8e3e 71e8 9e3d
00000070: e0af 2f3e e25d 15be f090 b93e 6729 69be
00000080: 2906 b83c f55f 31be 0289 a23e 19a7 ebbd
00000090: 3a23 103e f044 643e 43ab 953d a783 c43e
000000a0: ce25 b63e c686 953d f0e7 dabd cd65 fd3d
000000b0: 8778 aa3d 671a ed3e 94c8 143e 3d93 d23e
000000c0: ef36 463e c792 01bd ea4c 06be 2b65 ae3e
000000d0: 8a8d 34bd 6456 8b3e 152b be3e 9658 f3bd
000000e0: 4d82 553e 1c57 103e 8fe0 aebd eed4 033e
000000f0: 343a 693e f938 58bd 2d91 cf3e 5a47 a13e
-0.06127944 0.10578553 -0.08546993 -0.18534416 0.23674627 0.4531081 0.33988205 -0.11973694
0.29230848 0.40343186 -0.008630804 0.40075305 0.18148795 0.039741125 0.37435532 -0.037403367
-0.13430661 0.33095825 0.106180325 -0.046385568 -0.19265755 0.09307878 0.052219257 0.34765014
0.42045757 0.097942844 0.27774632 0.077591784 0.17156935 -0.14586595 0.3624339 -0.227697
0.022463875 -0.17321761 0.31745154 -0.11506481 0.14075938 0.22291923 0.07308056 0.38381693
0.35575718 0.073010966 -0.1068877 0.123729326 0.0832377 0.46309206 0.1452964 0.4112796
0.19356893 -0.03163412 -0.13115278 0.3406156 -0.044080295 0.27214348 0.37142244 -0.11882131
0.20850487 0.1409573 -0.08538925 0.12874195 0.22776109 -0.05278871 0.40540448 0.3149975

layer2.weight f4 [64, 64]
00000000: f4e9 10bc 28dc 8dbe d5ec d93d 78bf 8bbd
00000010: 57d5 4e3e 52d0 29be ad29 66be dd39 663e
00000020: 3a91 eebd 46bc 973d f4a8 9c3e 129a 6c3d
00000030: 5568 d43d e448 17bd 65ae e6bd 2b93 61bd
00000040: 25ab ce3d 51be b53e a62a 16be 3cca 553e
00000050: de37 693c b19b e63d eaeb 9e3e 519f 51be
00000060: 2889 34be f42e 363e c5fe 7dbe 7d21 803e
00000070: 07af 87bd a931 c13d 21f5 333e 4aae 523e
00000080: a30e 07bd 00e5 6f3e 66bf babc cd01 753e
00000090: 5e67 1a3d 7dd6 0d3e 594d 243e c249 273e
000000a0: 1efb 433d a776 6abe 172d f8bd 7279 d2bd
000000b0: dd7f 26bd a82c ea3d acce 71be d97f ddbd
000000c0: 5a95 a6bc 66b2 bb3e 1354 843e 7364 4a3e
000000d0: ffae f63d 9fce 323e 7359 023e be4a 2ebe
000000e0: f2d0 81bc 0c33 8c3e 49c2 b63e 787a 4cbe
000000f0: ef91 ec3d ea66 513e f715 89be 7945 c33c
00000100: d102 173e 4514 813d 8bb3 49bd 51c8 df3d
00000110: 4fa5 123e f8b2 d5bc 6024 b5bd 7585 353d
00000120: 57b8 9b3d 4aca f9bc ed44 4a3e e9a9 90bc
00000130: d2f9 053c df1a 81bd 1cf6 c8bc bc84 21bd
00000140: 408d 38bc 3d53 fb3d 29fb b53d 3ce9 6a3e
00000150: fa19 8c3c 8216 a53c 00e8 8ebb 426c 2fbe
00000160: f620 343d 859c 353e 7c12 a4bd 5bb9 6d3e
00000170: 44ac 37bd 2719 cd3d 35c3 f33d 33c3 0bbb
00000180: 556a 6d3c c63f 103b ad5a 783d c3f6 1a3e
00000190: 6cd7 57bd 59b1 12be d179 b13d f377 7a3d
000001a0: f500 82bc 3d23 e6bd 43c0 30be 02e0 f03d
000001b0: a4e8 0c3d 9bd2 07be c647 cdbd 4670 87bd
000001c0: dd36 53bb ae8b 063c 357f 133e a8bd d43d
000001d0: 6348 823d a6e3 3a3d f786 083e 5327 9cbd
000001e0: d9c6 3abd 5bd8 413e e414 9abe 29f2 51be
000001f0: f2e5 303e 35d6 8cbd 9e7b 0d3e 1375 073e
00000200: 3bb6 283e fdc6 853c b84c 8f3e 4156 9a3d
00000210: b0d6 463d 8405 ecbd 2961 db3d 0f0a 373e
00000220: d427 6bbc 5cfd bcbd dfb4 2f3d 3332 943d
00000230: bd91 963c 8360 753e 38fb d1bd a428 c53d
00000240: 75db 5e3d 71ed f93c 3da1 123d 0aa5 64bd
00000250: 516a 203e b6da 5cbd 3529 c53c 0e8f 373b
00000260: 14a2 f93b 155d 593e 9ca5 81be 3bb8 3c3e
00000270: 5f6a 1c3b 30af 4f3e 672a bf3d cf7c d13c
00000280: 2904 993d 52e1 263d 5859 6f3d cd2f ae3d
00000290: 70ae ad3d d018 013e 925c ac3c dcda d4bd
000002a0: 1a35 a53d 310a e83b a2de 163c 5cd7 86bd
000002b0: 2cf3 083e 33f8 87be 9c0d 77bd bfbe 2cbe
000002c0: 8875 9bbd 2a78 733e 261d 143e 3f26 163e
000002d0: 7b5f 773d 93c2 2fbe 3f06 86bb 20c9 d73d
000002e0: 22b5 0d3d b0c9 3e3e 76fa 3fbe dbc6 c4bd
000002f0: 6617 9b3b 3ee7 b1bd 7e12 12be 1607 2fbe
00000300: e169 a4bd 1602 37bc edf6 263e e8b8 bb3d
00000310: bda1 343e e3a9 b53d 2bd4 3b3c 25ba 0b3e
00000320: b7bd c9bc 76ee 21be a00e 5d3e 4efa fd3d
00000330: 23a7 7a3e 9dad 6c3e a949 82be c08e e23d
00000340: 7a74 30bd 3ffa 43bd d314 3dbd f4d3 a53a
00000350: 5f8c 8d3d d066 e23c 8b51 653c d5f5 c13d
00000360: 8b46 c93c 34d7 993e ca31 35be 2b2f 103e
00000370: 8aa2 b9bd fe4f 093e 6f92 02bb 2c19 1c3d
00000380: 64ff 003d 7d1f bb3d 7861 97bd ad0c a73d
00000390: 34bd 61bc fefa 4f3d ed88 0d3d 9ba3 3ebc
000003a0: 98c5 583e f6ed dc3d 33f9 8e3d c64e f5bc
000003b0: 8fa7 2d3e facf 36bd 4af7 b1bd e019 fdbd
000003c0: 3b38 a43b dc3b 3a3e 13b6 133e e39b 2e3b
000003d0: 4101 12bd 1654 ab3d 754f 15bd 62dd 9bbd
000003e0: aacc c23d 5861 853e b2bb 86be 0b9f e23b
000003f0: 71ba 69be e949 153e d937 60bd 5908 64be
-0.008844841 -0.27707028 0.10640875 -0.06823629 0.2019857 -0.16583374 -0.22476836 0.2248301
-0.116487935 0.07408957 0.3059765 0.05776412 0.10371462 -0.03693475 -0.11263732 -0.05507199
0.10091237 0.35496762 -0.14664707 0.20877928 0.014234511 0.112601645 0.31039363 -0.2047093
-0.17630446 0.17791349 -0.24804218 0.2502555 -0.06625181 0.094333 0.17573978 0.20574299
-0.032972943 0.234272 -0.022796344 0.23926468 0.037696235 0.13851352 0.16045131 0.1633673
0.047846906 -0.22896825 -0.12117975 -0.1027707 -0.040649284 0.11434299 -0.23613995 -0.10815401
-0.020334888 0.36659545 0.25845394 0.19764881 0.120450966 0.17461632 0.12729435 -0.170207
-0.015846703 0.27382696 0.35695103 -0.19968593 0.11551272 0.20449415 -0.2677457 0.023836838
0.14747168 0.06302694 -0.04924349 0.10926879 0.14320873 -0.026086316 -0.088448286 0.044316728
0.076035194 -0.030491967 0.19752856 -0.017659144 0.008177238 -0.063039534 -0.024531417 -0.039433226
-0.011264145 0.12271736 0.088857956 0.22940534 0.01710223 0.020152334 -0.0043611526 -0.17131141
0.043976746 0.17735489 -0.08011338 0.23215239 -0.04484202 0.10014563 0.11902467 -0.0021326065
0.014490684 0.0022010668 0.06063335 0.15133195 -0.052695677 -0.14325465 0.08665813 0.06114955
-0.015869597 -0.1123719 -0.17260842 0.11761476 0.03440155 -0.13263933 -0.10023455 -0.06613211
-0.0032228746 0.008212013 0.14403994 0.103877366 0.06361463 0.04562726 0.13332735 -0.07624688
-0.045599792 0.1893019 -0.30094063 -0.20502533 0.17275217 -0.06876794 0.13816687 0.13228254
0.16475765 0.016330237 0.2798822 0.07535983 0.048544586 -0.115244895 0.10711891 0.17874931
-0.0143527575 -0.09228012 0.0428971 0.07236137 0.01838004 0.23962598 -0.10252994 0.09626892
0.05440851 0.030508729 0.0357983 -0.055821456 0.15665556 -0.053919517 0.0240675 0.0028008851
0.007618198 0.21226914 -0.25321662 0.18429653 0.0023867113 0.20281672 0.093342595 0.025572209
0.074714966 0.040742226 0.058434814 0.08505211 0.08480537 0.12607121 0.021040235 -0.103933066
0.08066769 0.007081293 0.009208353 -0.06584045 0.13374013 -0.26556548 -0.060315713 -0.16869639
-0.07590777 0.23776308 0.14464244 0.14663027 0.06039379 -0.17164068 -0.0040901 0.105364084
0.03459657 0.18631625 -0.18747887 -0.09608241 0.004733014 -0.08686684 -0.14264867 -0.17092547
-0.08028007 -0.011169931 0.16305132 0.091661274 0.17639823 0.08870294 0.011464159 0.13645227
-0.024626596 -0.15813622 0.2158761 0.124012575 0.2447782 0.23113103 -0.25446823 0.11062384
-0.04307983 -0.047846075 -0.046162438 0.0012651668 0.06911539 0.027636915 0.013996492 0.09470717
0.02456977 0.30047 -0.17694774 0.14080493 -0.09064205 0.13409421 -0.0019923707 0.038109943
0.03149356 0.09136865 -0.073916376 0.081567146 -0.01377802 0.050776474 0.03455441 -0.011635686
0.21169126 0.10787575 0.06981125 -0.029944789 0.1695845 -0.044631936 -0.08689745 -0.12358451
0.005011586 0.18186897 0.14424925 0.0026643209 -0.035645727 0.083656475 -0.03645273 -0.07610585
0.09511693 0.2605083 -0.26315075 0.006915932 -0.22825028 0.14578976 -0.05474076 -0.2226881

layer2.bias f4 [64]
00000000: 9bd6 19be 61fd 9ebc 30df fdbd 52f7 bb3d
00000010: 88a0 013e c83d 39bd c081 8ebb d80b b03d
00000020: d8b9 573d 130d 853d bc6f 243e 21de f8bd
00000030: d79c 3d3d 1e35 ff3c 219c ccbd ccd3 3e3e
00000040: 477f b8bd 674d 3a3d 2fbe 003e 6418 4a3d
00000050: 0a8c 3e3e 0631 25be 3e2c c1bd 6625 99bd
00000060: c74d 6bbd ec50 923c 6861 1f3d 19be c7bd
00000070: 52b5 de3d 61dc 0dbe fa4b 57bd 5370 e83d
00000080: 5d61 6cbd b863 3e3e 6265 d33d 78c2 3a3e
00000090: 7c57 7fbd 60e1 ba3c 46ef ba3d ec73 eabd
000000a0: 1a0f 34be 8ba4 f6bd 29c7 0c3e 1901 323e
000000b0: 82e1 9d3d b428 d23b bdda 993d ea84 c2bb
000000c0: 292c 22be e4f1 af3d 34ac 833d a72b a83b
000000d0: 62a7 cc3c 6a08 32bd 6741 473d a821 1b3e
000000e0: 957d 703d d6a1 113e d44c 8fbd 24f7 b03c
000000f0: 5796 f43c a975 a9bd b27d b53d 08b0 6b3c
-0.15023272 -0.01940793 -0.12396085 0.09178032 0.12658894 -0.045224935 -0.0043489635 0.08596009
0.05266747 0.06496634 0.16058248 -0.12151743 0.046292152 0.031153258 -0.09990717 0.18635482
-0.09008651 0.045483973 0.1257255 0.049339667 0.18608108 -0.16131982 -0.09432267 -0.07477836
-0.05744722 0.017860852 0.038911253 -0.09753055 0.10874428 -0.13853599 -0.05256269 0.11349549
-0.05771004 0.18592727 0.103220716 0.18238246 -0.06233929 0.022812545 0.09127669 -0.114478916
-0.17583886 -0.12043103 0.13747849 0.17383231 0.07709028 0.0064135436 0.07512424 -0.0059362547
-0.15837158 0.08591059 0.064293295 0.005132157 0.024982158 -0.043465056 0.048646357 0.15149558
0.058713514 0.14221892 -0.06997076 0.02160222 0.029856844 -0.08274395 0.08861865 0.014385231

layer3.weight f4 [1, 64]
00000000: 5ef3 d53e 0319 58be b145 9abe e37b 54be
00000010: ef85 473e 00b3 18be ef4f 99be da18 a1be
00000020: ceba ccbd be72 71be 6b98 833e 1b06 93be
00000030: 3742 223e 3b78 553e 1fd1 9bbe b4f9 803e
00000040: 93d1 78be 5576 64be b072 86be 148f b2be
00000050: a986 893e c861 81be ac9e 85be 22aa 6abe
00000060: 38ca 7bbe 5bc9 57be 3601 75be 13f1 8bbe
00000070: a72d 8fbe e0e5 45be d610 88be a93e a3be
00000080: 4144 62be f5e1 813e 208f 463e e581 603e
00000090: b446 5ebe 16eb 983e 020e 553e 6f45 8cbe
000000a0: 755b 60be 0813 b9bd 7ea3 633e ae9b 493e
000000b0: 60c1 60be d4db 773e e696 943e 9125 353e
000000c0: 8b47 88be df32 8abe df26 95be f211 41be
000000d0: fb59 833e e6e0 46be 8367 6bbe 326e 6c3e
000000e0: cf77 3c3e ddcb 5d3e 3557 8fbe a423 383e
000000f0: 5bfb 293e 71a9 8fbe afc8 853e a9cc 80be
0.41787237 -0.21103291 -0.30131295 -0.20750384 0.19484685 -0.14912033 -0.29943797 -0.31464273
-0.09996568 -0.23578927 0.25702223 -0.28715596 0.15845571 0.20846646 -0.30432984 0.25190508
-0.24298696 -0.22310765 -0.26259375 -0.34874785 0.2686055 -0.25269914 -0.2609762 -0.22916463
-0.24588859 -0.21072905 -0.23926243 -0.27332363 -0.27964517 -0.19325972 -0.26575345 -0.31883743
-0.2209635 0.25367704 0.19390535 0.21924551 -0.21706659 0.29866856 0.20806125 -0.27396724
-0.21909888 -0.09036833 0.22230336 0.19688293 -0.21948767 0.24204952 0.29021376 0.17690112
-0.26617083 -0.26991937 -0.2913122 -0.18854502 0.25654587 -0.1942173 -0.22988705 0.23088911
0.18405078 0.21659799 -0.2799622 0.17982346 0.16599791 -0.2805896 0.26129672 -0.25156143
