CS141 Final Project/PPO_agent/cached ppo agents/ppo_critic5-9.pth (torch, 21679 bytes, 5 tensors)

layer1.weight f4 [64, 9]
0.09012766 -0.049745806 -0.23414388 -0.10351891 -0.22008638 0.22927628 0.15257686 -0.33755752
0.31110623 0.18493447 -0.26878756 0.002754011 0.28077656 0.26571044 0.21229513 0.20896085
-0.136006 -0.10171861 -0.099379 0.21969299 0.073638014 0.07701333 0.2595931 0.030378036
-0.009372315 -0.124599256 -0.3204267 -0.012195362 -0.0396003 0.32319438 0.3073123 0.06918302
-0.22675496 0.1900021 -0.26494354 0.065921925 -0.035849262 -0.27674088 -0.18509607 0.12265383
-0.23091236 0.3116314 -0.007825864 -0.35055253 0.17041911 -0.157339 0.3010816 -0.029412258
-0.2022879 -0.27261633 0.073330544 -0.08947321 -0.1562673 -0.09832847 0.3094059 0.09647789
0.11019149 -0.050444506 -0.2566984 -0.06809856 0.050024703 0.28219882 -0.32796273 -0.20582755
-0.0013383804 -0.18547893 0.06752677 -0.3134277 -0.23722726 -0.081428096 0.16113491 -0.003603234
-0.14516513 -0.26686302 -0.15695499 -0.31101057 0.17918603 -0.25297982 -0.07289335 0.31048062
0.18727587 -0.2721314 0.0034562377 0.29644123 -0.11551455 0.15585604 -0.13710238 -0.15694799
-0.27292317 0.089310005 0.29016465 -0.30125728 0.006987992 0.22862726 -0.20526367 -0.25381684
0.07641595 0.32474628 -0.29775184 0.09404281 0.17146342 0.31747785 -0.122997455 -0.28419715
0.012258179 -0.06763594 0.22429502 0.09071812 0.2254916 -0.24368784 -0.20438685 -0.2261063
-0.276426 -0.17449762 -0.11404277 -0.107399516 -0.13874112 -0.112717316 -0.12134546 -0.05220183
-0.27525815 -0.047991443 -0.20279586 -0.30033293 -0.15287958 -0.2532723 -0.3151592 0.07633626
0.086226106 0.24989502 0.29655364 -0.26089498 0.26423 -0.3010444 0.14536063 0.26606783
0.25649574 0.12072283 0.2691477 -0.24203707 0.046945594 -0.15938191 -0.21526177 -0.11748264
0.21079679 -0.05888435 -0.16169152 0.22342546 -0.0651106 0.049698032 -0.15443735 -0.28136465
-0.24608606 0.16323829 -0.0043915473 -0.061436936 0.23939334 0.14944838 0.22095652 0.2502762
-0.18709023 -0.2355726 -0.3153151 0.27995715 -0.326473 0.25886434 -0.20134404 -0.07539807
-0.018066566 0.19593965 0.203051 0.19785984 -0.19799964 -0.23664358 -0.094093814 0.16511746
-0.2057347 -0.2214592 0.2666464 0.22633658 -0.011028962 0.20228033 -0.095155835 -0.12732683
-0.11905416 0.20511699 0.06347073 -0.24993086 -0.06378706 0.08325233 -0.028031327 0.28133932
-0.058664497 0.3153695 -0.17801304 0.1484829 -0.32247716 -0.23041557 -0.10863618 -0.2739082
0.0274207 0.2686677 0.13090877 -0.2573387 -0.27293947 -0.013321848 -0.30998164 -0.028610524
0.09762114 0.23657246 0.12577702 -0.30260137 0.016555164 -0.11420845 -0.30767688 -0.19197169
0.219195 -0.19064307 0.13069738 -0.19787093 -0.067864396 -0.026740242 0.02022504 0.17337994
0.27101064 -0.05192582 0.21833353 0.31341356 0.038168866 -0.27155733 -0.098151326 0.111764774
0.1382133 0.24960954 -0.2218116 -0.04275167 -0.0626931 -0.2466981 0.29810944 0.18854351
-0.13828468 0.109527245 -0.30309218 -0.0514407 -0.16117808 -0.33852196 -0.16862619 0.28192177
0.2578077 -0.07259771 0.32451499 -0.30884805 0.13587369 -0.116679184 0.2600742 -0.2541126
00000000: da94 b83d 42c2 4bbd 6ac3 6fbe b901 d4bd
00000010: 535e 61be 67c7 6a3e 1c3d 1c3e 57d4 acbe
00000020: 5149 9f3e 765f 3d3e 869e 89be a37c 343b
00000030: f2c1 8f3e 330b 883e e563 593e d5f9 553e
00000040: 2845 0bbe d951 d0bd 3887 cbbd 33f7 603e
00000050: 87cf 963d 2ab9 9d3d 63e9 843e 5cdb f83c
00000060: 578e 19bc e52d ffbd f80e a4be 0ecf 47bc
00000070: ed33 22bd bc79 a53e 0a58 9d3e d4af 8d3d
00000080: 7432 68be e98f 423e aea6 87be 1302 873d
00000090: add6 12bd fbb0 8dbe d389 3dbe ee31 fb3d
000000a0: 4a74 6cbe 278e 9f3e 0d38 00bc 9f7b b3be
000000b0: 5982 2e3e 7a1d 21be 5e27 9a3e faf1 f0bc
000000c0: 8f24 4fbe 5e94 8bbe 532e 963d bb3d b7bd
000000d0: 8904 20be 7060 c9bd 736a 9e3e 3396 c53d
000000e0: 13ac e13d e69e 4ebd f96d 83be 4277 8bbd
000000f0: b4e6 4c3d 5d7c 903e bbea a7be 75c4 52be
00000100: 986c afba 30ee 3dbe 7a4b 8a3d 9879 a0be
00000110: b4eb 72be c6c3 a6bd 8d00 253e 3c24 6cbb
00000120: 2ba6 14be 45a2 88be cfb8 20be c73c 9fbe
00000130: 8b7c 373e 9286 81be 1c49 95bd 51f7 9e3e
00000140: 3fc5 3f3e cf54 8bbe 0c82 623b 25c7 973e
00000150: e492 ecbd ba98 1f3e 9164 0cbe f9b6 20be
00000160: 96bc 8bbe 2ae8 b63d 7690 943e 653e 9abe
00000170: 87fb e43b 441d 6a3e a430 52be 48f4 81be
00000180: f77f 9c3d 2545 a63e ee72 98be 8499 c03d
00000190: 1b94 2f3e 758c a23e 17e6 fbbd 4a82 91be
000001a0: 87d6 483c b684 8abd 98ad 653e 6cca b93d
000001b0: 45e7 663e 4e89 79be c94a 51be 6988 67be
000001c0: b587 8dbe 81af 32be 418f e9bd 47f4 dbbd
000001d0: 2712 0ebe 56d8 e6bd f883 f8bd 96d1 55bd
000001e0: a3ee 8cbe ad92 44bd b8a9 4fbe 3dc5 99be
000001f0: 778c 1cbe e8ac 81be 8c5c a1be 2f56 9c3d
00000200: 5097 b03d 7be4 7f3e e1d5 973e 0794 85be
00000210: 2849 873e 7e22 9abe 6bd9 143e 0b3a 883e
00000220: 6953 833e 883d f73d bacd 893e 91d8 77be
00000230: 064a 403d 0335 23be 956d 5cbe bd9a f0bd
00000240: 1ddb 573e b730 71bd 7692 25be a5c9 643e
00000250: b558 85bd 2a90 4b3d d324 1ebe 070f 90be
00000260: fcfd 7bbe f027 273e f8e6 8fbb 4ca5 7bbd
00000270: 8723 753e ff08 193e 6d42 623e 3424 803e
00000280: 9594 3fbe f239 71be fb70 a1be 8b56 8f3e
00000290: 7827 a7be de89 843e 222d 4ebe 4e6a 9abd
000002a0: 5600 94bc 67a4 483e 9aec 4f3e c59b 4a3e
000002b0: 6bc0 4abe b252 72be 42b4 c0bd 8d14 293e
000002c0: 1eac 52be 33c6 62be e085 883e c7c4 673e
000002d0: d2b2 34bc 9322 4f3e 10e1 c2bd f761 02be
000002e0: abd2 f3bd 300a 523e f1fc 813d e0ed 7fbe
000002f0: caa2 82bd 3380 aa3d f4a1 e5bc b50b 903e
00000300: 2f4a 70bd 1c78 a13e 0d49 36be e70b 183e
00000310: ba1b a5be 0ff2 6bbe a57c debd b23d 8cbe
00000320: 60a1 e03c d08e 893e f30c 063e e6c1 83be
00000330: b9be 8bbe e143 5abc eab5 9ebe 9e60 eabc
00000340: 98ed c73d 0d40 723e b1cb 003e 91ee 9abe
00000350: b29e 873c 1fe6 e9bd d387 9dbe 3a94 44be
00000360: a774 603e f037 43be 89d5 053e ad9e 4abe
00000370: 7dfc 8abd 5a0e dbbc fcae a53c 838a 313e
00000380: e8c1 8a3e 2bb0 54bd d392 5f3e be77 a03e
00000390: f556 1c3d 9009 8bbe 9003 c9bd eee4 e43d
000003a0: ca87 0d3e a599 7f3e 9422 63be 601c 2fbd
000003b0: 3d65 80bd 6d9e 7cbe cda1 983e 8d11 413e
000003c0: 809a 0dbe d24f e03d e62e 9bbe 7cb3 52bd
000003d0: de0b 25be c052 adbe 58ac 2cbe 0d58 903e
000003e0: 5fff 833e 1cae 94bd d426 a63e 5521 9ebe
000003f0: 7922 0b3e 7ff5 eebd 7228 853e 0c1b 82be

layer1.bias f4 [64]
-0.33613363 0.0707857 -0.20941994 0.17928088 0.102543466 0.17822686 0.28246665 0.22320291
-0.27651447 0.1478268 -0.16750233 0.040972058 -0.2315358 0.14793307 -0.18736926 -0.21190156
0.123491526 -0.32666168 0.2813292 -0.25496197 0.15078574 -0.0074102595 -0.28968972 -0.27932334
-0.22987463 0.25210848 -0.05097348 0.04084068 0.09136706 -0.181352 -0.19652045 0.10125069
-0.07678523 0.11909592 -0.25949982 -0.024616173 0.07058523 -0.079301 -0.07851453 0.0047786282
0.25639877 0.049437128 0.027419787 0.023955088 0.2749485 -0.20714878 0.22267371 0.028578522
0.111962736 -0.12142123 -0.2592569 0.19162776 -0.06647054 -0.32115868 -0.16434227 0.16321921
0.2987275 0.30371058 0.15287563 0.25540462 -0.03091726 0.07881562 -0.07920969 0.22695711
00000000: b519 acbe 18f8 903d 2e72 56be 6895 373e
00000010: 4f02 d23d 1a81 363e 789f 903e 4e8f 643e
00000020: 4e93 8dbe e95f 173e bb85 2bbe 51d2 273d
00000030: b917 6dbe c47b 173e badd 3fbe b9fc 58be
00000040: 20e9 fc3d 3340 a7be 620a 903e 608a 82be
00000050: 9467 1a3e c3d1 f2bb 3652 94be 7803 8fbe
00000060: 4164 6bbe 5d14 813e 91c9 50bd 8f48 273d
00000070: a71e bb3d 57b4 39be a83c 49be 865c cf3d
00000080: 9341 9dbd 90e8 f33d 29dd 84be dba7 c9bc
00000090: fd8e 903d 9068 a2bd 3acc a0bd 0a96 9c3b
000000a0: b346 833e 967e 4a3d 769f e03c 763d c43c
000000b0: 0dc6 8c3e cf1e 54be 9404 643e 811d ea3c
000000c0: b84c e53d b2ab f8bd 52bd 84be 113a 443e
000000d0: b521 88bd e96e a4be 5749 28be f022 273e
000000e0: d0f2 983e f47f 9b3e 6e8b 1c3e 65c4 823e
000000f0: 3246 fdbc 156a a13d b138 a2bd 7267 683e

layer2.weight f4 [64, 64]
0.043433193 -0.053314786 -0.07075568 -0.0850757 -0.0824313 -0.012293293 -0.023261797 0.049541876
0.11573714 0.11820561 0.005066899 -0.10924489 0.059944008 -0.053283263 -0.1177527 0.050932888
-0.041991383 -0.017643223 -0.07510254 -0.04903318 0.098401226 0.07058558 -0.073369734 -0.014696079
-0.12329201 -0.047064815 0.08470645 -0.111677706 -0.10318219 -0.07344742 0.1099388 0.10929714
0.02016305 0.101114094 -0.046933655 -0.09933803 0.11221643 0.03916078 -0.10212327 0.054919854
0.094101265 -0.028638635 0.07320859 0.10042351 0.044598725 0.0442404 -0.09931601 -0.12059286
0.06116863 -0.0536869 -0.107674606 0.058549892 -0.061924554 -0.11141075 -0.008045162 -0.11634544
-0.08810063 0.09107153 0.115092024 -0.0071280953 -0.036687706 -0.054654494 0.067912996 -0.022149028
-0.11966609 -0.06354112 0.12265926 -0.0407505 -0.03372961 0.0515131 -0.059150454 0.117873244
-0.0939151 -0.05014172 0.0112876715 0.0022093991 -0.082554035 -0.0906022 0.085278645 -0.07108638
0.08459256 -0.0713262 0.058847435 0.022993663 -0.049758136 -0.03113257 0.00037967795 -0.03952199
0.11865157 0.118138336 -0.07290044 0.1121606 -0.026889106 -0.07280657 -0.045067016 0.0017538
-0.11118771 -0.084665254 0.00018869448 -0.0922336 0.04429022 -0.07536522 -0.1076267 0.060220625
0.0050619678 0.020519841 0.110369734 -0.09964795 -0.022575589 -0.010946346 0.03557253 -0.031826407
-0.1202805 0.11913661 0.074974455 -0.05258468 -0.05393547 -0.11532027 0.024551798 0.07124103
0.10125292 -0.04869948 -0.12593295 0.06839369 -0.06668457 0.01011456 -0.111983456 0.1076274
-0.016908133 0.019321179 -0.11778185 -0.111620344 -0.049314298 -0.03415987 0.064190105 0.107247
0.023845758 -0.0349655 0.07214176 0.025923697 -0.11118433 0.031487156 0.1087402 -0.12234488
0.07138979 0.09772938 -0.06059091 -0.07938873 -0.0032457837 0.10061456 -0.118150756 0.11578472
-0.025061024 0.010383595 0.015248071 0.011676344 0.07334644 -0.05782226 -0.053963687 -0.09211735
0.07738967 0.01095932 0.050260693 -0.026085073 0.10599309 -0.010018652 0.046425913 0.058786187
-0.02399199 -0.077912815 -0.119366325 0.057256356 0.04499507 -0.038424995 -0.123626865 -0.058109853
0.0016450625 0.04731839 -0.009110244 -0.026117116 -0.0007298213 -0.10305597 -0.02235668 -0.08979151
-0.11713459 0.04015939 0.060802747 0.07721436 -0.04127213 0.07748966 -0.12470649 0.06115728
0.097002834 0.05743817 0.07672068 0.06520432 0.02751928 0.08644241 -0.07625984 -0.019700676
0.07254507 -0.04004568 -0.055565543 -0.084908806 0.099197336 0.093120344 0.058483057 0.11469019
-0.0778265 -0.07451199 0.04799007 0.058014117 0.010405464 -0.02643701 0.052093785 0.0037348273
0.07087405 0.027907848 -0.067361236 0.04701351 -0.035848323 0.030629361 0.11652115 0.053910512
0.04722094 -0.037612855 -0.06857721 -0.06673593 -0.10420744 -0.114668526 -0.03211054 0.08216513
-0.006360514 0.038313273 0.07407178 -0.06970162 0.09577993 -0.04761364 -0.018032426 0.055367984
-0.06962417 0.122345515 0.11610168 0.08540831 0.07299165 0.03886496 -0.06398941 0.043281935
-0.09093267 0.111955255 0.054495286 -0.09570327 0.020564213 -0.032194894 -0.08478596 0.06062981
00000000: 01e7 313d 9b60 5abd 5be8 90bd 2b3c aebd
00000010: bed1 a8bd cf69 49bc 868f bebc 6cec 4a3d
00000020: 9807 ed3d c815 f23d 3b08 a63b c9bb dfbd
00000030: d987 753d 8d3f 5abd 5428 f1bd 019f 503d
00000040: 28ff 2bbd 8588 90bc 5ccf 99bd 04d7 48bd
00000050: 9586 c93d 2c8f 903d df42 96bd d3c7 70bc
00000060: 8580 fcbd 09c7 40bd 937a ad3d 48b7 e4bd
00000070: 2f51 d3bd 9a6b 96bd 9827 e13d 2ed7 df3d
00000080: fb2c a53c e814 cf3d 813d 40bd bd71 cbbd
00000090: bad1 e53d 0e67 203d 0126 d1bd a4f3 603d
000000a0: 2ab8 c03d 929b eabc 63ee 953d d7aa cd3d
000000b0: 27ad 363d 6c35 353d 3166 cbbd 64f9 f6bd
000000c0: f58b 7a3d cbe6 5bbd 8184 dcbd 03d2 6f3d
000000d0: 9aa4 7dbd 522b e4bd dbcf 03bc 8546 eebd
000000e0: 1a6e b4bd b683 ba3d 5eb5 eb3d cc92 e9bb
000000f0: d945 16bd 64dd 5fbd f815 8b3d e171 b5bc
00000100: 7f13 f5bd d921 82bd c734 fb3d ffe9 26bd
00000110: 0f28 0abd 66ff 523d bf47 72bd 8767 f13d
00000120: 8f56 c0bd 6761 4dbd edef 383c 91cb 103b
00000130: 1712 a9bd a58d b9bd 92a6 ae3d bc95 91bd
00000140: dd3e ad3d 7913 92bd 020a 713d 355d bc3c
00000150: 30cf 4bbd bb09 ffbc 830f c739 cfe1 21bd
00000160: 98ff f23d 83f2 f13d d34c 95bd 75b4 e53d
00000170: 8b46 dcbc 9c1b 95bd 3198 38bd c3df e53a
00000180: 62b6 e3bd fa64 adbd 4adc 4539 f8e4 bcbd
00000190: a969 353d 1559 9abd 636b dcbd e7a9 763d
000001a0: ddde a53b 3a19 a83c 8709 e23d 3914 ccbd
000001b0: 71f0 b8bc 4e58 33bc 80b4 113d 685c 02bd
000001c0: 9f55 f6bd e5fd f33d 358c 993d 0963 57bd
000001d0: 70eb 5cbd 092d ecbd da20 c93c d1e6 913d
000001e0: b15d cf3d 1b79 47bd 91f4 00be fe11 8c3d
000001f0: eb91 88bd 8ab7 253c 9557 e5bd c16b dc3d
00000200: ed82 8abc 7347 9e3c 9c37 f1bd 3599 e4bd
00000210: cafd 49bd 38eb 0bbd 1a76 833d 51a4 db3d
00000220: 2e58 c33c fc37 0fbd 0fbf 933d ef5d d43c
00000230: 9cb4 e3bd adf8 003d 2fb3 de3d f48f fabd
00000240: cf34 923d 5726 c83d 2d2e 78bd 8f96 a2bd
00000250: 37b7 54bb 020f ce3d 06f9 f1bd 8a20 ed3d
00000260: c74c cdbc f41f 2a3c 0cd3 793c 234e 3f3c
00000270: a936 963d 09d7 6cbd 0709 5dbd 05a8 bcbd
00000280: 7a7e 9e3d b88e 333c 28de 4d3d 5db0 d5bc
00000290: e812 d93d 4625 24bc 1929 3e3d c9c9 703d
000002a0: da8a c4bc c190 9fbd 5576 f4bd a485 6a3d
000002b0: c04c 383d 8763 1dbd 1530 fdbd 9904 6ebd
000002c0: 239f d73a eed0 413d 2243 15bc 90f3 d5bc
000002d0: 7a51 3fba 020f d3bd 5b25 b7bc 9ce4 b7bd
000002e0: 43e4 efbd 2c7e 243d 4d0c 793d 9022 9e3d
000002f0: f70c 29bd e6b2 9e3d 1e66 ffbd 0e80 7a3d
00000300: 6ca9 c63d 4944 6b3d bb1f 9d3d d889 853d
00000310: 1d70 e13c b808 b13d 1e2e 9cbd 5063 a1bc
00000320: 8292 943d f006 24bd b298 63bd abe4 adbd
00000330: f927 cb3d e1b5 be3d ee8b 6f3d b1e2 ea3d
00000340: 8063 9fbd be99 98bd 3c91 443d 36a0 6d3d
00000350: ae7b 2a3c 6e92 d8bc 4b60 553d 01c4 743b
00000360: 6a26 913d 009f e43c b0f4 89bd 3d91 403d
00000370: b1d5 12bd 6dea fa3c a4a2 ee3d 45d1 5c3d
00000380: bf6a 413d f00f 1abd 3572 8cbd d9ac 88bd
00000390: b66a d5bd 55d7 eabd 5786 03bd 3146 a83d
000003a0: dc6b d0bb 61ee 1c3d f2b2 973d b9bf 8ebd
000003b0: 4528 c43d 8506 43bd bdb8 93bc 8ac9 623d
000003c0: 1e97 8ebd 4990 fa3d b8c6 ed3d 8dea ae3d
000003d0: a57c 953d dd30 1f3d e10c 83bd 6648 313d
000003e0: e83a babd cc48 e53d 7336 5f3d 1300 c4bd
000003f0: 4876 a83c cbde 03bd 43a4 adbd f756 783d

layer2.bias f4 [64]
0.008835907 -0.071717575 0.006201922 0.027147058 0.055761777 0.0025933713 0.08721794 -0.043178275
-0.04218781 0.117060386 -0.06270856 0.0057874243 0.04848361 0.08000329 -0.0457499 0.09142339
0.083139315 0.048244406 0.011723503 -0.115272895 -0.017069753 -0.0046630264 0.113926396 0.022767168
0.11156664 -0.010952151 -0.10123155 -0.09905704 -0.08456589 -0.00010508213 -0.091040984 -0.11163178
-0.03953751 0.059636395 -0.019281417 0.07712865 0.097684816 0.031987436 0.06816801 -0.115521856
0.10613335 0.092294246 -0.11431743 0.1122782 0.042937912 0.05819958 0.08965191 -0.12277126
0.074791044 0.064256325 -0.07768781 0.00015113007 0.038705543 0.02639722 -0.039113555 -0.016637105
0.07632333 -0.063698046 0.12272719 -0.07735507 -0.011024992 0.026125867 -0.051187165 0.0425888
00000000: 7bc4 103c aae0 92bd 7e39 cb3b 8263 de3c
00000010: 7666 643d 8df5 293b 529f b23d b4db 30bd
00000020: 20cd 2cbd 5bbd ef3d 586d 80bd 6fa4 bd3b
00000030: c096 463d c4d8 a33d 3f64 3bbd 303c bb3d
00000040: f244 aa3d ed9b 453d ef13 403c 3214 ecbd
00000050: ded5 8bbc 4dcc 98bb 3e52 e93d 3682 ba3c
00000060: 0d7d e43d a770 33bc 7d52 cfbd 6bde cabd
00000070: e230 adbd 8a5f dcb8 b273 babd 349f e4bd
00000080: 16f2 21bd 4b45 743d 10f4 9dbc a0f5 9d3d
00000090: fa0e c83d 4205 033d ab9b 8b3d b996 ecbd
000000a0: 715c d93d c404 bd3d 421f eabd 1df2 e53d
000000b0: aadf 2f3d af62 6e3d 6c9b b73d 806f fbbd
000000c0: 0c2c 993d d298 833d c91a 9fbd ab78 1e39
000000d0: b489 1e3d fc3e d83c 8935 20bd 8a4a 88bc
000000e0: 684f 9c3d 1f74 82bd 6558 fb3d 566c 9ebd
000000f0: 2ba2 34bc ea05 d63c a2a9 51bd 9871 2e3d

layer3.weight f4 [1, 64]
0.09058045 0.12946236 -0.0065585333 -0.019496901 -0.060651142 0.077512115 -0.036361773 0.06551705
-0.053039018 0.08252216 0.07516351 -0.09265471 -0.015016802 0.03269101 0.020386318 -0.09325949
0.0124284085 0.100355506 -0.026813183 0.11761598 0.03463598 -0.04515266 -0.025036216 0.09539691
0.023849327 -0.033504836 0.113395154 -0.052651674 -0.05802138 -0.039435297 0.051073574 0.042300366
0.103482895 0.07232683 -0.061685562 0.11161775 0.050116252 0.008371656 0.036501456 -0.11805241
0.044902522 0.077663064 -0.100284874 -0.053459954 -0.06907013 -0.030996434 -0.03375852 -0.016077643
-0.06681805 0.072484255 -0.027566306 -0.023548799 -0.042527582 0.01737218 -0.059358664 0.007325868
0.010875446 -0.080783404 0.10696013 -0.09719878 0.025271265 0.0052317805 -0.084987186 0.016063686
00000000: 3e82 b93d c891 043e f7e8 d6bb f7b7 9fbc
00000010: 556d 78bd acbe 9e3d 15f0 14bd ce2d 863d
00000020: 713f 59bd 6101 a93d 54ef 993d c1c1 bdbd
00000030: 0809 76bc 02e7 053d 3501 a73c d5fe bebd
00000040: 86a0 4b3c 3087 cd3d 52a7 dbbc a6e0 f03d
00000050: 75de 0d3d fff1 38bd c018 cdbc 755f c33d
00000060: aa5f c33c 5e3c 09bd b83b e83d 48a9 57bd
00000070: d4a7 6dbd e886 21bd 8632 513d 2643 2d3d
00000080: d7ee d33d 1720 943d 00aa 7cbd d997 e43d
00000090: b346 4d3d 4529 093c 8d82 153d 76c5 f1bd
000000a0: b5eb 373d d00d 9f3d 2862 cdbd d3f8 5abd
000000b0: a474 8dbd 3cec fdbc 6046 0abd 43b5 83bc
000000c0: e7d7 88bd a072 943d bcd2 e1bc 69e9 c0bc
000000d0: 6731 2ebd 1a50 8e3c 1222 73bd d60d f03b
000000e0: ed2e 323c c571 a5bd ea0d db3d 2710 c7bd
000000f0: af05 cf3c 5b6f ab3b c30d aebd fe97 833c
