CS141 Final Project/PPO_agent/cached ppo agents/ppo_actor5-10_morning_travis.pth (torch, 22695 bytes, 6 tensors)

layer1.weight f4 [64, 9]
0	0xbe831777	-0.2560384
1	0x3e94c518	0.2905662
2	0x3e3a6af5	0.18204863
3	0x3e3d5226	0.18488368
4	0x3e159275	0.1460665
5	0xbe26bbc5	-0.16282566
6	0x3e456c5d	0.19279619
7	0x3eb400ee	0.3515696
8	0x3e748872	0.23880175
9	0xbe24e1ca	-0.16101757
10	0xbdd1082e	-0.10206638
11	0x3d7b2a0e	0.061319403
12	0xbea84d4f	-0.32871482
13	0x3eb2463a	0.34819204
14	0xbe5354e4	-0.20637852
15	0xbdad96e5	-0.084760465
16	0x3e968bcb	0.2940353
17	0x3e5fb567	0.21846543
18	0xbec48cdd	-0.3838872
19	0xbce7cb16	-0.028295081
20	0x3ea3d4ad	0.31998196
21	0x3cd1da2c	0.025616728
22	0x3c1eb239	0.009686046
23	0x3e79cd20	0.24394655
24	0x3caeaccb	0.021322628
25	0x3e4d2911	0.20035197
26	0x3e01fd2a	0.1269423
27	0xbe9b0cce	-0.30283207
28	0xbe6906d2	-0.22756508
29	0x3e32b6f3	0.17452602
30	0xbe82f504	-0.25577557
31	0x3c02bbe2	0.007979365
32	0xbd05627e	-0.032564633
33	0x3ea329a1	0.31867698
34	0x3c9ddecc	0.019271277
35	0x3dc562bd	0.096379735
36	0x3c19c2ea	0.00938485
37	0x3e119d31	0.1422012
38	0x3ce3e10b	0.02781727
39	0xbe9bbe98	-0.3041885
40	0xbda76fb1	-0.081756
41	0x3d8c6537	0.06855243
42	0xbe949d14	-0.2902609
43	0x3d81dbe3	0.06340768
44	0xbe810f1a	-0.25206834
45	0xbf0c6d71	-0.54854494
46	0xbe97173e	-0.2950992
47	0x3eb10331	0.34572747
48	0xbc8418af	-0.016125051
49	0xbe079c6e	-0.13243267
50	0xbe0e94e0	-0.13923979
51	0xbe561fad	-0.20910521
52	0x3de513c0	0.11185408
53	0xbde49b8a	-0.11162479
54	0x3db4fa3d	0.08836792
55	0x3ebb1051	0.36535886
56	0x3cd5e3e5	0.026109645
57	0xbe85bc38	-0.26120162
58	0xbb404880	-0.0029340088
59	0xbdfade72	-0.12249459
60	0xbeb16b72	-0.34652287
61	0xbdf38d7b	-0.1189222
62	0xbeba922e	-0.3643965
63	0x3e3b0e7a	0.18267241
64	0x3df32dd9	0.11873979
65	0xbe1b1154	-0.15143329
66	0x3d326425	0.043552537
67	0x3e267d94	0.16258842
68	0x3e889ded	0.26682988
69	0xbe6e9774	-0.23299962
70	0xbdd601ef	-0.104495876
71	0xbe10c1e4	-0.14136463
72	0xbcefaa82	-0.02925611
73	0x3e50e214	0.20398742
74	0x3e8e5b27	0.2780392
75	0xbe3b9452	-0.18318298
76	0xbea422a3	-0.32057676
77	0x3e48cf54	0.1961034
78	0xbe8bd458	-0.27310443
79	0xbdb62073	-0.08892908
80	0x3e442612	0.19155148
81	0x3ebe25aa	0.3713811
82	0xbd8cc0c5	-0.06872705
83	0x3dc01a5c	0.09380028
84	0x3dd21cec	0.10259423
85	0x3e86cb43	0.2632695
86	0x3e3c3184	0.18378264
87	0xbc249169	-0.010044434
88	0x3e477444	0.19477946
89	0x3dad9cac	0.084771484
90	0xbbaaeedf	-0.005216464
91	0xbda734bc	-0.08164355
92	0xbe57707e	-0.21039006
93	0x3ea6db0b	0.32588992
94	0x3de9dee0	0.11419463
95	0x3db8a017	0.0901491
96	0x3e26539c	0.16242832
97	0x3da7bc7d	0.08190248
98	0x3d74da50	0.05977851
99	0x3ecebf11	0.40380147
100	0xbdfb204e	-0.12262021
101	0xbdcc81b7	-0.09985679
102	0x3e25d648	0.16195023
103	0xbe3de9a4	-0.18546158
104	0x3dcc8092	0.0998546
105	0xbe7314c3	-0.23738389
106	0xbe2d15e1	-0.16902877
107	0x3dd02477	0.10163205
108	0xbdd24f06	-0.10268979
109	0x3e8a3ea1	0.27000907
110	0x3d09f320	0.033679128
111	0x3d8afde7	0.06786709
112	0x3e1933ee	0.14961216
113	0xbe2c58ba	-0.16830721
114	0x3dbe0163	0.09277608
115	0xbe9800ed	-0.29688206
116	0x3de4ae67	0.11166077
117	0x3e9d4cd9	0.30722693
118	0xbe0891d4	-0.13336879
119	0xbe4ad9cd	-0.19809647
120	0x3caa1797	0.020763202
121	0xbe478033	-0.19482498
122	0xbe45b3c1	-0.19306852
123	0x3ce96dd6	0.028494757
124	0xbdacbf95	-0.08434979
125	0x3e21ea7a	0.15812102
126	0x3e77bad9	0.2419237
127	0x3e7c3087	0.24627887
128	0xbd3d3103	-0.04618932
129	0xbdf7019a	-0.12060852
130	0x3e832476	0.25613755
131	0xbddb7bdd	-0.107169844
132	0xbba2041e	-0.0049443385
133	0x3e21e572	0.15810183
134	0x3e32a471	0.17445542
135	0xbdd82def	-0.10555636
136	0xbe6d75d6	-0.23189482
137	0x3e91381a	0.28363115
138	0xbe92b9d8	-0.28657413
139	0x3e966984	0.29377377
140	0x3c0b7491	0.008511678
141	0xbdac4239	-0.084110685
142	0xbc85c8ce	-0.016331103
143	0x3e87a67a	0.264942
144	0xbe71644d	-0.23573418
145	0xbe920bbc	-0.28524578
146	0xbe6d12e6	-0.2315174
147	0x3d8c2a37	0.06843989
148	0x3e43efe3	0.19134478
149	0xbd414022	-0.047180302
150	0xbe816b3d	-0.2527713
151	0x3e84748c	0.25870168
152	0x3eaa72f4	0.33290827
153	0xbde1a6dc	-0.11018154
154	0xbe1b0a3a	-0.1514062
155	0xbe4d7301	-0.20063402
156	0x3ea23fd8	0.31689334
157	0x3e55b876	0.20871148
158	0xbd955576	-0.07291691
159	0x3e81b48f	0.25333068
160	0xbe67d1df	-0.22638653
161	0x3e96dd81	0.2946587
162	0xbeb3aebc	-0.3509425
163	0x3e885cb3	0.26633224
164	0x3e68aa29	0.22721161
165	0xbebbd148	-0.36683106
166	0x3d4e99b5	0.050439555
167	0xbdf6740b	-0.12033852
168	0x3c9e3b6a	0.01931544
169	0xbe2eaedc	-0.17058891
170	0xbed2196d	-0.41035023
171	0xbe03f734	-0.1288727
172	0xbe7c49ca	-0.24637523
173	0x3cfddb0b	0.030988237
174	0x3dc8481b	0.09779378
175	0xbe99ce93	-0.30040416
176	0xbe2eddb7	-0.17076765
177	0x3e9503df	0.29104516
178	0x3e944fe5	0.28967205
179	0xbe0505e4	-0.12990528
180	0x3d91cac2	0.07118751
181	0xbe898570	-0.26859617
182	0x3e8f3c5e	0.27975744
183	0xbd61e968	-0.055154234
184	0xbdbb8b84	-0.0915747
185	0x3df14f46	0.11782698
186	0xbe102d47	-0.14079772
187	0x3d273a36	0.040827
188	0x3e2391d2	0.15973595
189	0x3eb8169a	0.35954744
190	0x3d50b69e	0.050955407
191	0xbe0cc0ea	-0.13745466
192	0xbe7ccd4b	-0.24687688
193	0x3ead2afb	0.33821854
194	0xbd9fcea5	-0.07803086
195	0x3e1a72ef	0.15082906
196	0x3eaff727	0.3436825
197	0xbe9279cb	-0.28608546
198	0xbe81016e	-0.25196403
199	0x3e3fdfe8	0.18737757
200	0x3da0aee1	0.078458555
201	0x3ea1932a	0.3155759
202	0x3eb9ac5a	0.36264306
203	0xbd834a02	-0.064106
204	0x3e5f665a	0.21816388
205	0xbd9bb3b3	-0.07602634
206	0x3dcb5dfd	0.09930036
207	0xbe33905f	-0.17535542
208	0x3d9e3b09	0.07726104
209	0xbd9170af	-0.07101571
210	0xbd67376c	-0.05644934
211	0x3e3ea461	0.18617393
212	0xbe369959	-0.17831935
213	0x3e4c0ece	0.19927523
214	0xbd2b86ef	-0.04187673
215	0xbdeb67d2	-0.114944115
216	0xbe0ffbbe	-0.14060876
217	0xbdfa8d33	-0.12233963
218	0xbe6c9a26	-0.23105678
219	0xbe7471c0	-0.23871517
220	0x3e280f7d	0.16412158
221	0xbe822875	-0.2542149
222	0x3e3f69f0	0.18692756
223	0xbd0dd832	-0.034630008
224	0xbeb50ba5	-0.35360447
225	0xbe61a88c	-0.22036952
226	0xbe29322a	-0.16523042
227	0x3ea3e008	0.3200686
228	0xbc8edd80	-0.017439604
229	0x3eb25228	0.34828305
230	0x3c3ad953	0.011404353
231	0xbe8d52b8	-0.27602172
232	0x3e6e0278	0.23243129
233	0xbe8ce451	-0.27517942
234	0x3e267bad	0.16258116
235	0x3e79d13b	0.24396221
236	0x3e92be72	0.28660923
237	0x3e8b302b	0.27185187
238	0xbde0c4cc	-0.10975036
239	0xbd20810a	-0.03918556
240	0x3cc178b1	0.02361712
241	0x3e8800f4	0.26563227
242	0x3ea87950	0.32905054
243	0x3ec29b88	0.38009286
244	0x3e5f5cd2	0.21812752
245	0x3e9714e6	0.29508132
246	0xbe4acafd	-0.19803996
247	0xbdc7c84e	-0.09755002
248	0x3d99ffe1	0.07519508
249	0xbe44b7ed	-0.19210787
250	0x3de0b14e	0.10971318
251	0x3ce3d9f0	0.027813882
252	0xbd539632	-0.05165691
253	0xbe16ed13	-0.14738874
254	0x3e24b3e2	0.16084245
255	0xbe8ff827	-0.28119013

layer1.bias f4 [64]
0	0x3ce26de6	0.027640294
1	0xbe313c51	-0.17308165
2	0x3ec21ab8	0.3791101
3	0xbd45864e	-0.048223786
4	0xbe509e60	-0.20372915
5	0x3e183709	0.14864744
6	0xbe6f101f	-0.23345993
7	0x3dee9d52	0.116511
8	0xbe3b3a2b	-0.18283908
9	0x3e97e347	0.29665586
10	0xbe4c5e99	-0.19957961
11	0x3e972c40	0.29525948
12	0xbd3e1c7f	-0.046413895
13	0x3cd984f3	0.026552653
14	0x3c214d19	0.009845042
15	0x3ecc97ab	0.39959463
16	0x3ea45354	0.32094824
17	0x3d4f17d6	0.05055984
18	0xbdd8ad63	-0.10579946
19	0xbe17ce37	-0.14824758
20	0x3d88504c	0.066559404
21	0x3e2c0d8c	0.16802043
22	0x3dd03fc1	0.1016841
23	0x3e877d4a	0.26462775
24	0xbc79608b	-0.015220772
25	0x3df6710f	0.12033283
26	0x3e87e2c6	0.26540202
27	0xbe460c37	-0.19340597
28	0xbe11c1e1	-0.14234115
29	0x3e9eba62	0.31001574
30	0x3d110030	0.03540057
31	0xbe30f97f	-0.17282675
32	0x3e8054e6	0.25064772
33	0xbdbfa660	-0.093579054
34	0xbe421de7	-0.1895672
35	0x3de21157	0.110384636
36	0x3e2a6c5c	0.16642898
37	0x3d737516	0.059437834
38	0x3ec76e5a	0.3895138
39	0xbd761a88	-0.060083896
40	0x3eb80da9	0.35947922
41	0xbe95a214	-0.29225218
42	0x3ebc77ee	0.3681025
43	0xbb86c531	-0.0041128625
44	0xbdc4a980	-0.09602642
45	0x3eb28cd3	0.34873065
46	0x3e15d6c6	0.14632711
47	0xbe87a66a	-0.2649415
48	0x3e2d97cf	0.16952442
49	0xbd05c511	-0.03265864
50	0x3e5a7b7d	0.2133617
51	0xbe3cfecc	-0.18456572
52	0x3e417972	0.18893984
53	0xbe5cd879	-0.21566953
54	0x3ec731c8	0.38905168
55	0x3e888812	0.26666313
56	0xbe5e27bf	-0.2169485
57	0x3eb56d43	0.35434923
58	0x3ebb9b63	0.36641988
59	0xbe4bae90	-0.19890809
60	0xbd7a8b1b	-0.061167818
61	0x3e3f7a26	0.1869894
62	0xbe21e2ba	-0.15809146
63	0xbdbc9813	-0.09208693

layer2.weight f4 [64, 64]
0	0xbd0b5618	-0.034017652
1	0xbc4ad89f	-0.012380748
2	0x3defda3a	0.11711545
3	0x3dd22ad7	0.10262077
4	0xbd94b195	-0.072604336
5	0xbcb15508	-0.021646991
6	0xbc8f1d47	-0.017470015
7	0x3d4f42b3	0.05060072
8	0x3c73d326	0.014881885
9	0x3cd18a8f	0.025578765
10	0xbdcf859c	-0.10132906
11	0xbd7a6649	-0.061132703
12	0x3e08ada3	0.13347487
13	0x3d5a609d	0.053314794
14	0xbe04741d	-0.12934919
15	0xbcf5956e	-0.02997848
16	0xbd82a62e	-0.063793525
17	0x3d3f10e5	0.04664697
18	0xbdcfe953	-0.10151925
19	0x3dedde39	0.11614651
20	0xbdffe981	-0.12495709
21	0x38265920	3.966049e-05
22	0xbdbae58a	-0.09125812
23	0xbd8785a0	-0.06617284
24	0x3d34d3a0	0.044147134
25	0x3d6f5d02	0.05843831
26	0xbc9eb44b	-0.01937308
27	0xbd0ecc08	-0.034862548
28	0x3d0996f5	0.03359123
29	0xbe069539	-0.13142861
30	0xbbcfb868	-0.0063391216
31	0x3cb75d02	0.022383217
32	0x3d8dcfb0	0.06924379
33	0x3dc848f8	0.09779543
34	0x3d883ce9	0.06652243
35	0x3d0f099c	0.034921274
36	0x3e10ad38	0.14128578
37	0x3c8969cb	0.016774079
38	0xbcecccc2	-0.02890623
39	0x3c95f13d	0.018303508
40	0x3c86b680	0.016444445
41	0xbdee1793	-0.1162559
42	0x3d08de2d	0.03341501
43	0x3d880db4	0.06643239
44	0xbe106d51	-0.14104201
45	0x3caa7627	0.020808293
46	0xbd8a6af2	-0.067586794
47	0x3da7fb44	0.08202222
48	0xbdb1f2ce	-0.086888894
49	0xbc17b119	-0.009258532
50	0x3df5fdcc	0.120112985
51	0x3d4cd647	0.05000904
52	0x3d474cd1	0.048657242
53	0xbd82062e	-0.06348835
54	0x3e04daed	0.12974139
55	0x3d7d580b	0.061851542
56	0x3cbc1a13	0.022961652
57	0x3dae7119	0.085176654
58	0x3e03b227	0.12860928
59	0xbbd96cf8	-0.0066353045
60	0x3e21c04a	0.15796009
61	0x3c8e8279	0.017396199
62	0xbd7d53bf	-0.061847445
63	0x3d6173ad	0.055041958
64	0xbda1e83d	-0.07905624
65	0xbd96ec26	-0.073692605
66	0xbd2dfe92	-0.042479105
67	0xbda508cd	-0.08058319
68	0xbc8c7535	-0.017145732
69	0xbdcc7e48	-0.09985024
70	0xbde6d504	-0.11271098
71	0x3dd420c6	0.103578135
72	0xbda50c61	-0.08059002
73	0x3dad2bd2	0.08455624
74	0xbcd7fb56	-0.026364964
75	0x3cf444ea	0.029818017
76	0x3bbde3b0	0.0057949647
77	0xbe217c99	-0.15770186
78	0x3dbae52c	0.09125742
79	0x3c94e1e4	0.01817412
80	0xbd7568ee	-0.059914522
81	0x3d8d34ac	0.06894812
82	0xbe2661f3	-0.16248302
83	0x3d92867a	0.071545556
84	0x3e105d41	0.14098074
85	0x3dc22a60	0.09480739
86	0xbde1c329	-0.11023552
87	0xbc08947d	-0.008336184
88	0xbd9b387c	-0.07579133
89	0xbc21402a	-0.009841958
90	0x3e0d30a0	0.1378808
91	0x3deb4710	0.114881635
92	0xbd7dd7bb	-0.061973315
93	0x3a2203b6	0.00061803625
94	0x3c481d5e	0.012214033
95	0xbda6780e	-0.08128367
96	0xbd132e13	-0.03593261
97	0x3e329520	0.17439699
98	0xbc86bd7c	-0.016447775
99	0xbe327e2d	-0.17430945
100	0xbc117dbf	-0.008880078
101	0xbe6c5b02	-0.23081592
102	0xbdf4273b	-0.11921545
103	0x3bebe43b	0.007198838
104	0x39d51b48	0.00040646852
105	0x3da0a995	0.07844845
106	0xbd95741f	-0.07297539
107	0x3de4fb6f	0.1118077
108	0xbd981782	-0.07426359
109	0x3df858fe	0.12126349
110	0x3d9addb4	0.07561818
111	0x3d8990e9	0.067170925
112	0xbd5789b4	-0.05262156
113	0x3d0810bf	0.033219095
114	0xbe225d4b	-0.15855901
115	0x3d92d284	0.07169059
116	0x3d13cd26	0.036084317
117	0xbdf33378	-0.11875051
118	0xbddc8e7d	-0.10769365
119	0x3e0498b9	0.12948884
120	0xbe4fe1cd	-0.2030098
121	0x3e117cb0	0.14207721
122	0x3db1f5ee	0.086894855
123	0xbd9e30ba	-0.077241376
124	0xbcc6a2b9	-0.024247514
125	0xbe2a449d	-0.16627736
126	0x3e1c16ae	0.15243027
127	0xbb87162d	-0.0041225166
128	0xbc34778c	-0.01101483
129	0x3dfdc2c3	0.123906635
130	0xbdebd331	-0.11514891
131	0xbd1c0369	-0.03808919
132	0x3cc5d69a	0.024150182
133	0xbd8f5a36	-0.06999628
134	0xbd8d4da0	-0.068995714
135	0xbdd4c645	-0.103893794
136	0xbce1ef6d	-0.027579987
137	0x3dab78c3	0.08372643
138	0xbc3a8d35	-0.011386205
139	0x3df18940	0.117937565
140	0xbe2a20c0	-0.16614056
141	0xbe0c1594	-0.13680106
142	0x3e125088	0.14288533
143	0x3dd90758	0.10597104
144	0xbc258fe1	-0.010105104
145	0x3d50483c	0.050850138
146	0xbdd61324	-0.104528695
147	0xba818cda	-0.0009883896
148	0x3dd09140	0.10183954
149	0x3e0a8711	0.13528086
150	0xbc992122	-0.018692557
151	0x3de11f36	0.10992281
152	0x3d87973a	0.06620641
153	0x3d53f606	0.051748298
154	0xbcc2f2e0	-0.023797452
155	0x3c6bd2d0	0.014393523
156	0xbd87bfd9	-0.06628389
157	0xbbafb19f	-0.0053617503
158	0xbd8164d8	-0.063180625
159	0x3ddd37a2	0.10801627
160	0xbd1655bb	-0.036702853
161	0x3d904094	0.07043567
162	0xbdebfcb6	-0.1152281
163	0xbe180f4f	-0.1484959
164	0xbd470fda	-0.0485991
165	0xbd9ea0f6	-0.077455446
166	0xbcbfeadc	-0.02342742
167	0x3e203c29	0.1564795
168	0x3e113d80	0.14183617
169	0x3e3f431b	0.18677942
170	0x3dfcbde3	0.123409055
171	0xbd114ab3	-0.03547163
172	0xbe02fa41	-0.12790777
173	0x3e039eb3	0.12853508
174	0x3e121e56	0.14269385
175	0xbdd0a379	-0.1018743
176	0x3d0cd619	0.034383867
177	0x3cb982d1	0.022645386
178	0x3cf98247	0.030457629
179	0xbcffc4a1	-0.03122169
180	0xbc0ee73f	-0.008722126
181	0xbc8189e3	-0.01581282
182	0x3d919081	0.0710764
183	0xbdb8862e	-0.09009968
184	0x3d2d57f6	0.042320214
185	0xbd8cba3a	-0.068714574
186	0x3db55405	0.08853916
187	0x3ba37ba0	0.0049891025
188	0xbd97a0d3	-0.07403722
189	0x3d7483d7	0.059696045
190	0x3e159699	0.1460823
191	0xbcebbc09	-0.028776186
192	0xbe0f2cc5	-0.13981922
193	0x3d8d56a5	0.06901292
194	0x3dadfb43	0.0849519
195	0x3dd056e9	0.10172827
196	0x3cd9f4b9	0.02660595
197	0xbcd178a6	-0.025570225
198	0xbc4b96b0	-0.012426063
199	0x3d089c11	0.03335196
200	0xbd73e0a1	-0.059540395
201	0xbde0e865	-0.10981826
202	0x3d5e855b	0.054326396
203	0x3e113617	0.1418079
204	0x3dca64ae	0.098824844
205	0x3ddc91e8	0.10770017
206	0xbd416763	-0.047217738
207	0x3db260ec	0.08709893
208	0x3dd6deb3	0.10491695
209	0xbd8741d7	-0.06604355
210	0xbd535ea3	-0.051603924
211	0xbd7b1952	-0.061303444
212	0xbbd7369a	-0.0065677883
213	0xbe1895fa	-0.14900962
214	0xbd654c58	-0.05598101
215	0x3e0f2484	0.13978773
216	0xbd24416f	-0.040101465
217	0xbd78b2b7	-0.06071731
218	0x3d95de89	0.07317836
219	0x3de431b6	0.11142294
220	0xbdc6ddf3	-0.09710302
221	0xbd10e94a	-0.03537873
222	0xbdc6dfa5	-0.097106256
223	0x3d58092a	0.052743115
224	0x3dd342c5	0.1031547
225	0x3ccf9e95	0.025344172
226	0x3d943992	0.07237543
227	0x3d7927ae	0.060828857
228	0x3d244b8b	0.040111106
229	0xbd89b6ac	-0.06724295
230	0x3b925d30	0.004466675
231	0x3cd0e4da	0.02549975
232	0x3d13d66f	0.03609317
233	0xbdd91d6e	-0.106013164
234	0x3cadf5b4	0.021235324
235	0xba26db4f	-0.0006365077
236	0xbd8aa867	-0.067704014
237	0x3d631dad	0.055448223
238	0xbd88b4de	-0.06675123
239	0x3d40c423	0.04706205
240	0xbd7ffe36	-0.062498294
241	0x3d605c7e	0.054775707
242	0x3d8ab9c4	0.06773713
243	0xbd20c728	-0.03925243
244	0x3da0fcab	0.078606926
245	0x3d3f711e	0.046738736
246	0x3d5ef94d	0.05443697
247	0xbd145157	-0.036210384
248	0xbd024180	-0.031800747
249	0x3d0513a6	0.03248944
250	0xbc671c10	-0.014105812
251	0x3e12f9bb	0.14353077
252	0x3dacbff7	0.08435052
253	0x3dbed34c	0.093176454
254	0xbd7a6115	-0.06112774
255	0xbb52dfb2	-0.003217679

layer2.bias f4 [64]
0	0xbcc26e1d	-0.023734147
1	0x3d4fe88c	0.050758883
2	0x3daeb322	0.085302606
3	0xbd52c576	-0.051457845
4	0x3dad2638	0.08454555
5	0x3c8c2250	0.017106205
6	0xbd83ded4	-0.064389855
7	0x3d33e7f7	0.04392239
8	0x3d34407c	0.04400681
9	0x3d797d41	0.060910467
10	0x3d1eee08	0.038801223
11	0xbda5d59f	-0.080973856
12	0xbd42c085	-0.047546882
13	0x3dda9891	0.10673631
14	0xbd87e2bd	-0.06635044
15	0x3e3e7a07	0.18601237
16	0xbdc2b0d6	-0.09506385
17	0x3ca18597	0.01971702
18	0xbd11c495	-0.035587866
19	0x3d63460f	0.055486735
20	0xbcfb6a9d	-0.030690486
21	0x3d47dc64	0.048794165
22	0xbdcb12c0	-0.09915686
23	0xbc6b16ef	-0.0143487295
24	0x3d244c42	0.040111788
25	0x3c264706	0.010148769
26	0x3d1dde3b	0.038542014
27	0x3e4b0753	0.19827013
28	0x3e33894a	0.1753284
29	0x3d87b472	0.06626214
30	0x3cf27f57	0.029601736
31	0x3e36f0da	0.17865315
32	0x3e0414b8	0.12898529
33	0xbcf7fc43	-0.030271655
34	0xbc9061f1	-0.017624827
35	0x3d173447	0.03691509
36	0x3db390ee	0.087678775
37	0xbdf70f69	-0.12063486
38	0x3e23bd26	0.15990123
39	0xbdd1667c	-0.102246255
40	0xbdaace36	-0.08340113
41	0xbdea963e	-0.11454438
42	0x3cf21522	0.029551093
43	0xbda31e5b	-0.07964774
44	0x3dde2fc3	0.108489536
45	0x3d9db3bc	0.07700297
46	0x3dcfb89b	0.101426326
47	0xbddb5300	-0.1070919
48	0x3e23823a	0.15967646
49	0x3ddbec14	0.10738388
50	0x3e380d15	0.1797374
51	0x3dfc3d24	0.12316349
52	0xbdbe1608	-0.09281546
53	0xbd6bbc1f	-0.057552453
54	0xbd5bba14	-0.053644255
55	0x3e1617fb	0.14657585
56	0x3dbba798	0.09162825
57	0x3dfda803	0.12385561
58	0xbd9d0ddc	-0.07668659
59	0xbd05fdd2	-0.032712765
60	0x3e110fea	0.14166227
61	0xbdd7f834	-0.10545388
62	0x3e1674cb	0.1469299
63	0xbd46bc8d	-0.04851966

layer3.weight f4 [5, 64]
0	0x3ce630ac	0.02809938
1	0xbe32268c	-0.17397517
2	0xbe24a91f	-0.1608014
3	0xbdfcb539	-0.12339253
4	0xbb6a6349	-0.0035764745
5	0xbe4f1832	-0.20224074
6	0x3e001d39	0.12511148
7	0xbdc7953a	-0.097452596
8	0xbe303a3d	-0.17209716
9	0xbb175fc7	-0.002309786
10	0x3e22ca66	0.15897521
11	0xbd0706c2	-0.03296543
12	0xbda29a1b	-0.079395495
13	0xbb97ea92	-0.0046361173
14	0xbdc381b0	-0.0954622
15	0xbe0edd8e	-0.13951704
16	0xbe0313fd	-0.12800594
17	0xbdec54aa	-0.11539586
18	0x3d20c657	0.03925165
19	0x3cc8a0ad	0.024490679
20	0x3d4e6687	0.050390746
21	0x3b9a70c0	0.004713148
22	0x3c58fba5	0.0132435905
23	0xbd90a650	-0.070629716
24	0x3d8a0f6b	0.06741222
25	0xbe037417	-0.12837254
26	0xbbfa0f3a	-0.0076312097
27	0xbe18df2b	-0.14928882
28	0xbcffd824	-0.031230994
29	0xbc8b3ef2	-0.016997788
30	0x3deb2e28	0.11483413
31	0x3d91dc91	0.07122148
32	0xbc86b51f	-0.016443787
33	0x3d77dfe1	0.060516242
34	0xbdbda9c7	-0.09260898
35	0x3de8e329	0.11371452
36	0x3e053619	0.13008918
37	0xbcd66dae	-0.026175346
38	0xbe3d0ac2	-0.18461135
39	0x3dca114c	0.0986658
40	0x3db89ddb	0.090144835
41	0xbe3582b4	-0.1772564
42	0x3e297944	0.16550165
43	0xbe1d8a5c	-0.15384811
44	0xbd3f3ca1	-0.04668868
45	0x3df6da2a	0.1205333
46	0x3e2fe984	0.17178923
47	0x3e21e8f8	0.15811527
48	0x3d57b8da	0.052666523
49	0x3e08d5cf	0.13362812
50	0x3b3dc70f	0.002895776
51	0xbb2949c8	-0.002583133
52	0x3dc625e4	0.09675196
53	0xbcbe3c2b	-0.02322205
54	0x3d5f64ea	0.0545396
55	0x3dc25364	0.09488562
56	0xbdc4a7d0	-0.0960232
57	0xbdad7efd	-0.08471487
58	0x3dfe989f	0.12431454
59	0x3df75083	0.12075903
60	0xbe005091	-0.12530734
61	0xbe71b803	-0.23605351
62	0x3e10ef2a	0.14153734
63	0x3d0c90b2	0.03431768
64	0xbde95e39	-0.11394925
65	0xbc7c96e3	-0.015416834
66	0x3ddb9f62	0.10723759
67	0xbe1c1662	-0.15242913
68	0x3d44d5f7	0.048055615
69	0x3dafd463	0.085854314
70	0xbd223a63	-0.039606463
71	0xbda3e77c	-0.080031365
72	0xbe2feaff	-0.17179488
73	0x3d855a14	0.06511322
74	0xbc86eb3f	-0.016469596
75	0xbd86333f	-0.06552743
76	0x3ddcccf1	0.10781277
77	0x3d3e79e6	0.04650297
78	0xbd96e6c2	-0.07368232
79	0x3e11236f	0.14173673
80	0x3de9a311	0.114080556
81	0xbd35ba98	-0.044367403
82	0xbd158d09	-0.036511455
83	0x3e276dfd	0.16350551
84	0x3e7e141c	0.24812359
85	0x3de72440	0.11286211
86	0x3d3b1d0c	0.045681998
87	0xbc017ec2	-0.007903757
88	0x3c7d1681	0.01544726
89	0x3d66a2c1	0.056307558
90	0x3e027da5	0.12743242
91	0x3c54db11	0.012991683
92	0x3dedec65	0.11617354
93	0xbd4efdfd	-0.05053519
94	0x3d98c84c	0.074600786
95	0x3e2d9553	0.16951494
96	0x3d7eac8b	0.06217627
97	0x3d8deb8b	0.06929692
98	0xbdcd4693	-0.100232266
99	0x3c900f3b	0.017585387
100	0xbe4f20bc	-0.20227331
101	0xbe063e29	-0.1310965
102	0x391699da	0.00014362429
103	0xbd28e077	-0.04122969
104	0xbc9d47f5	-0.01919935
105	0x3d50d84d	0.05098753
106	0xbdfff533	-0.1249794
107	0xbd971f63	-0.073790334
108	0x3d4bc651	0.049749676
109	0x3d85b20c	0.065281
110	0x3df6e1c5	0.12054781
111	0x3de84676	0.11341564
112	0xbd56faa0	-0.05248511
113	0x3e246f15	0.16058
114	0x3dc46b21	0.09590746
115	0xbc71d320	-0.014759809
116	0x3cc187f0	0.02362439
117	0xbdeb7053	-0.114960335
118	0x3dc07afb	0.09398457
119	0xbb0b16b4	-0.002122325
120	0x3d9c881e	0.0764315
121	0x3de4e70b	0.111768804
122	0x3d289abf	0.041163202
123	0xbe12c336	-0.1433228
124	0x3d4fef1c	0.05076514
125	0x3cac4cca	0.02103271
126	0x3d186074	0.03720136
127	0x3defa718	0.117017925
128	0x3d343f0f	0.04400545
129	0x3ba0c342	0.004906089
130	0xbd9b693c	-0.07588431
131	0x3d2b259a	0.041783907
132	0x3e5267bc	0.20547384
133	0x3d32a48c	0.043613955
134	0xbc37e272	-0.011223422
135	0xbde5e938	-0.112261236
136	0x3dd8d959	0.10588331
137	0x3cb6ec76	0.02232955
138	0x3dc3e366	0.09564857
139	0xbdaf92be	-0.08572911
140	0x3e1d6564	0.15370709
141	0x3d9563d9	0.07294435
142	0x3dae4f14	0.08511177
143	0x3deca5c6	0.11555056
144	0x3dd3c14b	0.10339602
145	0xbca733ca	-0.020410437
146	0xbe04d2ff	-0.12971114
147	0xbcef2ce1	-0.029196205
148	0xbabcd294	-0.0014406019
149	0xbd78b04e	-0.060715012
150	0x3d84d4d8	0.06485909
151	0x3e2af1f6	0.16693863
152	0xbc787ad8	-0.015166007
153	0x3d4cb099	0.049973104
154	0x3cb395a7	0.021921946
155	0x3e30283c	0.17202848
156	0x3d2967ce	0.04135876
157	0xbdbf8655	-0.09351794
158	0x3deeda7c	0.11662766
159	0x3d952900	0.07283211
160	0x3d668115	0.056275446
161	0xbde69fe4	-0.112609655
162	0xbde68086	-0.11254983
163	0x3ddf8570	0.10914123
164	0xbd9403b1	-0.072272666
165	0xbcad0c81	-0.021124126
166	0x3d2736fd	0.040823925
167	0xbcba4180	-0.022736311
168	0x3d824c88	0.063622534
169	0x3d144003	0.03619386
170	0x3d482709	0.04886535
171	0xbc9ca3e1	-0.019121112
172	0x3de7fe46	0.11327796
173	0xbdcb8d9c	-0.09939119
174	0xbce02214	-0.02736
175	0x3ce966f5	0.028491477
176	0x3e0a45f6	0.1350325
177	0x3e31fe47	0.17382155
178	0x3dfed9e1	0.12443901
179	0x3e1a829d	0.15088888
180	0x3c7dc680	0.015489221
181	0x3e030546	0.1279498
182	0xbd85077d	-0.06495569
183	0x3dae5b88	0.08513552
184	0xbd8273ad	-0.0636972
185	0x3c3bd7c5	0.011465018
186	0xbde4ad60	-0.11165881
187	0x3d8b0880	0.067887306
188	0x3deccfda	0.11563082
189	0x3cd5d2b1	0.026101442
190	0x3d64eab0	0.055887878
191	0x3d42335c	0.04741226
192	0xbdf1504b	-0.11782893
193	0xba95e696	-0.0011436518
194	0xbdc30d29	-0.095239945
195	0x3d9c9b54	0.07646814
196	0x3d465097	0.0484167
197	0x3d01790b	0.031609576
198	0x3d90010d	0.070314504
199	0xbd131238	-0.035906047
200	0xbc6806d4	-0.014161784
201	0xbde716e8	-0.11283666
202	0x3dfb322a	0.122654274
203	0x3d4cb94d	0.049981404
204	0xbd8d31c7	-0.0689426
205	0x3dd0a6b3	0.10188045
206	0x3c82a6d2	0.015948687
207	0xbdb0e816	-0.08638017
208	0xbc0321d6	-0.008003673
209	0x3db3ac0c	0.0877305
210	0x3c960965	0.018315027
211	0xbd905a6d	-0.07048497
212	0xbdd347f0	-0.10316455
213	0x3d88a964	0.06672934
214	0xbad3bd0c	-0.0016154363
215	0x3d31cb21	0.04340661
216	0xbba418b9	-0.00500783
217	0x3d82f770	0.06394851
218	0x3d97c66b	0.07410892
219	0xbce5260c	-0.027972244
220	0xbd0d35dd	-0.034475196
221	0xbd9b3175	-0.075777926
222	0x3c5f0ad6	0.013613423
223	0xbc9c36d4	-0.019069113
224	0xbbf6eaf3	-0.0075353323
225	0x3c010776	0.007875314
226	0x3d37dabb	0.044886332
227	0xbe2dafd3	-0.16961603
228	0x3d478f93	0.048720907
229	0xbca8b4cd	-0.020594025
230	0xbd98297c	-0.074297875
231	0x3c37023e	0.011169968
232	0xbd2c8823	-0.042122018
233	0xbdc3cf0d	-0.09560976
234	0xbd74ab83	-0.05973388
235	0x3c90ff7d	0.017699951
236	0x3d61936c	0.055072233
237	0x3da356f1	0.07975567
238	0x3bd941d6	0.0066301627
239	0xbdad4c0b	-0.0846177
240	0xbd5963eb	-0.053073805
241	0xb935ad23	-0.00017326004
242	0xbc91f7e4	-0.017818399
243	0xbde15bc8	-0.11003834
244	0xbdd4f12a	-0.10397561
245	0x3b543dee	0.0032385546
246	0x3d6f97ee	0.0584945
247	0xbe28f385	-0.16499145
248	0x3d983cbf	0.074334614
249	0x3c73dac8	0.0148837045
250	0xbdc921bd	-0.09820888
251	0x39993492	0.00029221602
252	0xbdd33340	-0.103125095
253	0x3dd889b5	0.105731405
254	0x3d90f842	0.070786014
255	0x3dd177ff	0.102279656

layer3.bias f4 [5]
0	0xbd62cf5e	-0.055373542
1	0x3de17b2f	0.110098235
2	0x3c538599	0.01291027
3	0xbd8da176	-0.06915562
4	0xbd878cac	-0.06618628
