Archived/PPO_example/ppo_critic.pth (torch, 20143 bytes, 5 tensors)

layer1.weight f4 [64, 3]
000000 55 1d 90 3d ff 13 f9 be 9a d0 10 bf c3 2f 20 be
       0.07036845 -0.48648068 -0.565683 -0.1564322
000010 47 57 f9 be 0a d7 ea be 01 08 db bd d9 4a 3d 3e
       -0.486994 -0.45867187 -0.10694886 0.18485583
000020 e8 e8 09 3f b8 60 ac 3d 52 b0 a6 bd b5 8b b0 be
       0.5387101 0.08416885 -0.08139099 -0.34481588
000030 a3 a8 2a 3e ae 18 2f bd a5 32 ff ba 63 6d 45 3d
       0.16665892 -0.042748146 -0.0019470049 0.048200022
000040 47 7e a7 be 1b 43 6e 3e 48 39 44 3e 7f ff a5 3e
       -0.3271353 0.23267786 0.19162476 0.3242149
000050 81 2b 10 3f 63 24 29 be 91 ac c1 bd 5c 10 08 bf
       0.5631638 -0.16517787 -0.094567426 -0.5314996
000060 c4 eb e5 3e cc 94 a7 be 2e 62 72 be 41 36 1b bd
       0.44906437 -0.3273071 -0.23670265 -0.037893537
000070 6e eb 78 3e 63 5b cd be ef b2 8d be 5b b7 40 be
       0.2430856 -0.40108785 -0.27675578 -0.18819945
000080 c9 56 90 3e 1f d9 98 3d 1a 30 01 bf ea a8 b6 3e
       0.28191212 0.074632876 -0.5046402 0.35675746
000090 b1 43 e1 bd c6 df 46 3e 2c e0 79 be 7b 12 37 3d
       -0.10999239 0.194213 -0.24401921 0.04469536
0000a0 81 e5 04 3f b9 22 f1 3e da 94 1b be ba 38 1a be
       0.51912695 0.47096804 -0.15193501 -0.15060702
0000b0 7b 68 95 be ad 3b f3 3e c6 f9 89 3e 14 53 dc 3c
       -0.29181275 0.47506467 0.26948375 0.026895083
0000c0 62 a2 0f bf 5f 84 cf 3e 6f 8e a4 be 60 6f 11 bf
       -0.5610715 0.4053068 -0.32139918 -0.5681057
0000d0 58 94 d8 be 85 97 00 be 3f 9d bc bc 9e b0 f2 be
       -0.42300677 -0.125578 -0.0230242 -0.47400373
0000e0 b8 83 13 3f 1d 73 df 3e ff b7 83 bd e4 88 9d be
       0.5762286 0.43642512 -0.06431579 -0.30768502
0000f0 6e 0d f7 be b5 b1 a7 be 30 50 24 3e da 32 f1 be
       -0.48252434 -0.32752767 0.16046214 -0.4710911
000100 54 ee b2 be b2 9d 85 3c 06 d9 8d 3b b3 b4 95 be
       -0.34947455 0.016310547 0.0043288497 -0.29239425
000110 af 8d b1 3e d1 ac 70 be ee 43 66 be 23 f4 ba be
       0.34678409 -0.23503424 -0.2248685 -0.36514387
000120 85 21 77 be 47 e2 f4 3c df b3 05 bf bf f7 a5 be
       -0.2413388 0.029893054 -0.52227587 -0.32415578
000130 0d e2 7d 3e bc 8e aa 3e 16 c1 89 be 57 59 9f 3e
       0.24793263 0.33312023 -0.26905125 0.31122848
000140 d2 8d a2 be 31 ef ab 3e 76 d7 97 3e a9 76 11 3d
       -0.31748825 0.33580926 0.2965657 0.035513554
000150 82 19 61 3e 6d 6f ea be d5 10 0b 3f 1f 01 10 3f
       0.21982387 -0.45788136 0.5432256 0.5625171
000160 d1 8e 0f 3f f2 6d 10 bf 6a 2e d7 be 40 82 9f bc
       0.56077296 -0.56417763 -0.420276 -0.019471288
000170 0a 00 1d be 9f 1d f8 3c 3f 2f 73 3e 22 62 97 3e
       -0.15332046 0.030287562 0.23748492 0.29567057
000180 b4 0f ab 3e 35 3e e2 3e 12 42 9a be 82 04 46 3c
       0.33410418 0.44188085 -0.30128533 0.012086036
000190 48 dd 5c bd 85 8a b2 be 3f b2 98 be dd b1 9c bc
       -0.053921968 -0.34871307 -0.2982349 -0.01912778
0001a0 26 e3 95 3e 11 45 11 bf 6d 9b be be 2e 86 0c 3f
       0.29274863 -0.5674601 -0.37227955 0.5489224
0001b0 08 1e a4 3d f1 67 05 bf 3f a0 02 bf e1 ba df 3b
       0.080135405 -0.52111727 -0.51025766 0.0068276976
0001c0 14 d8 51 be 2d a2 75 be 57 e7 68 3e 15 ad ab be
       -0.20492584 -0.23987646 0.22744499 -0.3353049
0001d0 f6 d0 77 be 43 b8 96 be 4d f7 94 3e 7a 47 c0 3e
       -0.24200806 -0.29437456 0.29094926 0.37554532
0001e0 c4 67 ea bd 4e dc 12 3f 80 f1 00 bf 9f 72 47 3d
       -0.11445573 0.5736741 -0.503685 0.048693296
0001f0 aa 01 de 3e 03 7d d5 3e b5 14 a9 3d fc e9 f5 3e
       0.43360645 0.4169694 0.08255903 0.48030078
000200 ae c4 0d bf 3f 2f 91 be 4f 51 73 3d f2 fa c3 3e
       -0.55378234 -0.28356358 0.059403714 0.38277394
000210 c9 f0 92 bd 4a 85 41 3e fc 6b 0f bf 72 78 f6 3d
       -0.071748324 0.18898502 -0.56024146 0.12034692
000220 7a 7b a1 3e 01 25 00 be 58 26 b7 be 18 78 9c bd
       0.31539518 -0.12514116 -0.3577144 -0.076400936
000230 54 48 f8 3e ee da d2 bc c3 fe 0f bf 4a 94 66 3d
       0.48492682 -0.02573916 -0.5624811 0.056293763
000240 5d 29 70 be 07 bd 19 bd 22 98 34 be 30 c8 70 be
       -0.23453279 -0.037533786 -0.17636159 -0.23513865
000250 40 c8 a5 3e 65 34 2f be f5 4f c1 be eb 6d 06 3f
       0.3237934 -0.1710983 -0.37756315 0.5251147
000260 dd df 5b be fe 47 ce 3d 26 cc 9a 3e d1 dc c9 3e
       -0.21472116 0.10072325 0.30233878 0.39426282
000270 6f eb c1 3e 4c 14 49 be 0b fc 08 bf 4f a6 df bd
       0.37874934 -0.19636649 -0.5350959 -0.10920393
000280 4a ef f4 3e e2 f0 9b 3e 20 fb 0b 3f 92 ea ea be
       0.47838813 0.30457217 0.5468006 -0.45882088
000290 b1 be 08 3f 7d f7 68 3e ba cc 0c bf a0 bf 47 be
       0.5341597 0.2275066 -0.5499989 -0.19506693
0002a0 2a f1 0f 3f 3b 41 6f 3e 07 54 b6 bd 21 c7 c9 3e
       0.5622736 0.23364727 -0.08902746 0.39409736
0002b0 3a 58 96 3e f9 5f df 3e 6f 12 b4 3e 2b 00 08 3f
       0.29364187 0.4362791 0.35170314 0.53125256
0002c0 89 bf bc be 85 70 0e 3f 80 87 ce 3e 96 a4 12 3f
       -0.3686488 0.5564044 0.40337753 0.5728239
0002d0 b0 09 4b be 01 c7 af 3e da a2 83 be 50 4e 5a 3e
       -0.19827914 0.34331515 -0.25710183 0.21318936
0002e0 c1 79 03 3f 7e 4e 3d 3c c6 4e 0b 3f 1e 4a a2 be
       0.51357657 0.0115543585 0.54417074 -0.31697172
0002f0 cb 61 c3 3e 27 1b 30 3e b0 35 08 3f d2 3f de 3e
       0.38160548 0.17197858 0.5320692 0.43408066

layer1.bias f4 [64]
000000 42 81 01 bf 1b 38 9a be 10 19 18 3e 50 fc 0b 3e
       -0.50587857 -0.3012093 0.1485331 0.13670468
000010 83 9e 10 3d 08 9e 18 be b8 43 10 3f 4d bf 8b be
       0.03530742 -0.14904034 0.5635333 -0.27294388
000020 fb a0 21 3e 74 87 06 3f 90 81 1b be 49 c5 0f bf
       0.15784065 0.52550435 -0.15186143 -0.5616041
000030 19 a5 0f 3d 0e 3b f5 be 5a df fc 3e 3c 20 da 3e
       0.03506956 -0.47896618 0.49389154 0.42602718
000040 cf c7 03 bf e2 15 5e 3e 31 01 e3 3b 8b 87 e6 be
       -0.5147676 0.21688035 0.0069276323 -0.45025286
000050 f0 9a e4 be 0b 8f 9f 3e 2f cd 22 be 7a 84 b2 3e
       -0.44649458 0.3116382 -0.15898584 0.34866697
000060 7e 6a ec 3e b5 38 4d bd 96 4c 96 be 64 e7 a1 be
       0.46174997 -0.05010291 -0.29355305 -0.3162185
000070 e9 42 a3 3e 43 e6 a2 3d f0 de 6d 3e 1c 67 18 be
       0.31886986 0.07954075 0.23229575 -0.14883083
000080 4a 98 04 3f 08 91 04 bf 2e 80 f1 3e 09 80 bc be
       0.51794875 -0.517838 0.47168106 -0.36816433
000090 f2 f9 21 3d 77 31 b2 3e 37 57 0f 3f 3e d5 82 bd
       0.039545007 0.34803364 0.55992454 -0.06388329
0000a0 c7 88 d5 be 07 7e 50 3e ef 58 8e 3e 60 16 01 bb
       -0.41705915 0.20360576 0.27802226 -0.0019697174
0000b0 a5 6e bd be a6 1b d4 bc e2 45 bb 3e a4 18 5b 3d
       -0.36998478 -0.02589209 0.36576754 0.053490296
0000c0 c7 e7 ec 3e 17 99 b2 bc df 6e 00 3e 8a c0 a7 3e
       0.46270582 -0.021801515 0.12542294 0.32764083
0000d0 ad 7b 0f 3f 39 b7 c4 be fe be 87 3e 53 59 12 be
       0.5604809 -0.38421038 0.26512903 -0.14291887
0000e0 46 2c a0 be f0 40 1b be a0 c9 66 bd a0 a2 9c 3e
       -0.31283778 -0.1516149 -0.05634463 0.30592823
0000f0 82 60 d5 be 2a 7b 06 3f 0e cc 62 be 42 b9 a7 be
       -0.41675192 0.52531683 -0.22148153 -0.32758528

layer2.weight f4 [64, 64]
000000 e2 22 da 3d 70 90 6c bc 90 0e bb bc 88 52 f6 3c
       0.106511846 -0.014438733 -0.022834092 0.03006865
000010 98 0a 96 3d 98 cb dd bc 68 39 b8 bd 66 54 91 bd
       0.07326239 -0.02707462 -0.089953244 -0.07096176
000020 0a 1e bb 3d b0 88 c4 bc 3a 9e db bd 30 96 71 3c
       0.09136589 -0.023990959 -0.10723539 0.01474528
000030 6e a8 f9 bd f0 f8 77 bd 62 81 92 3d 58 d3 22 bd
       -0.121903285 -0.06054014 0.07153584 -0.039752334
000040 5e 0b d0 bd 1e cf 86 3d 20 da 87 bc 60 fc dc 3d
       -0.10158418 0.06582473 -0.016583502 0.10790324
000050 16 1e c3 3d 38 ea 0f 3d 00 a4 37 ba 8c fa fc bd
       0.09527223 0.035135478 -0.0007005334 -0.123524755
000060 00 e7 4a 3d 78 5d 3e bd 08 53 fe 3d 2e a0 ca bd
       0.049536705 -0.046475857 0.12418181 -0.09893833
000070 60 73 97 bd 96 21 8c 3d 86 0e ea bd 98 fd 3e bd
       -0.07395053 0.068423435 -0.114285514 -0.046628565
000080 a0 b0 81 3d 16 5e 9d 3d c6 bf b8 bd 24 e1 8a bd
       0.06332517 0.07683961 -0.09020953 -0.067812234
000090 08 1c d7 bc 7a a9 92 bd c0 74 3e 3c 90 02 a5 bc
       -0.026258484 -0.07161231 0.011624515 -0.020142823
0000a0 46 8c 99 3d 6e 5e f9 3d bc b4 3f 3d f8 70 e2 bd
       0.07497458 0.12176214 0.04680322 -0.11056703
0000b0 3c 06 eb bd 10 02 b9 bd a0 29 ea bc e0 9d 2b bc
       -0.114757985 -0.090335965 -0.028584301 -0.010474652
0000c0 56 51 d6 bd 20 77 d7 3b c0 07 0b bc 48 a7 ba 3c
       -0.10464732 0.00657548 -0.008485734 0.022784844
0000d0 c0 d1 28 bc e2 d9 e0 3d 96 96 92 bd 04 80 5f bd
       -0.010303915 0.10979058 -0.07157628 -0.054565445
0000e0 64 57 07 3d 86 a4 87 3d 8a 66 ec 3d e8 64 94 3d
       0.033042327 0.06623177 0.11542995 0.07245809
0000f0 b0 de 6b bd ec 37 6f 3d 50 3d cc bc 8e 8d f3 3d
       -0.05758542 0.05840294 -0.02493158 0.11892234
000100 12 b2 b2 3d a8 ff fb bd 22 5e f8 3d ae a2 ad 3d
       0.087253705 -0.12304622 0.121273294 0.08478294
000110 92 c6 e1 bd b8 78 6a 3d 52 aa b2 bd c8 26 db 3c
       -0.110242024 0.057244033 -0.08723892 0.02675189
000120 90 e2 95 bc 16 89 c6 bd d2 2a b4 3d 38 10 23 3d
       -0.01829651 -0.09694116 0.0879723 0.03981039
000130 18 12 69 3d d4 7e 71 bd 3e 28 9b bd da f3 ab 3d
       0.05690202 -0.058958843 -0.07576035 0.0839612
000140 36 f8 cf 3d d2 a4 c0 3d 00 1d 30 ba 0e da f8 bd
       0.10154764 0.09406437 -0.00067181885 -0.12150966
000150 c0 b2 23 bd 46 a3 b9 bd 18 e6 f8 bd 20 31 89 3d
       -0.03996539 -0.09064345 -0.12153262 0.06698823
000160 20 1b 60 bc 80 51 8a ba 44 df f7 3d 54 12 5f 3d
       -0.013678342 -0.0010552853 0.121031314 0.05446084
000170 6c 3d 8e bd a4 f6 f5 3d 48 52 52 3d 2c 23 a8 bd
       -0.06945309 0.120099336 0.051348 -0.082098335
000180 a2 c2 b0 bd 7e 9a a1 3d c8 95 ee 3d 60 6a 23 bd
       -0.08630873 0.07890795 0.11649662 -0.03989637
000190 a0 39 d8 3b 84 47 43 3d 40 4c 70 3c f8 b0 8b bc
       0.0065986663 0.047675624 0.014666617 -0.017052159
0001a0 5c 45 eb bd be 00 ae bd 66 52 fd 3d 14 2d 64 bd
       -0.114878386 -0.08496235 0.12369232 -0.055707052
0001b0 50 05 af bd e2 1a 8e bd be bb 8c 3d a4 e7 a0 3d
       -0.08545935 -0.06938721 0.068717465 0.07856682
0001c0 34 59 f1 3d 6c be 34 bd 00 ab 0d 3a c8 e2 de 3c
       0.11784592 -0.044126913 0.0005404204 0.027207747
0001d0 1c ca 05 bd 74 f8 b8 bd 98 3c 9d 3d 68 49 ce bd
       -0.03266345 -0.09031764 0.07677573 -0.10072595
0001e0 80 e8 ef 3c 8c ca 2f bd 72 e4 f3 3d fe 3b f0 3d
       0.02928567 -0.042917773 0.11908807 0.117301926
0001f0 22 22 ca bd 00 9d 07 3c 80 73 57 bd 6a bc fe 3d
       -0.098697916 0.008277178 -0.052600384 0.12438281
000200 be 89 ae 3d 60 87 57 3c 98 9d 59 3d b2 e3 d0 bd
       0.08522366 0.0131548345 0.05312881 -0.101996794
000210 ac 4f ae 3d 10 70 80 3d 68 8f 58 3d 78 63 a5 bc
       0.0851129 0.06271374 0.052871138 -0.020189032
000220 40 7a 1b bb 44 f0 3b bd cc 58 05 3d dc a2 70 bd
       -0.002372399 -0.045883432 0.032555386 -0.058749065
000230 a0 b0 d4 bd 24 b7 ac 3d d2 3c a9 bd 00 15 ff 3d
       -0.10385251 0.08433369 -0.08263554 0.12455177
000240 40 ad e6 3c 44 a9 d3 3d 00 b0 b9 bc f8 6c 30 bd
       0.028158784 0.10335019 -0.022666931 -0.04307267
000250 78 5e 70 bd 8a 4a 8e bd 98 cd 2c bd 54 96 9f bd
       -0.058683842 -0.06947811 -0.042188257 -0.07792345
000260 4e 73 e6 3d d0 f8 cd bc 44 35 d7 3d 40 fb 54 3d
       0.112524614 -0.025143057 0.105082065 0.051997423
000270 6a 6f ec bd 78 b6 63 3d 78 e4 d8 bc e4 77 b2 bd
       -0.11544688 0.055593938 -0.02647613 -0.087142736
000280 9a 1d c2 3d e8 aa c6 3d 62 86 f0 bd ba d0 e4 3d
       0.09478302 0.097005665 -0.117443815 0.11172624
000290 56 4e 84 bd c0 a2 1c bd f0 75 b9 3d b6 2d d1 bd
       -0.06460254 -0.038241148 0.09055698 -0.10213797
0002a0 d0 97 e9 3c 84 18 ba bd 44 17 d8 3d 18 0d 72 bd
       0.028514773 -0.09086707 0.105513126 -0.05909452
0002b0 4e 0c e4 3d 98 e1 90 bd 72 59 d4 bd a0 f8 cc 3b
       0.111351594 -0.070742786 -0.10368623 0.0062552243
0002c0 00 2b cd 3c a8 aa 4e 3d e6 19 af bd b2 06 a0 3d
       0.025044918 0.05045572 -0.085498616 0.07813777
0002d0 88 85 e3 3c 1a cc dd 3d d0 81 9a 3d 60 26 ec 3d
       0.027773634 0.10829945 0.07544291 0.11530757
0002e0 60 df fc bb 30 42 d2 bc 60 22 d2 3d 08 7e 76 3d
       -0.007717058 -0.025666326 0.10260463 0.060178787
0002f0 98 a1 5d 3d bc 70 2c bd a8 62 c4 3c c0 80 4b 3d
       0.054109186 -0.0420997 0.023972824 0.049683332
000300 a6 66 81 bd f0 8c b0 3c 30 59 d4 3d c0 92 ac bc
       -0.06318407 0.02155158 0.10368574 -0.02106607
000310 92 90 d3 bd 1e 65 b8 3d 44 61 f0 3d 14 42 5b bd
       -0.10330309 0.090036616 0.11737302 -0.053529814
000320 36 58 84 3d c8 bc 7b 3d a0 e0 30 bd 48 a1 b0 bc
       0.064621374 0.061459333 -0.04318297 -0.02156128
000330 90 05 fe 3c 7c fb f3 bd 88 40 49 bd 64 17 cb bd
       0.031008512 -0.11913201 -0.049133807 -0.09916571
000340 08 73 ca bc b2 93 8e 3d 68 66 5b bd e0 9b 5d 3d
       -0.024713054 0.069617644 -0.05356446 0.054103732
000350 5a ec c8 3d 00 48 66 3d be 6d db 3d 68 76 ed 3c
       0.098107055 0.05622101 0.10714291 0.028987125
000360 60 82 ec bc 10 ab 1a 3d d8 c8 c5 bc 00 60 ea 3d
       -0.028870761 0.037760794 -0.024143621 0.11444092
000370 70 78 b1 3d 78 ea e4 bc 8e 47 c8 bd 02 1c 97 3d
       0.0866555 -0.027943835 -0.09779273 0.07378389
000380 b4 5c f5 3d b2 51 d7 bd e8 07 88 3d a8 36 23 3d
       0.11980572 -0.10513629 0.06642133 0.039847046
000390 1c 0b c5 3d 34 cc 1e 3d 44 f1 8c 3d a0 b1 21 3c
       0.096212596 0.038768962 0.06881955 0.009869009
0003a0 72 81 d6 bd 80 e9 32 3c 70 f4 74 bc 78 c3 80 3d
       -0.104739085 0.010919929 -0.014950857 0.06287283
0003b0 78 0e 88 3d 50 ef cd 3c c8 dd b7 3d 64 4c 53 3d
       0.06643385 0.025138527 0.08977848 0.051586524
0003c0 e0 dd c8 bc 64 57 ff 3d 3e 83 99 bd 40 3f 6c 3c
       -0.02451986 0.1246784 -0.074957356 0.014419377
0003d0 a0 14 65 bc 90 d6 5b bc 10 91 61 bc b4 8e ad 3d
       -0.013981968 -0.013417855 -0.013767496 0.08474484
0003e0 fc ec 6f 3d 80 b9 4c 3b b6 1f d3 3d 04 fa 57 bd
       0.058575615 0.0031238496 0.10308783 -0.052728668
0003f0 2c 16 3c 3d d8 b3 ed 3d 06 b5 ab 3d d4 26 95 3d
       0.045919582 0.11606568 0.08384137 0.072827965

layer2.bias f4 [64]
000000 60 a8 15 3c 42 23 be bd f8 cb bf bd b6 05 e5 bd
       0.009134382 -0.09284069 -0.09365076 -0.1118273
000010 30 9a 22 bc b4 fc 9b 3d 80 32 2c 3b 64 e3 16 bd
       -0.0099244565 0.07616559 0.0026275218 -0.03683795
000020 b0 ae b3 bd 10 d6 7f bc c8 a1 d3 bc b8 e8 ac 3d
       -0.08773553 -0.015615001 -0.02583398 0.08442825
000030 e8 f9 a2 bc e0 96 bb bc 44 8b c2 bd d0 ea 96 3d
       -0.019894555 -0.022899091 -0.09499219 0.07369006
000040 00 00 82 ba 72 48 ab 3d b0 d6 3f bd a0 51 db bb
       -0.0009918213 0.08363427 -0.0468356 -0.00669308
000050 60 c5 50 3c 46 89 98 bd 16 f9 94 3d 80 63 9d 3a
       0.01274237 -0.07448058 0.07274072 0.0012007803
000060 60 85 52 bd 90 f3 f9 bc 8e 24 c6 bd 28 df 88 bc
       -0.051396728 -0.030511647 -0.09674941 -0.016707972
000070 c0 fc 3c bc c4 db 81 3d a8 78 f5 3c e8 b9 d3 bc
       -0.01153487 0.06340745 0.02996476 -0.025845483
000080 6e 1d 8b 3d 50 19 e1 bc f0 27 2a bd 56 f8 b6 3d
       0.06792723 -0.02747789 -0.041541994 0.08934085
000090 00 cd 4b bb 7c a7 24 3d 26 db bd 3d c0 f8 c9 3d
       -0.0031097531 0.040198788 0.09270315 0.098618984
0000a0 6a a3 e8 bd 04 7d 2f 3d 9a 7f c5 bd f0 58 1e bc
       -0.11359294 0.042843834 -0.09643479 -0.009664759
0000b0 9c af 4a bd c0 93 06 3b 7a 77 97 bd f8 7b fa bc
       -0.04948388 0.0020534843 -0.07395835 -0.030576691
0000c0 f8 46 f8 bd 7c bd f3 3d ba 91 97 3d cc f3 12 bd
       -0.12122911 0.11901376 0.07400842 -0.035877034
0000d0 20 73 90 3c 50 d1 97 3d b0 51 d1 bd 80 2e e4 3b
       0.01763302 0.0741297 -0.10220659 0.006963551
0000e0 1c a9 4c bd 00 05 40 ba f8 ba e5 3d ec cb 41 bd
       -0.049965963 -0.0007324964 0.11217302 -0.047313616
0000f0 68 7b 16 bd 20 26 cc 3d d8 c4 a5 bc 60 80 78 bc
       -0.036738783 0.09968209 -0.020235464 -0.015167326

layer3.weight f4 [1, 64]
000000 0b 64 3e 3d 90 39 8e bd 2e 3f 6a 3d f0 6e 25 3c
       0.046482127 -0.06944573 0.05718916 0.01009725
000010 44 75 23 bd 1f 60 f5 bc 72 5c 85 3b d2 7e d5 bd
       -0.039906755 -0.02995306 0.004069858 -0.1042458
000020 b3 0d cf 3c 5c 9a 39 be 87 6d ef bd dd b3 bf 3c
       0.025275087 -0.1812529 -0.116908126 0.023401195
000030 e5 67 ae bd 06 9e 54 bd a6 b0 91 bd 99 d7 b8 bd
       -0.0851591 -0.051908515 -0.07113771 -0.09025497
000040 87 15 c8 bd f6 1a 13 be 2e 1d 9f bd 11 4e 3d bc
       -0.09769731 -0.14365754 -0.077692375 -0.011554257
000050 a4 83 fe bd 8a 77 2a bd ea 6d 29 be 01 50 de bd
       -0.12427452 -0.041617908 -0.16545835 -0.10855103
000060 13 90 c0 bc a3 a8 57 3d 92 12 39 3d 0a c3 02 3d
       -0.0235062 0.05265106 0.045183726 0.031924285
000070 d2 a9 07 be 28 ef df 3c bd 5f c3 bd f3 f7 81 3d
       -0.13248375 0.027335718 -0.09539745 0.06346121
000080 91 5c 3c bc 1e c3 b7 bd 87 55 29 bd c2 ec 26 3c
       -0.011496679 -0.089727625 -0.04134133 0.010188283
000090 5a 3d 6a 3d a1 56 b8 bd c6 be 22 be 82 08 0f be
       0.057187416 -0.09000898 -0.15893087 -0.13968089
0000a0 0f b9 37 be 43 3b 22 be b3 f9 39 be 86 56 06 be
       -0.17941688 -0.15842919 -0.18161659 -0.13118944
0000b0 8d 9b 43 3c 7e b4 dd bd 38 93 e6 bd 4a 38 04 bd
       0.011938942 -0.10825442 -0.112585485 -0.032280244
0000c0 7c d5 b5 bc a7 2c bc bc 45 6f 03 be 90 7e ee 3b
       -0.022196524 -0.02297051 -0.12835415 0.007278271
0000d0 0a 5c b8 bd 26 73 f7 bd 2c e7 3e 3d 3f e5 16 be
       -0.0900193 -0.1208251 0.04660718 -0.14735888
0000e0 fb d6 b5 bd 69 e6 10 3c 6b 4c bb 3b 2f 6b b2 bd
       -0.08878895 0.008843997 0.005715897 -0.0871185
0000f0 82 06 81 bc 05 fa 93 bd 97 b6 0a be c9 6f b7 bd
       -0.015750173 -0.07225422 -0.13546215 -0.08956868
