CS141 Final Project/ppo_actor.pth (torch, 21927 bytes, 6 tensors)

layer1.weight f4 [64, 9]
000000 d8 16 9f 3e f4 92 42 3c c3 f4 ad bb 0a f9 0d be
       0.31072116 0.011875857 -0.005308719 -0.13864532
000010 9e d1 a8 3c d6 5e 89 3e b5 86 3b be e3 b6 3b bd
       0.020607766 0.26830167 -0.18313105 -0.04582871
000020 08 a3 a9 be 91 7a 6d 3e fe 1d 30 be 44 e8 9f 3d
       -0.33132195 0.23191287 -0.17198941 0.07807973
000030 2b b5 9e 3e a3 ff 77 be 0e fc de bd fd cd 14 bc
       0.30997595 -0.24218611 -0.10887919 -0.009082315
000040 25 f0 53 be 90 33 0e be 7e 6c 82 3e 5a 76 3c 3c
       -0.20697077 -0.13886857 0.25473398 0.011502827
000050 4d 95 72 3c 30 ba 61 be 17 66 6a 3d f7 c5 54 3e
       0.014806104 -0.22043681 0.057226267 0.20778643
000060 5c df 40 be 72 de 9a 3d ca 80 0c 3e 51 e8 12 bd
       -0.18835205 0.07561959 0.13721004 -0.035866085
000070 4d 3c 3c be b0 20 a1 3e 71 54 a4 3e 81 0d 70 be
       -0.18382378 0.3147025 0.32095674 -0.23442651
000080 1a aa 74 be a7 43 9b 3c 5b 77 a7 be c3 c9 e3 3d
       -0.23893014 0.018953158 -0.32708248 0.11122467
000090 06 d9 02 3d 14 a3 3c 3e 79 4d ef 3b df d8 80 3e
       0.03194525 0.18421584 0.0073029366 0.2516546
0000a0 a2 0c 5f 3c 20 ba 36 3e 87 cd e1 3c d9 5b 4a be
       0.013613852 0.17844439 0.027563823 -0.197616
0000b0 a1 e7 03 3e 20 01 8f be 79 fb 78 3d 16 0c 61 3c
       0.12881328 -0.27930546 0.060786698 0.013735792
0000c0 58 f2 68 be e8 e2 5c 3e c5 15 0c 3e 6e c9 5c be
       -0.22748697 0.21570933 0.1368018 -0.21561214
0000d0 71 18 83 3b b0 d3 99 be fe 16 8d 3e 90 2e a7 3c
       0.0040007164 -0.30044317 0.27556604 0.020407945
0000e0 33 6f 91 3e ea 16 4d be 90 a3 62 3e 72 ed a4 3e
       0.2840515 -0.20028272 0.22132707 0.32212406
0000f0 51 07 32 3e 23 63 67 3e d9 6e 9c be 75 57 63 3e
       0.17385603 0.22596411 -0.3055332 0.22201331
000100 27 b9 77 3e d7 e2 51 be 42 13 46 be c5 b2 b4 bc
       0.24191724 -0.20496689 -0.19343284 -0.0220579
000110 71 84 97 3e 02 63 8a 3e 8e 68 51 3e ac d3 a1 be
       0.29593232 0.27028662 0.2045004 -0.31606805
000120 2c 83 3a be 0c 9d 9e be 53 ac db 3c 2b 0a 7a 3e
       -0.182141 -0.30979192 0.026815569 0.24417941
000130 af 30 8f 3e 12 89 60 3e 52 8e 31 be 8e dd b0 3d
       0.2796683 0.21927288 -0.17339447 0.08636008
000140 6a e4 3d bd 14 35 ac 3d ba cc 58 be 32 c3 ef bd
       -0.04636041 0.08408561 -0.21171847 -0.117071524
000150 fb 2d aa 3e 68 07 4d be 84 ea 29 be 9f 92 8b 3d
       0.33238205 -0.20022357 -0.16593367 0.06815075
000160 30 0d 0f bc f4 2f 0f 3e 30 64 8a be 87 a1 86 3e
       -0.0087311715 0.13983136 -0.27029562 0.2629511
000170 ac c0 a8 be 4e 9a 51 be c1 f4 23 3e 4d 8d a8 bd
       -0.32959497 -0.20469019 0.16011335 -0.08230076
000180 fe b3 f8 3d dc 9e 79 3e 72 32 8c bd 2a ca 4b 3e
       0.12143706 0.24377006 -0.06845559 0.19901338
000190 e6 70 09 be 2d 9c 06 3e 28 6f 0e be ce 17 4e 3e
       -0.13421974 0.13145514 -0.1390959 0.20126268
0001a0 e5 da 59 be 42 60 14 3e 9d bd 89 be aa 05 14 3e
       -0.21274908 0.14489844 -0.26902476 0.14455286
0001b0 7e 73 80 3e 6a 43 83 3e 34 71 96 3e dc 3e 74 be
       0.25088114 0.2563737 0.29383242 -0.23852104
0001c0 9e 38 99 3e e9 58 42 be 5f 07 8a be b3 cb 2a be
       0.29926008 -0.18979229 -0.2695875 -0.16679268
0001d0 e5 15 60 be 34 f1 11 bd 82 66 1b bd a5 1b 73 3e
       -0.21883352 -0.03563042 -0.037939556 0.23741014
0001e0 99 9e 52 b9 96 ee 92 3e ea 6c e3 bd d5 93 f7 bb
       -0.00020086243 0.28697652 -0.11104758 -0.0075554647
0001f0 0e c6 9e bd 0e 13 a6 be dd d4 20 be 41 35 53 bd
       -0.0775262 -0.32436413 -0.15706201 -0.05156446
000200 40 3e 5f 3c 50 8b 80 3d bf 03 5e 3e 10 77 99 3e
       0.013625681 0.06276572 0.21681117 0.2997365
000210 3f 64 8c be 51 9c 6f be 69 e3 70 3d be 9a 6a 3e
       -0.27420232 -0.23399474 0.058810625 0.22910592
000220 4a 88 46 3e e2 b9 b4 bc c5 d2 07 3e a2 fe 90 bd
       0.19387928 -0.022061292 0.13263996 -0.07079817
000230 90 9b a3 3e 18 45 b3 3d a4 d1 ca bc 0e 9a 4a be
       0.31954622 0.08753413 -0.024758168 -0.1978533
000240 15 9c 13 3b d8 f1 bc 3d 08 2f 5f 3e 7b e9 9c 3d
       0.0022523452 0.092258155 0.21795285 0.0766172
000250 a4 e6 aa be 99 70 0a 3d 1b 3d 80 bb 8a 25 28 3e
       -0.3337909 0.033798788 -0.0039135343 0.1642057
000260 81 a5 49 3d 85 7e 86 3e c4 4f 87 be ce 74 a7 be
       0.049230102 0.26268402 -0.26428044 -0.32706302
000270 dc 8d 17 be 7c 4b 3e 3e 52 44 0c be ba 46 05 be
       -0.14800209 0.18583483 -0.13697937 -0.13015261
000280 e5 e5 52 bd 0d 30 67 be 68 7f cd 3d f6 81 22 3e
       -0.051488776 -0.22576924 0.100340664 0.15869889
000290 26 9c e4 bd 36 cd 5d 3e c6 07 9c bb 94 e2 44 3e
       -0.111625955 0.21660313 -0.004761669 0.19227058
0002a0 4f 06 7c bc e8 84 52 3e e9 a1 b1 3d 8e 1a 9b be
       -0.015382363 0.20558512 0.0867346 -0.30293697
0002b0 38 84 90 3d bf a3 5b be 60 3c ea 3d 32 e9 79 3e
       0.07056469 -0.21449183 0.11437297 0.24405363
0002c0 d2 06 9d 3e 95 3d 0a be 78 b3 fc bd 42 ae 60 bd
       0.30669266 -0.13500054 -0.123389184 -0.054853685
0002d0 80 e1 84 be 80 b6 05 bd 13 cd e4 ba 2b 1b a3 3e
       -0.25953293 -0.03264475 -0.0017456136 0.31856665
0002e0 03 41 b9 3d 4a 4b 92 3d 2f 6e 8f 3e 5f d9 03 be
       0.09045603 0.071432665 0.2801375 -0.12875889
0002f0 19 18 de bc de c8 81 be 64 a5 c2 bd 4b bf 7d 3e
       -0.0271111 -0.25348562 -0.09504202 0.24780004
000300 ed dc 70 3d 2f bb e8 bd d2 aa 44 3e a8 15 07 be
       0.05880444 -0.113638274 0.19205788 -0.13191855
000310 29 f9 6f be 96 12 4e 3e f1 75 0c be 42 26 52 3e
       -0.23434891 0.20124277 -0.13716866 0.20522407
000320 d1 c7 c2 3d 57 f7 a4 bd 38 e9 90 be 74 90 1c be
       0.09510768 -0.08054989 -0.28302932 -0.1528948
000330 a8 44 38 be 2e d7 14 be 69 e6 a4 be 57 5a d9 3d
       -0.1799494 -0.1453521 -0.3220704 0.10612934
000340 90 90 08 3e f8 ef f3 3d f2 3a 7e be 0a 88 4d 3e
       0.13336396 0.11911005 -0.24827173 0.20071426
000350 ed 20 53 be 21 59 86 be 94 4a 94 bd a5 b1 a0 bc
       -0.20618029 -0.26239875 -0.07240787 -0.019615958
000360 d9 5f a3 3e 03 5f 8f 3e 27 08 a0 be 4d 24 fa bc
       0.31909063 0.28002176 -0.3125622 -0.030534888
000370 49 d4 a7 be dd aa 37 3d 9c 96 4f 3d 0a ea a3 be
       -0.32779148 0.044840682 0.05068074 -0.32014495
000380 96 c2 8d 3c e7 a6 7f 3d 19 d1 67 bd e3 6f 97 3e
       0.0173047 0.06241503 -0.056595895 0.2957755
000390 3a 8e 53 3e 83 68 f6 3d 30 e5 53 be 19 ee f6 bb
       0.20659724 0.12031653 -0.20692897 -0.0075357077
0003a0 ff e2 70 be 5a c7 0e 3d 8d 14 0e 3e bf 90 a2 be
       -0.23524092 0.034858085 0.13875027 -0.31751058
0003b0 1e 56 49 3e e0 a7 1a be 3b 2e d5 bd 48 d6 31 be
       0.19661757 -0.15103102 -0.104092084 -0.17366898
0003c0 dd 3a 6d be 94 23 1d 3d a7 f1 94 bd 64 fb ce 3d
       -0.23166986 0.038364008 -0.07272654 0.10106543
0003d0 44 bd e5 3d 0f c7 7e 3d c1 84 04 3e 02 64 f4 bd
       0.1121774 0.062201556 0.12941267 -0.119331375
0003e0 11 f2 8f be af 9d 55 3e 7a 5b 49 bd 24 9b f2 3d
       -0.2811437 0.20860933 -0.049159504 0.11845997
0003f0 7f 0a 41 bd 09 4c 80 be 6b d7 af 3d ec 62 8d be
       -0.04712915 -0.2505801 0.085860096 -0.27614534

layer1.bias f4 [64]
000000 24 11 72 be f4 e3 93 be 2e 05 92 be a3 e9 b3 bd
       -0.23639351 -0.28884852 -0.28519577 -0.08784797
000010 ea 98 4e 3e b0 dd ae bd 65 84 b2 bd 76 61 f8 3d
       0.2017552 -0.08538377 -0.087166585 0.12127964
000020 30 e6 23 be 6c 0a 1f 3d c4 b7 27 be 80 5e 53 be
       -0.16005778 0.0388283 -0.16378695 -0.20641518
000030 8e d5 37 be 5b e6 79 be 3b 66 95 be d4 54 90 bd
       -0.17952558 -0.2440428 -0.29179558 -0.0704743
000040 85 09 05 3d 1d be 0e 3e b4 e6 88 be 79 16 61 3e
       0.03247978 0.1393971 -0.26738513 0.21981229
000050 28 3b da 3d 15 e7 be 3c c7 de 6f bd 3b 46 15 3d
       0.106558144 0.023303548 -0.058562066 0.03644393
000060 ac 86 85 be 26 a4 49 3e c5 72 58 3e 18 16 45 3e
       -0.2607931 0.19691524 0.21137531 0.1924671
000070 9a 02 80 bd d2 70 92 3e cd 32 8f be b3 51 01 be
       -0.06250496 0.286017 -0.27968445 -0.12628822
000080 e5 cd 07 be 2a 14 71 be ab 20 84 3e c5 b9 64 be
       -0.13262136 -0.23542848 0.25806174 -0.2233649
000090 0a 2e 03 bd a3 94 f0 3d cd 5a 98 3d 8d 8c aa 3d
       -0.03202633 0.117471 0.07439194 0.08327589
0000a0 4e 54 d4 bd ff 6a 75 3e 78 af 96 3b ca 34 d8 3c
       -0.10367642 0.23966597 0.004598554 0.02639236
0000b0 9d 6f 0b 3e e0 9d 7a 3e e3 42 36 3c 28 0c 74 bd
       0.13616796 0.24474287 0.0111243455 -0.059581906
0000c0 89 ad 53 3e 78 ab a0 3e de e5 39 be 76 88 4f be
       0.20671667 0.3138082 -0.18154094 -0.202669
0000d0 57 bf 91 3e 50 bd ed 3d d7 83 a6 be 3e f7 f8 bd
       0.28466293 0.11608374 -0.3252246 -0.12156533
0000e0 d3 2b f4 bd a2 49 a6 be d1 c3 16 3c 2e 15 38 3e
       -0.11922421 -0.32478052 0.00920196 0.1797683
0000f0 09 f1 83 3e 6d 04 83 be 58 de 35 3d e5 cb a9 be
       0.25769833 -0.25589314 0.044401497 -0.33163372

layer2.weight f4 [64, 64]
000000 7c 9e ff bc ae f5 f9 bd 19 b1 d0 3d 2e 7a ba bc
       -0.0312035 -0.12205063 0.10190029 -0.022763338
000010 ea c5 94 3d cc 1d b7 3d 26 42 89 3d be 96 bf 3d
       0.072643116 0.0894123 0.0670207 0.09354924
000020 3b 04 1f bd 73 4b a1 3d 01 b0 46 3d 07 55 14 ba
       -0.038822394 0.07875719 0.048507694 -0.0005658422
000030 bb 91 4a 3d 8b 6e 2e 3d 85 6e 62 bc 9f d3 f7 bc
       0.049455386 0.04258589 -0.013820295 -0.030252276
000040 db 6c 33 3d b0 7a 8e 3c 45 60 c9 3c 42 79 90 3d
       0.043804985 0.017392486 0.024582038 0.07054378
000050 a0 ca be 3d 8f 2a f6 3d 00 51 aa 3d b4 cf 6b 3d
       0.093159914 0.12019836 0.08316231 0.057571128
000060 3e 8b fe ba 42 07 fe bd 39 b3 b1 bd 94 b0 e2 bd
       -0.001942016 -0.12403728 -0.08676762 -0.11068836
000070 0c a8 30 3d 85 db e8 3d d9 6c f0 3d 65 f9 61 bb
       0.043129012 0.11369995 0.11739511 -0.0034480926
000080 d6 8f e4 bc 2f 80 dd 3d 55 95 ef 3d c7 c8 a6 3c
       -0.027900618 0.10815465 0.11698405 0.02035941
000090 14 c3 c4 3d c5 7c 11 bd d9 44 92 3c 41 85 f8 bb
       0.09607521 -0.03551938 0.017855095 -0.0075842445
0000a0 67 f5 d5 3d f3 33 b6 3d dd f6 ae 3d 40 de b9 3d
       0.104471974 0.08896627 0.08543179 0.09075594
0000b0 38 74 d5 3d 9c 0c a4 3c 3b 94 c3 bd ec e2 cf bd
       0.104225576 0.020025544 -0.09549757 -0.10150704
0000c0 dd 74 a1 bd 10 e6 f4 bd 14 b6 99 bd 99 9c f4 3d
       -0.07883618 -0.119579434 -0.07505432 0.11943931
0000d0 48 7c b4 3c a0 87 bb bd dd 87 2d 3d b0 1b 03 3d
       0.022031918 -0.09156728 0.042365897 0.032008827
0000e0 30 7b 4c 3d e9 3b d2 bd 91 77 83 3c d6 8a 86 bd
       0.04992217 -0.10265333 0.016048225 -0.065694496
0000f0 1a 32 1c bd d2 8f 80 3d ee 92 fa bc f2 b1 eb bd
       -0.038133718 0.062774315 -0.03058764 -0.1150855
000100 ed 22 ee 3d 22 ca 8a bd 04 e9 db bc e5 4b bc bd
       0.11627755 -0.06776835 -0.026844509 -0.09194163
000110 6f 4f cc bd 5b e9 ae bb 3c 4e 80 bd 18 cd d5 bd
       -0.09976088 -0.0053378767 -0.06264922 -0.10439509
000120 f3 b9 53 bc 42 ff a2 3d 22 20 84 bd 13 fb d5 3c
       -0.012922752 0.07958843 -0.06451441 0.026120698
000130 25 9a 2d 3d 8a 37 52 bd bf c2 8b 3d fd 7e e8 bd
       0.04238333 -0.051322497 0.06824254 -0.11352346
000140 22 a7 bc 3d 26 0d 56 3b cb 0b 8a 3c d8 57 ee 3d
       0.092115656 0.0032661646 0.016851326 0.116378486
000150 a5 11 f6 3d b1 92 ad bd 70 37 c6 bb 5f 14 a4 3c
       0.12015084 -0.08475245 -0.006049089 0.020029245
000160 e3 df ef bd 3e 81 99 3d cf 6a df bd 60 4f 29 3d
       -0.11712625 0.07495354 -0.10909044 0.041335464
000170 cb b7 23 3d 5b c6 30 bd 3a 2d 59 bd 0b c3 cd bc
       0.0399702 -0.043157917 -0.053021647 -0.025117418
000180 52 29 58 bc c1 ed 08 3d ea 14 6d 3d ba 1b c3 3d
       -0.013193445 0.033429865 0.057881273 0.09526773
000190 9a db ff 3c 5b b8 cc bd f7 81 13 3d 3d 69 4a 3c
       0.031232644 -0.099961005 0.036012616 0.012354192
0001a0 b5 2e 79 3c 4e eb ef 3d 78 be ae 3d 6f 6d 6d 3d
       0.01520889 0.11714803 0.08532423 0.057965692
0001b0 49 a4 a0 bd d7 02 4c bd 35 0f bf ba 19 05 10 bc
       -0.07843835 -0.049807396 -0.0014576676 -0.008790278
0001c0 e4 cd ad 3d 59 9d 2d bd 5e 46 28 3d ea 5c a0 3d
       0.08486536 -0.042386387 0.041082732 0.07830222
0001d0 e7 a4 58 bc 74 4c 0e 3d ae e4 aa bd 2f 12 c7 bc
       -0.0132229095 0.03474088 -0.083443984 -0.024300663
0001e0 4e 5d 6c 3c 1b b2 ec 3c f6 a8 6a bd be b3 20 bd
       0.014426542 0.028893521 -0.05729004 -0.039233916
0001f0 b1 92 a6 3d 84 31 8a bd d8 0f c2 bb be 0e e8 3c
       0.08133448 -0.067477256 -0.005922299 0.028327342
000200 9e 97 da 3b 82 a8 b2 bc 47 1b db bc 44 52 a4 bd
       0.006670906 -0.021808866 -0.026746405 -0.080235034
000210 ff d3 85 3d c4 ab 4c 3d b2 0f af 3c e4 34 2f bd
       0.06534576 0.049968496 0.021369789 -0.04277505
000220 66 70 e8 bd ae 82 d9 bd f2 9d 8a bd 5b 5f b6 3d
       -0.11349563 -0.10620628 -0.06768407 0.08904906
000230 26 06 56 3d f3 6e be 3d 38 43 95 bd 73 76 4b 3c
       0.052251957 0.09298506 -0.072882116 0.012418377
000240 a0 40 cc bc 2b 3f a9 bd 04 05 39 bd 69 48 6f bd
       -0.02493316 -0.082640015 -0.0451708 -0.058418665
000250 03 ed ff 3d d5 10 df 3c f6 c2 55 bd d2 34 02 3d
       0.12496378 0.027229706 -0.052187882 0.031788655
000260 35 ed b0 bd 0b 96 08 3e 8c 10 c3 3d 7b f0 cb 3d
       -0.08638994 0.13338487 0.095246404 0.099579774
000270 8f 1d 7d bd 2b ee 67 bd 9d 4e fb 3c 76 54 cf 3d
       -0.061795767 -0.05662362 0.030677134 0.101235315
000280 e0 8c f6 3c 3b b3 83 3d 68 a3 a5 bd 8b f9 8e bd
       0.030096471 0.0643067 -0.08087808 -0.0698119
000290 d5 3b 91 bd 61 cf 18 3d 0a 75 d5 bd c1 c0 d7 bb
       -0.0709149 0.037307147 -0.10422714 -0.0065842574
0002a0 a7 9a 67 bd 88 b1 a9 3c 89 b6 ca bc 85 c4 ae 3c
       -0.056543972 0.020714536 -0.024745243 0.021333942
0002b0 2a a6 fa bc 02 95 b4 bd b2 2b cc bd 3f 09 a4 bc
       -0.030596811 -0.088174835 -0.09969272 -0.02002394
0002c0 c4 a0 2b bd ac 62 03 bd 42 14 9a bd 58 95 7a 3c
       -0.041901365 -0.032076523 -0.07523395 0.015294395
0002d0 f7 16 d7 3d a1 f4 b3 3c fc 7a d7 3c 0c cd 3b bd
       0.10502427 0.021967234 0.02630376 -0.045849845
0002e0 52 d9 78 bd c6 c8 d8 3d 1d 65 c0 bc 5b 82 a7 3d
       -0.060754128 0.105851695 -0.023485715 0.0817916
0002f0 f7 99 49 3d 07 02 a5 bd 16 0b c6 bd 01 18 02 3e
       0.049219098 -0.08057027 -0.09670083 0.1270447
000300 7f 7e cb 3d 14 ec 2b bd 6c 1f 81 bd 24 fc 2e bd
       0.099362366 -0.04197319 -0.06304821 -0.04272093
000310 2e c2 05 bd 72 d1 8d 3b db 4a f1 bd dd 7f f7 3d
       -0.032655887 0.0043279463 -0.11781856 0.12084935
000320 22 ce bf 3d f2 ed ef 3d a9 1d 8c bd d2 fa d6 bd
       0.093654886 0.11715306 -0.06841595 -0.10497059
000330 60 f9 98 bd 1a 59 43 3d 1c 38 af bd 11 26 8f 3c
       -0.074694395 0.047692396 -0.08555624 0.017474206
000340 0c 9a ba 3d 8a af 98 bd 89 a0 b8 3d 3f 03 ee bd
       0.09111413 -0.074553564 0.09014995 -0.11621713
000350 d7 92 99 bd 94 e3 90 bd a6 bd b0 bd 51 5b 0e 3e
       -0.074987106 -0.07074657 -0.086299226 0.13902022
000360 f9 67 fc bd f0 2f 83 bd 2e 10 bd bc 7c e5 cc bd
       -0.12324519 -0.06405628 -0.023079004 -0.10004708
000370 b3 5b e3 bc 6c e8 8a bd 1d 63 70 3d e7 17 84 bd
       -0.027753687 -0.06782612 0.05868827 -0.064498715
000380 7e c6 8b bd b5 d7 cb bd 69 0c cd 3d b1 87 e9 3d
       -0.06824969 -0.09953252 0.10012133 0.11402834
000390 36 ea 04 be 88 c6 37 3d 11 80 65 3d ef 24 bb bd
       -0.1297997 0.04486707 0.056030337 -0.09137904
0003a0 d3 00 93 3d 24 ce e0 3b 4b 18 7e 3d 3c a2 7b bd
       0.071778916 0.0068605114 0.062034886 -0.061434016
0003b0 69 a5 83 3d a2 b5 7b bd 31 97 0b 3d d2 36 9a 3d
       0.06428034 -0.061452515 0.034079734 0.075299874
0003c0 04 49 0c 3d ae b6 01 bd 98 a8 b8 3d f8 90 73 3d
       0.03424932 -0.031668358 0.09016532 0.059464425
0003d0 b9 b4 92 bd 44 45 cb 3d 63 28 99 bd 10 e4 32 bd
       -0.07163376 0.09925321 -0.07478406 -0.04367453
0003e0 6a 43 a6 bd 30 2b 68 3c 5e a1 01 be ed f1 16 3d
       -0.08118327 0.014170453 -0.12659213 0.036851812
0003f0 9b c6 4e 3d f3 92 d3 bd ac 88 ca 3c 8a 32 be 3c
       0.050482374 -0.10330763 0.024723373 0.023217458

layer2.bias f4 [64]
000000 85 42 a1 3d 6b 6c a9 3c aa 3e 06 3b ae 3f 17 bd
       0.07874016 0.02068158 0.0020484128 -0.036925964
000010 14 3f f2 bb 76 7d 9d bd e0 a6 fa bd e8 f5 89 3d
       -0.0073927734 -0.076899454 -0.1223886 0.06736356
000020 43 04 e5 bd b2 22 93 3b 74 3b b7 3d eb c9 ff 3d
       -0.111824535 0.00449022 0.08946887 0.12489685
000030 96 32 5d bd ab fa 08 3d 09 14 eb 3d 61 ae ce bd
       -0.05400332 0.03344218 0.11478431 -0.10091854
000040 eb 0d 82 3b c4 da 53 3d e1 59 ac bd f9 43 88 3c
       0.0039689443 0.051722303 -0.084155805 0.016633974
000050 1f a2 ba bc 06 5e e4 bd b4 bf 59 3d 6f 0a 55 3d
       -0.022782383 -0.11150746 0.053161338 0.052011903
000060 fd b3 e3 bd 8d 6a c7 bd 24 10 91 3d 11 69 52 bc
       -0.111183144 -0.0973712 0.07083157 -0.012842433
000070 80 90 6c 3d fd 6a a5 3d 5d 4f e6 3d 58 14 55 bd
       0.057754993 0.08077047 0.11245606 -0.052021354
000080 f1 12 9c bd 6f 48 0d bd 8c 93 ca 3d b0 16 dc bd
       -0.076208 -0.034492906 0.098914236 -0.10746515
000090 db 52 31 bd 59 ad 7a bd 07 8b 31 3d a0 35 1d 3d
       -0.043291908 -0.061200473 0.043345477 0.03838122
0000a0 67 5b bb 3d de a6 ab 3d ae 02 cb bd 8d bf a5 3d
       0.09148293 0.08381437 -0.099126205 0.08093176
0000b0 e1 e3 ae 3d 0a 78 ed bd 19 8a c2 3b 20 12 d2 3d
       0.08539558 -0.11595161 0.0059368727 0.10257363
0000c0 c9 57 df bc 0f 30 2d bd bb a4 a4 bd fb 1d e4 3d
       -0.027263539 -0.04228216 -0.08039232 0.11138531
0000d0 97 f0 ec bd 96 e3 27 3c 97 c5 50 bd bb fd df 3d
       -0.11569326 0.010247132 -0.050969686 0.10937067
0000e0 9b 81 62 bd db 35 13 bd de 65 93 bd 0f 01 cf 3d
       -0.055299383 -0.035940032 -0.07197164 0.10107624
0000f0 1f 8b d8 3d 78 af 48 bd 42 a0 87 3d 46 36 c9 bd
       0.1057341 -0.048995465 0.066223636 -0.09824805

layer3.weight f4 [2, 64]
000000 21 54 35 3d 7e f6 2c bc 93 7b 7b 3d 9b c2 dc bd
       0.044269685 -0.010556815 0.061397146 -0.107793055
000010 de 0d ca 3c 2d a5 7e bd 66 60 03 bd b6 45 b8 bd
       0.024664816 -0.062169243 -0.032074355 -0.08997671
000020 95 1f ae bd 17 f6 5a 39 0d cc 03 be 75 c0 ae 3d
       -0.085021175 0.00020881776 -0.12870808 0.08532802
000030 5d c7 85 bc 99 a5 8c bc e5 92 f0 3d 91 88 53 bd
       -0.016330415 -0.017168807 0.11746768 -0.05164391
000040 12 cd 65 3d c4 5b 02 3d 8b 2d dd 3d c6 8e de 3d
       0.056103773 0.031825796 0.10799702 0.108670756
000050 d6 e6 b5 3d aa 8a a4 3d a3 ca 8c 3d db f8 92 3b
       0.08881919 0.080342606 0.068745874 0.0044852323
000060 83 df 80 3d 2f 6a ba bd e5 a5 48 bd c6 58 1b bc
       0.062926315 -0.09102284 -0.048986334 -0.009481614
000070 bb 56 34 bc 34 06 b7 3d b6 54 de 3c e8 25 ec 3c
       -0.011007006 0.0893673 0.027140003 0.028826669
000080 10 fb b9 3d 88 d2 b9 3d bc dd 92 bd 41 97 ea 3d
       0.090810895 0.09073359 -0.07171199 0.11454631
000090 bc ae de bc 81 77 44 bd 7b 83 4d 3d 0c 90 92 bc
       -0.02718293 -0.04796553 0.050174218 -0.017890953
0000a0 97 2d fa bd 62 f4 fe 3d 38 50 56 bd f8 75 c0 3c
       -0.12215727 0.12448956 -0.052322596 0.023493752
0000b0 e9 da cb bd 2b 13 b0 bb 31 ce 59 3d 96 d6 f0 bc
       -0.09953863 -0.0053733787 0.053175155 -0.029399198
0000c0 61 85 2f bc 6e 88 d6 bd 16 2c 8e 3d 13 36 d6 bd
       -0.010712952 -0.10475241 0.069420025 -0.104595326
0000d0 32 e3 a8 bd 1f 66 84 bd 6f b8 da bc a0 3c d6 ba
       -0.08246459 -0.064647906 -0.026699273 -0.0016344972
0000e0 7c f7 e5 bd c8 f9 e6 bd 29 d4 86 3d 17 a6 cb 3d
       -0.112288445 -0.11278111 0.06583435 0.099437885
0000f0 f7 42 94 3d 1b dd fa 3d 5b 0a fa 3d b9 72 b5 3d
       0.07239335 0.12249204 0.122090064 0.08859772
000100 db 35 f8 bd d0 ac 0d bd 4e 76 ee 3d 2b 8c e2 3d
       -0.12119647 -0.034588635 0.116436586 0.11061891
000110 24 53 d1 3d bf 73 da 3d d2 2f 1d bd d9 58 d6 3d
       0.10220936 0.10666608 -0.038375683 0.10466165
000120 2a 3b ed bd f8 45 cb bd c3 a4 e7 3c 72 ce 23 3d
       -0.1158355 -0.09925455 0.028276807 0.039991803
000130 05 5c 37 3d 94 bc cb 3d f4 ae c3 3d 57 94 a3 3d
       0.04476549 0.09948078 0.09554854 0.07987278
000140 0d f2 92 3c 1e 53 9f 3c 14 31 6e 3d bc bf 44 3d
       0.017937684 0.019448813 0.058152273 0.048034415
000150 2f a6 e6 bb bd 20 8c bc 44 67 d9 3d 29 ba 13 3d
       -0.0070388536 -0.017105455 0.106153995 0.036066208
000160 fa 62 53 3c c3 23 8b 3d 5e fb 37 3d be 67 0a bd
       0.012902016 0.067939304 0.044917457 -0.033790343
000170 f5 31 91 bd 80 de 0a 3d ad 06 6a 3d 5e fb a2 bd
       -0.07089607 0.0339036 0.057135273 -0.07958101
000180 f5 4d e9 3d 59 f5 b3 bc 9f 68 27 bb e7 9b 70 3d
       0.11391822 -0.021967577 -0.0025544537 0.05874243
000190 18 49 b3 3c 1f 06 95 3d 00 e7 92 3d 71 55 3a bd
       0.02188544 0.07276558 0.07172966 -0.04549164
0001a0 0e 0b f7 3d ff 51 b2 3d 42 1e e7 3d 9a fd 86 bd
       0.120626554 0.08707046 0.11285068 -0.065913394
0001b0 b9 83 a6 3c 98 7d 7a bd 1f 71 b8 bd 47 d4 50 3d
       0.020326482 -0.06115493 -0.09005951 0.050983693
0001c0 6f d7 b1 bd 59 bc b1 3d 13 15 42 bd ff 88 cd 3d
       -0.08683669 0.086785026 -0.04738338 0.100358956
0001d0 78 5e b7 bd 8a 08 d2 bc 2a 85 69 bd 8e 6e 2b bc
       -0.08953565 -0.025638837 -0.05701176 -0.01046337
0001e0 37 f6 ec bd 06 81 76 3b 84 11 e8 bd c2 ed d0 3d
       -0.11570399 0.0037613525 -0.11331466 0.10201599
0001f0 1b 51 49 3d 54 7d ee 3b 46 76 0a bd 67 fe bb 3d
       0.049149614 0.007278124 -0.0338042 0.09179383

layer3.bias f4 [2]
000000 71 9d f5 bd 7c 58 68 3d
       -0.1199292 0.05672501
